robot_controllers/config/pointfoot/PF_P441C2/policy/encoder.onnx (onnx, 463944 bytes, 6 tensors)

encoder.0.bias f4 [256]
0.017667217 0.03185109 0.009635927 -0.024961125 -0.06395218 -0.051542304 -0.001661735 0.051196758
-0.07022814 -0.06739237 -0.08454111 -0.020055048 -0.0132337855 0.013084406 -0.04692367 0.06037213
-0.08529397 -0.0064580045 -0.04459416 -0.11876637 0.007878382 -0.033334818 -0.09308592 -0.07471306
-0.0058752084 -0.079063885 -0.29196334 -0.06635973 -0.0091632735 0.009036038 -0.041560143 0.0065545468
-0.024657825 0.035308834 -0.045006808 -0.06314642 -0.086767845 -0.051874585 -0.068892516 0.04872556
-0.00072999357 -0.06512464 -0.002589164 -0.030427562 -0.01083413 -0.053970292 0.16443539 -0.013144658
-0.047668133 -0.042435054 -0.0007584835 -0.05744443 -0.038343813 -0.07432538 -0.049945876 -0.06096674
0.060582887 -0.03657612 -0.030770818 -0.085236944 -0.12384867 -0.043566573 -0.109290294 -0.035345703
-0.03415493 -0.023538738 -0.03432732 0.028013946 -0.0023075312 -0.047314428 -0.010149057 0.025381528
-0.02158006 -0.11683372 -0.04812496 -0.04342675 0.10084328 -0.037932787 -0.08147515 0.021489426
-0.043079566 -0.01936521 -0.052642837 0.00021450351 -0.047140148 -0.079162225 -0.01811203 0.08881585
-0.17337587 -0.06564134 0.0083145825 -0.0067524794 0.1398811 -0.13904384 -0.044485345 -0.084752865
-0.043619346 -0.039437223 0.0066476464 0.088676155 -0.056874484 0.124003954 -0.046052784 -0.07296901
-0.11220075 -0.55693406 -0.09711891 -0.043654058 0.029639203 -0.04766788 0.075920254 -0.054015424
0.11972785 -0.10163692 -0.08446738 0.05257665 0.021406084 -0.10892542 -0.033382032 -0.037598822
-0.04905641 -0.1126384 -0.045965623 -0.0796648 -0.015998736 -0.0016430952 -0.10515958 -0.053510103
-0.0066685136 0.00808258 -0.017782109 -0.009340314 -0.00877098 0.016235601 -0.0038984274 -0.07924895
-0.019721882 0.009720117 0.0015621282 -0.022554044 0.00835996 0.003337547 0.0012208199 0.052145604
-0.01679486 -0.02766076 0.023517735 -0.040429037 -0.06420528 -0.012929205 -0.09938336 -0.0005196246
-0.11793173 0.045058668 -0.013686923 -0.015626643 -0.006827518 0.035309784 -0.05514162 -0.029977495
-0.11568933 -0.05334411 -0.024030175 -0.04709906 -0.08346119 -0.02790126 0.006755768 -0.049759664
-0.058472708 0.009905204 -0.07158788 -0.065823615 -0.039618917 0.004151813 -0.01387487 -0.026444921
0.012248135 -0.038498133 -0.0084952405 -0.043552577 0.035433844 0.098825105 -0.08144783 -0.016296325
0.012497426 0.08930499 -0.043962024 0.067801476 -0.09345424 -0.038899384 -0.08769807 -0.11790447
-0.00046612858 0.012627378 -0.060813066 0.023400992 0.008350934 -0.027425835 0.02061828 0.017885802
-0.040489055 -0.048641983 -0.07660129 -0.05936276 0.025243305 -0.03313893 -0.02677369 -0.0349168
-0.0035166757 0.053456273 -0.053656843 -0.012070287 0.010473773 -0.023252979 -0.0423727 -0.004129814
-0.057066355 0.017096445 -0.07465219 -0.011907619 -0.07561155 0.045053735 -0.003256805 -0.020116352
-0.10109194 -0.025425805 -0.016398143 -0.031677052 -0.01482964 0.0013794411 -0.19063382 -0.040413473
-0.09202295 -0.06406941 -0.013629282 -0.024400972 0.11513184 -0.010670991 -0.14370504 -0.062443048
-0.27997056 -0.045483515 0.027641475 0.01901076 -0.05419429 0.067323044 0.061932016 -0.15502016
0.008691777 0.02735521 -0.017186657 -0.08758982 -0.13815549 -0.062422555 -0.056516435 0.03179871
00000000: d7ba 903c 4a76 023d 02e0 1d3c 467b ccbc
00000010: 5cf9 82bd 061e 53bd 93ce d9ba b1b3 513d
00000020: c5d3 8fbd 0305 8abd e423 adbd 7c4a a4bc
00000030: 85d2 58bc fa5f 563c 0933 40bd c448 773d
00000040: 9bae aebd ab9d d3bb 5ea8 36bd c83b f3bd
00000050: 5414 013c 178a 08bd d5a3 bebd 2903 99bd
00000060: d284 c0bb 3fec a1bd 387c 95be 9ce7 87bd
00000070: 8e21 16bc e40b 143c f83a 2abd 86c7 d63b
00000080: 35ff c9bc ff9f 103d 0f59 38bd e952 81bd
00000090: 57b3 b1bd 727a 54bd 8517 8dbd 7494 473d
000000a0: 0a5d 3fba 1160 85bd f7ae 29bb 3943 f9bc
000000b0: a381 31bc f40f 5dbd c061 283e b15c 57bc
000000c0: a93f 43bd 61d0 2dbd f7d4 46ba da4a 6bbd
000000d0: 670e 1dbd e837 98bd 0c94 4cbd 43b8 79bd
000000e0: c325 783d d7d0 15bd 1513 fcbc b590 aebd
000000f0: 5fa4 fdbd dd72 32bd 97d3 dfbd a8c6 10bd
00000100: 0ae6 0bbd 50d4 c0bc ce9a 0cbd 817d e53c
00000110: f339 17bb c6cc 41bd 3b48 26bc ecec cf3c
00000120: aac8 b0bc 8446 efbd ae1e 45bd 3fe0 31bd
00000130: ec86 ce3d 695f 1bbd 72dc a6bd 980a b03c
00000140: 3374 30bd caa3 9ebc 04a0 57bd 59ec 6039
00000150: 0716 41bd ce1f a2bd ae5f 94bc 16e5 b53d
00000160: 7289 31be f86e 86bd e339 083c e743 ddbb
00000170: fe3c 0f3e 8261 0ebe 4436 36bd e992 adbd
00000180: 33aa 32bd ed88 21bd 80d4 d93b d89b b53d
00000190: 38f5 68bd c9f5 fd3d d8a1 3cbd c770 95bd
000001a0: 82c9 e5bd 3b93 0ebf 47e6 c6bd 99ce 32bd
000001b0: eacd f23c 653f 43bd 147c 9b3d 473f 5dbd
000001c0: e033 f53d 0427 d0bd 3cfd acbd 9d5a 573d
000001d0: d05b af3c 4a14 dfbd 99bb 08bd 3901 1abd
000001e0: 60ef 48bd f6ae e6bd 7346 3cbd 4c27 a3bd
000001f0: c80f 83bc 205d d7ba e85d d7bd 692d 5bbd
00000200: 8c83 dabb cc6c 043c c9ab 91bc 1e08 19bc
00000210: 28b4 0fbc 8600 853c c27c 7fbb 464d a2bd
00000220: c98f a1bc 2041 1f3c 53c0 cc3a 42c3 b8bc
00000230: 37f8 083c bfba 5a3b eb03 a03a a196 553d
00000240: 6095 89bc d198 e2bc 44a8 c03c eb98 25bd
00000250: 0f7e 83bd 04d5 53bc 8189 cbbd 6b37 08ba
00000260: 3186 f1bd 708f 383d 1e3f 60bc 7203 80bc
00000270: 5fb9 dfbb fea0 103d 2edc 61bd 5d93 f5bc
00000280: 87ee ecbd 5a7f 5abd eeda c4bc f2ea 40bd
00000290: b3ed aabd 2f91 e4bc 7d5f dd3b cad0 4bbd
000002a0: 1481 6fbd 7049 223c ab9c 92bd 88ce 86bd
000002b0: 7247 22bd ef0b 883b 6c53 63bc 05a3 d8bc
000002c0: 67ac 483c 38b0 1dbd 9f2f 0bbc 3064 32bd
000002d0: 1423 113d d164 ca3d 1fce a6bd df7f 85bc
000002e0: 01c2 4c3c 89e5 b63d 8611 34bd 80db 8a3d
000002f0: f064 bfbd f654 1fbd 0c9b b3bd e677 f1bd
00000300: b862 f4b9 10e3 4e3c 1f17 79bd 70b3 bf3c
00000310: 5bd2 083c 25ac e0bc abe7 a83c 3f85 923c
00000320: dad7 25bd d13c 47bd 23e1 9cbd 5e26 73bd
00000330: 0ccb ce3c b0bc 07bd 7f54 dbbc eb04 0fbd
00000340: 0778 66bb f7f4 5a3d 47c7 5bbd 74c2 45bc
00000350: 309a 2b3c 087d bebc ff8e 2dbd 6453 87bb
00000360: 69be 69bd d80d 8c3c 3fe3 98bd 2d18 43bc
00000370: 3ada 9abd 448a 383d 1f70 55bb 0ccb a4bc
00000380: 4b09 cfbd c749 d0bc 6655 86bc ccbf 01bd
00000390: 05f8 72bc 5dce b43a 8335 43be 9988 25bd
000003a0: 8776 bcbd d336 83bd 5a4d 5fbc 8ce4 c7bc
000003b0: 3eca eb3d 61d5 2ebc 6a27 13be 48c4 7fbd
000003c0: 4d58 8fbe ec4c 3abd 6070 e23c 74bc 9b3c
000003d0: d5fa 5dbd aae0 893d 6dac 7d3d 9bbd 1ebe
000003e0: f467 0e3c 0918 e03c 08cb 8cbc 4b62 b3bd
000003f0: a278 0dbe cbae 7fbd c77d 67bd 5d3f 023d

encoder.2.bias f4 [128]
-0.08355783 -0.087275244 -0.20456569 -0.03751701 0.037802067 0.072069876 0.020391397 -0.056443978
-0.005131297 -0.077681676 0.0055445307 -0.057504326 0.053318705 -0.020532062 -0.032217782 -0.0034042352
0.045229252 -0.0456752 -0.05757157 -0.07391958 0.0066857063 -0.14967003 0.01120232 -0.07532445
-0.0062255743 -0.047999624 0.03619308 0.022846727 0.012069374 -0.048589207 -0.027367897 -0.0029176793
-0.051654566 -0.25586647 -0.07063601 -0.096589096 0.006390004 -0.0027590292 -0.047183428 -0.07607835
-0.051777564 -0.038866892 -0.039279558 0.015145858 -0.032344654 -0.004000254 -0.035042617 -0.0021395
0.016658498 0.016996244 -0.0035030032 -0.022210252 -0.041514143 -0.0549648 0.04426211 0.0078054443
-0.015697496 0.044458423 -0.09183236 -0.014114863 0.00400934 -0.037031244 0.007178585 0.017123986
-0.097580425 -0.06321945 -0.07212583 0.04170532 -0.02061988 0.038351037 0.029513055 0.012398261
-0.04815011 -0.05298147 -0.03063147 0.016274504 -0.072641276 -0.0020969533 0.047590032 -0.04243281
-0.034743097 0.0082707405 0.029731426 -0.014359621 0.03262504 -0.019779049 0.0036845005 -0.02151671
0.0133095 -0.050145067 0.023753874 0.032007538 -0.021709817 0.034063585 0.058355555 -0.024519533
-0.03643857 -0.025720723 0.019617015 0.055383988 -0.0053030336 -0.06867155 0.054777525 0.008795276
0.03082978 -0.13569835 -0.06265625 -0.21834123 0.0014248411 -0.12602149 -0.07680865 -0.0077306875
0.013856115 -0.0105757285 0.03713269 -0.029022086 0.024575735 0.009838183 0.07640534 -0.027870288
0.011373684 0.059239347 -0.02375966 0.0501622 -0.08103475 0.07379851 -0.04757881 -0.021756522
00000000: 5e20 abbd 5dbd b2bd ab79 51be 70ab 19bd
00000010: 57d6 1a3d 5f99 933d dc0b a73c cd31 67bd
00000020: 7024 a8bb 9217 9fbd e5ae b53b a889 6bbd
00000030: b764 5a3d db32 a8bc cbf6 03bd 9719 5fbb
00000040: 4f42 393d eb15 3bbd 2bd0 6bbd 2663 97bd
00000050: c513 db3b 1a43 19be f089 373c b543 9abd
00000060: e7ff cbbb 419b 44bd 323f 143d 0f29 bb3c
00000070: a0be 453c 7a05 47bd a432 e0bc 8936 3fbb
00000080: bd93 53bd ee00 83be 9da9 90bd 81d0 c5bd
00000090: 3d63 d13b d4d0 34bb 6943 41bd f7ce 9bbd
000000a0: b614 54bd e432 1fbd 9ae3 20bd 5526 783c
000000b0: d47b 04bd 9014 83bb d988 0fbd db36 0cbb
000000c0: 6777 883c b53b 8b3c a492 65bb 46f2 b5bc
000000d0: bc0a 2abd c522 61bd 304c 353d d0c4 ff3b
000000e0: 0998 80bc 091a 363d 9b12 bcbd 0742 67bc
000000f0: c860 833b 13ae 17bd 563a eb3b 9a47 8c3c
00000100: 3fd8 c7bd 3379 81bd b5b6 93bd 33d3 2a3d
00000110: 06eb a8bc fa15 1d3d 5dc5 f13c 1322 4b3c
00000120: 0d39 45bd 1903 59bd d9ee fabc 1c52 853c
00000130: f3c4 94bd 0a6d 09bb c4ed 423d 07ce 2dbd
00000140: c74e 0ebd 0082 073c 528f f33c 9e44 6bbc
00000150: d5a1 053d ac07 a2bc a977 713b d043 b0bc
00000160: 1710 5a3c ea64 4dbd 7c97 c23c 561a 033d
00000170: c9d8 b1bc 4286 0b3d 3c06 6f3d 30dd c8bc
00000180: 9c40 15bd 44b4 d2bc ddb3 a03c 52da 623d
00000190: 12c5 adbb aba3 8cbd 665e 603d 101a 103c
000001a0: bc8e fc3c 82f4 0abe ec51 80bd d894 5fbe
000001b0: bcc1 ba3a c70b 01be da4d 9dbd b551 fdbb
000001c0: c204 633c d245 2dbc 7318 183d babf edbc
000001d0: 0d53 c93c 5530 213c 677a 9c3d 3b50 e4bc
000001e0: b058 3a3c f5a4 723d 9ea3 c2bc e176 4d3d
000001f0: 8cf5 a5bd ac23 973d 00e2 42bd bc3a b2bc

encoder.4.bias f4 [3]
-0.015106896 -0.0031586387 0.007821737
00000000: ea82 77bc 2a01 4fbb be26 003c

onnx::MatMul_18 f4 [300, 256]
0.0331139 -0.13608935 -0.17244993 0.28392738 -0.33683348 -0.25322127 -0.027362127 -0.30341336
0.109929614 0.18003526 0.23003854 0.04821328 -0.3146982 -0.021397162 -0.0011966166 0.6854093
-0.0146331275 -0.07246494 0.17791569 0.34035802 0.0039008132 0.12605348 0.20466726 0.050662264
0.11024733 0.3911602 0.08601016 0.24634168 0.5104054 -0.033059712 0.6183508 -0.13908711
-0.13065517 -0.10817878 -0.008969927 0.074698634 0.24901585 -0.14062776 -0.19763586 -0.1971209
-0.10455781 0.06396505 -0.0016915919 -0.0167081 0.22289826 0.02654162 -0.26490554 0.19287086
0.098236635 0.030699173 -0.011824967 0.105781965 0.04728546 0.0077207102 -0.13938269 -0.051120605
-0.24509136 0.17214642 -0.053390607 -0.08385844 -0.00347096 0.041624036 0.031472117 -0.025283324
0.6504758 0.1140312 0.17007884 0.06657222 0.00861435 0.041087355 0.010918028 0.43638578
0.095283374 0.14925998 0.0013321463 0.6522268 0.81638163 0.14350082 0.40098011 -0.16281988
0.06835008 -0.2531619 0.55368423 0.5423941 0.2913063 0.044971194 -0.1285219 -0.3427575
0.022526026 0.040794577 -0.0069491453 -0.32917327 -0.31568322 0.021448044 -0.0614904 0.34454057
0.003758309 -0.43805897 0.014809192 0.2562432 -0.14492618 -0.7400724 -0.14339337 0.1222093
0.034378115 0.09027596 0.5476148 0.36881772 -0.14227661 -0.10104443 0.0609715 0.9785795
0.10571438 -0.025118178 0.06268514 -0.02660485 -0.095412105 -0.9487528 0.58095217 0.049432524
-0.0009047624 0.3736702 0.12404849 0.22473088 -0.042065963 0.10510339 -0.5161106 -0.27850088
0.07069518 -0.07722739 -0.0808017 -0.30766204 0.12948097 -0.09477495 0.011380606 0.30104446
-0.08824289 0.05526189 0.14554714 0.0851279 0.10997848 -0.07012883 0.044424944 -0.14606427
0.39214513 -0.16647135 -0.050976127 0.041372325 -0.3308484 -0.20024616 -0.11515028 0.22976589
-0.3270119 -0.12458899 0.012298053 -0.028061137 0.28214273 -0.024881152 0.1590146 0.12753083
0.105956174 -0.087500654 0.03832142 -0.063420534 0.24463855 0.120034665 -0.007832086 -0.1484548
0.33459938 -0.03140914 0.22912344 -0.032581504 -0.030392272 0.10195217 0.15679447 -0.039681274
-0.014520116 -0.9199089 -0.037851762 0.025468592 -0.13039519 0.09248465 -0.01936685 -0.12858494
-0.4101038 0.05788079 -0.022201372 0.12299254 -0.08555728 -0.03628765 0.26460338 0.13949049
-0.040690348 0.028498191 -0.025235632 -0.09607247 0.9041837 0.12586725 0.3760295 0.022220073
-0.28489465 -0.09888962 0.18396816 -0.12539944 0.16423039 0.17013462 0.019846663 -0.06875589
0.3652744 0.010530791 -0.28641644 -0.07094666 0.07255577 0.003925599 -0.1803829 -0.16111025
-0.12647022 0.00077812385 0.068361 0.14763416 -0.031512517 -0.46666032 -0.25388527 -0.05195101
0.4520879 -0.0038082139 -0.34941465 0.25025997 -0.23763655 -0.39986578 0.027299654 -0.043289676
-0.035790157 0.3386617 -0.11906617 0.014513588 0.6744849 0.39611638 0.27030936 -0.13206168
-0.09870416 -0.004733113 0.14561574 0.13855454 0.07494901 -0.6639409 -0.67024225 0.10183659
-0.8213758 -0.07198829 -0.169914 -0.5913878 0.014206222 0.085131064 0.060851667 0.10222421
00000000: 71a2 073d 025b 0bbe b796 30be ee5e 913e
00000010: 7075 acbe 38a6 81be 8a26 e0bc ff58 9bbe
00000020: c722 e13d 2a5b 383e 398f 6b3e 4a7b 453d
00000030: 1f20 a1be 1a49 afbc cad7 9cba fc76 2f3f
00000040: c9bf 6fbc 8068 94bd 882f 363e 6843 ae3e
00000050: c9a4 7f3b 2a14 013e 4b94 513e 3c83 4f3d
00000060: 5ac9 e13d 2646 c83e 1826 b03d fe40 7c3e
00000070: eea9 023f 9f69 07bd 3d4c 1e3f da6c 0ebe
00000080: 78ca 05be d68c ddbd 9af6 12bc 99fb 983d
00000090: 03fe 7e3e b900 10be 0e61 4abe 10da 49be
000000a0: 6822 d6bd 1c00 833d 68b8 ddba 6ddf 88bc
000000b0: 713f 643e d06d d93c b3a1 87be f07f 453e
000000c0: 4a30 c93d d57c fb3c 82bd 41bc 37a4 d83d
000000d0: 66ae 413d 03fe fc3b 56ba 0ebe d763 51bd
000000e0: 3bf9 7abe 2747 303e 1cb0 5abd f9bd abbd
000000f0: 0c79 63bb f77d 2a3d e8e8 003d f91e cfbc
00000100: 9585 263f 3189 e93d 2629 2e3e 0457 883d
00000110: 3423 0d3c 374b 283d 87e1 323c f56d df3e
00000120: ee23 c33d 9cd7 183e 6a9b ae3a 56f8 263f
00000130: 63fe 503f e1f1 123e 444d cd3e 41ba 26be
00000140: 20fb 8b3d 709e 81be 40be 0d3f 57da 0a3f
00000150: 1926 953e b733 383d 3f9b 03be e97d afbe
00000160: 8088 b83c 3718 273d a8b5 e3bb 6689 a8be
00000170: 3ba1 a1be cfb3 af3c 5cdd 7bbd 9f67 b03e
00000180: f64d 763b 4449 e0be 41a2 723c 4f32 833e
00000190: 8767 14be 6375 3dbf b6d5 12be df48 fa3d
000001a0: 11d0 0c3d 9ae2 b83d 7c30 0c3f add5 bc3e
000001b0: f6b0 11be 62f0 cebd 40bd 793d 3084 7a3f
000001c0: c880 d83d a3c4 cdbc 1161 803d 6af2 d9bc
000001d0: 6c67 c3bd 77e1 72bf 48b9 143f c279 4a3d
000001e0: 942d 6dba b351 bf3e 220d fe3d da1f 663e
000001f0: 5c4d 2cbd 7240 d73d d31f 04bf ab97 8ebe
00000200: a2c8 903d 6529 9ebd 5d7b a5bd e185 9dbe
00000210: a996 043e 5e19 c2bd b975 3a3c 8022 9a3e
00000220: b0b8 b4bd 4b5a 623d 4f0a 153e 8957 ae3d
00000230: 663c e13d b49f 8fbd eef6 353d df91 15be
00000240: 3fc7 c83e 7777 2abe 58cc 50bd 0776 293d
00000250: f664 a9be 540d 4dbe e9d3 ebbd c047 6b3e
00000260: 1b6e a7be 8328 ffbd c67d 493c 78e0 e5bc
00000270: 0375 903e 8fd3 cbbc b9d4 223e 7197 023e
00000280: 8dff d83d 8b33 b3bd ecf6 1c3d a0e2 81bd
00000290: 8782 7a3e bcd4 f53d 2652 00bc 8904 18be
000002a0: 9c50 ab3e dfa6 00bd 569f 6a3e 2f74 05bd
000002b0: 37f9 f8bc 4dcc d03d bb8e 203e d588 22bd
000002c0: c8e5 6dbc 267f 6bbf 730a 1bbd 82a3 d03c
000002d0: 5186 05be 9868 bd3d 3aa7 9ebc c5ab 03be
000002e0: 20f9 d1be 6814 6d3d a7df b5bc 83e3 fb3d
000002f0: a838 afbd 5ca2 14bd 187a 873e 98d6 0e3e
00000300: ecaa 26bd 0a75 e93c f5ba cebc a5c1 c4bd
00000310: 9578 673f 58e3 003e f086 c03e df06 b63c
00000320: b6dd 91be a486 cabd 2662 3c3e b668 00be
00000330: 032c 283e c537 2e3e 7895 a23c e3cf 8cbd
00000340: 3f05 bb3e 5789 2c3c 2da5 92be 7c4c 91bd
00000350: 1f98 943d 50a2 803b 4cb6 38be 16fa 24be
00000360: 6981 01be 02fb 4b3a da00 8c3d 692d 173e
00000370: 4513 01bd 1aee eebe 40fd 81be 95ca 54bd
00000380: 1178 e73e 3a93 79bb 7ae6 b2be 1322 803e
00000390: ff56 73be 35bb ccbe 86a3 df3c 8450 31bd
000003a0: b398 12bd 1165 ad3e f7d8 f3bd 66ca 6d3c
000003b0: 0bab 2c3f c4cf ca3e fd65 8a3e 2d3b 07be
000003c0: 6825 cabd 3b18 9bbb 4b1c 153e 3ee1 0d3e
000003d0: de7e 993d 08f8 29bf ff94 2bbf b48f d03d
000003e0: af45 52bf 996e 93bd f0fd 2dbe 3165 17bf
000003f0: 37c1 683c 3259 ae3d 993f 793d ed5a d13d

onnx::MatMul_19 f4 [256, 128]
0.09630084 -0.0030232836 -0.012610259 -0.020956524 -0.031370405 -0.008688879 -0.03396952 -0.027554968
0.04029763 -0.037344623 -0.0012404105 -0.014032765 0.004667676 -0.041642416 -0.021715818 -0.021397922
0.01024202 -0.090662606 -0.05112378 -0.15641652 0.008541136 0.023114558 0.04218692 0.066519655
0.0048829545 -0.050699666 -0.0019704446 -0.002426784 0.052441202 0.053720493 0.0007305076 -0.031197961
0.061266802 0.09384815 -0.040190715 -0.107828066 0.016207319 -0.06350676 0.005874051 -0.046797607
0.001485017 -0.0066158623 -0.07946197 -0.0044302563 -0.0023991251 0.011648731 -0.0213972 0.023383336
-0.024931012 -0.039661184 -0.058610547 0.0020647533 -0.09866143 -0.0632092 -0.09305227 -0.011297146
0.016504152 -0.09676386 0.040751133 -0.032711096 -0.009405653 0.009766905 -0.022977829 -0.027993482
0.021971408 -0.027145727 0.045149744 -0.0010293972 0.05953204 -0.04368988 0.029504547 -0.03504571
-0.02149195 -0.021875154 0.015801251 -0.05155623 -0.05129491 0.031735275 0.021759015 0.035770938
0.014753056 0.02428826 0.023841495 0.01667197 0.002872924 -0.049960934 0.010031941 0.08583346
-0.0052956413 -0.017772242 -0.06809334 -0.074449636 -0.009090616 0.020540703 -0.020717766 0.011709141
-0.03528086 -0.052305818 -0.015534091 -0.07496392 0.030284509 0.08909258 0.06068865 -0.017908236
0.03273883 -0.0020231942 -0.028893135 0.04254166 -0.01913909 -0.08046936 -0.0026776798 -0.004578311
-0.052090574 -0.0048982846 0.00054527447 0.0043012886 -0.042030524 0.005869202 0.019170552 -0.007843117
-0.049612384 -0.0039660954 0.048664562 -0.024431966 0.026008172 -0.03860919 0.072071046 -0.011894787
-0.009760411 0.08589792 -0.007812104 0.04172481 2.2230348e-05 -0.024400875 -0.014759836 -0.011742388
0.022204984 -0.04428999 0.0027090013 0.02461991 0.026066883 0.047292747 -0.021088403 -0.04083223
-0.027467417 0.0066938186 -0.024583133 -0.021156637 -0.028111624 0.044386532 -0.037853435 -0.03904235
-0.06601431 0.037726857 -0.03136802 0.051360067 -0.019317264 0.015428279 -0.054521535 0.057162445
0.05097616 -0.011914074 0.018898308 0.03709382 0.0039626495 0.08761076 -0.0017917043 -0.07546659
-0.0047064656 -0.005703417 -0.0329831 -0.023498064 -0.013378849 0.062635876 0.024575708 -0.0030790502
0.026113506 0.063194714 -0.04609796 0.025145736 0.024427956 -0.059028186 0.011339254 -0.034192123
0.01047223 -0.08107999 -0.05377601 0.050904293 -0.037670046 0.042987194 0.004506158 -0.007068065
-0.020864867 -0.025965413 -0.05823913 -0.02090625 -0.010519076 -0.022691153 -0.024348969 0.01750068
-0.009708357 0.006037451 -0.08640978 -0.012213823 -0.017637512 -0.017291388 0.057829004 -0.07427714
0.006657671 -0.0016209297 0.013701099 0.0008396346 0.0061641536 -0.009292069 0.051038533 -0.0008061051
0.036905654 -0.00080056034 -0.021248894 -0.0014193808 -0.018785262 0.06241791 -0.012676149 -0.01787412
-0.0008224831 -0.030740129 -0.047817048 0.00475955 -0.01082177 0.014211245 0.032737292 -0.036100518
0.042398814 0.044660658 -0.03558145 -0.055710807 0.038696595 0.08051884 -0.0069403592 0.053991143
-0.032203764 -0.010738329 0.031602945 0.010108739 -0.029178329 -0.008596673 0.100761294 0.025620863
-0.005546265 0.028996482 -0.04248804 0.089252874 0.04245867 -0.072630756 0.02383464 0.051242333
00000000: 6039 c53d 4822 46bb 429b 4ebc 04ad abbc
00000010: 417e 00bd cd5b 0ebc a023 0bbd f5ba e1bc
00000020: 210f 253d adf6 18bd 4595 a2ba afe9 65bc
00000030: 4ef3 983b 3d91 2abd 5fe5 b1bc b24a afbc
00000040: 25ce 273c 51ad b9bd 2b67 51bd a72b 20be
00000050: 1ff0 0b3c be5a bd3c 31cc 2c3d 753b 883d
00000060: 3101 a03b 74aa 4fbd 9322 01bb ae0a 1fbb
00000070: 96cc 563d 050a 5c3d 897f 3f3a de92 ffbc
00000080: e6f2 7a3d 7533 c03d 059f 24bd f6d4 dcbd
00000090: 36c5 843c d50f 82bd 1c7b c03b d9ae 3fbd
000000a0: e7a4 c23a e0c9 d8bb f5bc a2bd af2b 91bb
000000b0: a43a 1dbb 52da 3e3c 2e49 afbc 698e bf3c
000000c0: 1f3c ccbc c473 22bd 9d11 70bd d050 073b
000000d0: 010f cabd d373 81bd 3092 bebd aa17 39bc
000000e0: b733 873c 212c c6bd a9ea 263d 12fc 05bd
000000f0: 2b1a 1abc 5e05 203c 003c bcbc 9652 e5bc
00000100: 62fd b33c b760 debc f0ee 383d d7ec 86ba
00000110: ded7 733d 29f4 32bd 85b3 f13c 178c 0fbd
00000120: e30f b0bc 8633 b3bc a071 813c a02c 53bd
00000130: 9d1a 52bd d9fc 013d f63f b23c 8c84 123d
00000140: cdb6 713c 2cf8 c63c 3d4f c33c a893 883c
00000150: ab47 3c3b d6a3 4cbd 035d 243c 74c9 af3d
00000160: 0f87 adbb 1897 91bc 8574 8bbd 0d79 98bd
00000170: cff0 14bc fa44 a83c 4eb8 a9bc b2d7 3f3c
00000180: aa82 10bd a03e 56bd b382 7ebc af86 99bd
00000190: 3817 f83c 2c76 b63d a994 783d 4bb4 92bc
000001a0: 2719 063d 9197 04bb 4cb1 ecbc 2a40 2e3d
000001b0: 95c9 9cbc 1fcd a4bd 037c 2fbb a805 96bb
000001c0: ed5c 55bd ca81 a0bb c0f0 0e3a d3f1 8c3b
000001d0: 3328 2cbd 6f52 c03b 900b 9d3c 6b80 00bc
000001e0: 5b36 4bbd 05f6 81bb 7e54 473d 8c25 c8bc
000001f0: 170f d53c ac24 1ebd fc99 933d 5ae2 42bc
00000200: 22ea 1fbc 40eb af3d aefc ffbb a2e7 2a3d
00000210: 4f7b ba37 58e4 c7bc 3dd3 71bc 2563 40bc
00000220: 3ae7 b53c 6c69 35bd 8089 313b b2af c93c
00000230: 378a d53c 0ab6 413d 96c1 acbc b23f 27bd
00000240: 5903 e1bc d257 db3b 9162 c9bc af50 adbc
00000250: 594a e6bc a7ce 353d 340c 1bbd dfea 1fbd
00000260: 8332 87bd 7a87 1a3d c17b 00bd ef5e 523d
00000270: 3d3f 9ebc e4c6 7c3c f951 5fbd 2b23 6a3d
00000280: 61cc 503d 4033 43bc a0d0 9a3c b0ef 173d
00000290: 1dd9 813b 456d b33d 9fd7 eaba 3a8e 9abd
000002a0: b238 9abb bbe3 babb 4919 07bd 037f c0bc
000002b0: f632 5bbc 3d47 803d ff52 c93c e4c9 49bb
000002c0: feeb d53c 3b6c 813d 37d1 3cbd 6efe cd3c
000002d0: 231d c83c 8ac7 71bd 47c8 393c 0a0d 0cbd
000002e0: b793 2b3c 440d a6bd 3c44 5cbd 0581 503d
000002f0: e84b 1abd 5713 303d 65a8 933b 3a9b e7bb
00000300: ccec aabc 6bb5 d4bc 278c 6ebd 9643 abbc
00000310: 3458 2cbc cce2 b9bc 7d77 c7bc 965d 8f3c
00000320: cd0f 1fbc cfd5 c53b 9cf7 b0bd 7d1c 48bc
00000330: 8b7c 90bc aba6 8dbc 1bde 6c3d 9d1e 98bd
00000340: 9828 da3b 6075 d4ba 937a 603c ed1a 5c3a
00000350: abfc c93b c33d 18bc c80d 513d cc50 53ba
00000360: 622a 173d b2dc 51ba 2912 aebc 840a baba
00000370: 8de3 99bc eca9 7f3d 9faf 4fbc bf6c 92bc
00000380: e89b 57ba b9d2 fbbc cfdb 43bd 00f6 9b3b
00000390: cb4d 31bc 48d6 683c 8a17 063d 23de 13bd
000003a0: 61aa 2d3d 18ee 363d dbbd 11bd 0431 64bd
000003b0: 5280 1e3d 10e7 a43d f46b e3bb d125 5d3d
000003c0: 18e8 03bd d1ef 2fbc 1772 013d 209f 253c
000003d0: 6407 efbc 0fd9 0cbc f05b ce3d d8e2 d13c
000003e0: 71bd b5bb 088a ed3c f007 2ebd 36ca b63d
000003f0: 24e9 2d3d 6fbf 94bd dd40 c33c 7be3 513d

onnx::MatMul_20 f4 [128, 3]
-0.0053633377 0.010888692 -0.012187298 -0.00069634494 -0.00021518876 0.0005507116 0.011027296 -0.0062647373
-0.010967336 -0.0015352167 -0.0022006698 0.00013891202 0.0002737668 -0.0010765374 0.0012167438 0.0484537
-0.0264627 0.024563916 -0.001153303 0.0007007093 -9.362567e-05 -0.00032189037 -0.0017392918 0.0024071361
-0.001277316 -0.0020771625 0.0025649725 -0.0005923328 0.000689063 0.00022305538 -0.001928622 0.0013619323
0.00017509102 0.00014534792 -0.0024671955 0.001221965 0.0001870898 5.9386926e-05 0.0019334448 0.006173717
-0.010795404 0.011095659 -0.0010188286 0.00057228125 -0.00030347507 0.00077528163 9.270727e-05 -0.00090960035
-0.00060469727 0.00071855204 -7.958133e-05 -0.00077373814 -0.00021244805 -0.0051279026 0.0076782764 0.007758856
-0.005496256 -0.0024116598 0.004609299 -0.005253798 -0.00046685588 0.0014951428 -0.0044115623 0.006352228
-0.010567997 0.010605853 0.0024764654 -0.00082877214 0.00021687827 0.008186511 -0.007576727 -0.009148739
-0.00056827435 -6.9192225e-05 0.0009327214 -0.0037365267 -0.00063003355 0.0006653787 -0.006485653 -0.0071437694
0.0043206173 -0.00070070766 0.0010123767 -0.00045743576 0.0025261645 -0.0015125363 0.00047122117 -9.89385e-05
0.00070065446 8.897994e-06 0.0021026863 0.00034976454 -0.0010434745 0.0054883254 0.0039206576 0.002491386
0.0011731264 0.0001802537 -0.00041302803 -0.0137049025 -0.011662736 -0.007027045 0.0018866194 -0.00060516497
-0.0007286405 -0.008463719 -0.0087732 0.012433374 -0.0066369004 0.0004445661 0.004366202 0.014782407
0.012846871 0.009848131 0.0025963048 0.00013267703 -7.614703e-05 0.014599911 -0.010898202 -0.010108281
0.00015141688 -0.0016250339 0.0011629866 -0.0007398211 -0.0013271818 0.0013910703 0.00038281293 0.0022465275
-0.00069762336 0.00013720912 0.0016505059 -0.0006329598 0.00018201998 -0.00026306778 0.0025046032 0.0016523356
0.00163926 -0.00046570343 -0.0014043475 0.0013671264 -0.00020747633 -0.0012869377 0.0010868644 -9.5482455e-06
0.00043702987 -0.00068842166 0.00012697197 -0.0177068 0.013263288 0.01317342 0.002850082 -0.0005334279
-0.0010546063 0.010080392 -0.015736599 0.014270459 -0.0010494221 0.0022937555 0.006644788 -0.0016629117
0.00033443395 0.0010066403 0.0016946992 0.006136959 -0.0042660306 0.0025746317 -0.00033656368 0.0004739179
-0.0016310709 -0.00053665094 0.0008554367 0.00037032677 0.0022883161 -0.00034986352 -0.015793312 -0.012883513
-0.010732027 -0.0056823026 -0.003878587 0.0035724463 0.0012773755 0.00043529336 -0.00037476255 -0.0011266732
-0.0002921489 -0.0005775346 0.0016950971 0.00013950763 0.00091472856 -0.0021767896 0.00056030275 0.00010087195
-0.0001566119 -0.0010474464 -0.00051279215 -0.00020681477 -0.0010996952 -6.51536e-05 -0.00019356291 0.0003015004
0.00022314097 0.0039813663 0.0011961275 -0.0014459818 -0.0007456981 0.0013181897 -0.00061900663 0.00044562816
0.0008144418 -0.00013187295 -0.00030157683 -0.0002960132 0.0005194688 -0.00037761527 -0.0013877256 0.001038439
0.002175334 0.0036757863 -0.0030592338 -0.0010762316 -0.00080824073 0.0005656386 -0.012866794 -0.0116704535
-0.009194869 0.0032849764 0.0018689528 -0.0017888043 -0.0008706678 -0.00085018005 0.0009923911 0.0021114692
0.00036887752 -0.0003434748 0.0015562901 -0.00030730918 -0.00069059344 -0.009901562 0.015724592 -0.01492636
0.00035648464 -0.0003938771 0.00013270754 -7.735787e-05 0.00041199956 0.0017606827 0.015776278 0.04168731
0.038140863 0.0027668567 -0.0011461695 -0.00016487954 -0.0017272524 -0.00087727787 0.00084323937 -0.0009722506
00000000: f0be afbb 7c66 323c 3cad 47bc eb8a 36ba
00000010: 4ba4 61b9 a15d 103a d5ab 343c 6d48 cdbb
00000020: 57b0 33bc 5339 c9ba 1d39 10bb e9a8 1139
00000030: 5c88 8f39 9a1a 8dba 267b 9f3a 6377 463d
00000040: 4ec8 d8bc 443a c93c 6d2a 97ba ceaf 373a
00000050: e658 c4b8 65c3 a8b9 f3f8 e3ba 0bc1 1d3b
00000060: 9d6b a7ba 0121 08bb 1919 283b c846 1bba
00000070: 3ca2 343a f9e3 6939 d1c9 fcba dd82 b23a
00000080: a398 3739 8968 1839 acb0 21bb 572a a03a
00000090: 892d 4439 3a16 7938 a46b fd3a e44c ca3b
000000a0: 35df 30bc 91ca 353c 378a 85ba 2505 163a
000000b0: bc1b 9fb9 453c 4b3a d66b c238 3f72 6eba
000000c0: 8c84 1eba 365d 3c3a e7e4 a6b8 b0d4 4aba
000000d0: 97c4 5eb9 f707 a8bb 0d9a fb3b 003e fe3b
000000e0: f019 b4bb f00c 1ebb 9a09 973b 0d28 acbb
000000f0: 56c4 f4b9 abf8 c33a de8e 90bb 5a26 d03b
00000100: 6425 2dbc 2cc4 2d3c 324c 223b f541 59ba
00000110: d169 6339 b720 063c 3146 f8bb 98e4 15bc
00000120: 3ff8 14ba 4b1b 91b8 e081 743a 84e0 74bb
00000130: d628 25ba cf6c 2e3a 9a85 d4bb 4816 eabb
00000140: f793 8d3b b2af 37ba bab1 843a fdd3 efb9
00000150: 028e 253b 4c40 c6ba 3c0e f739 347d cfb8
00000160: 20ac 373a 9848 1537 39cd 093b 9a60 b739
00000170: 32c5 88ba 69d7 b33b dc78 803b 8546 233b
00000180: 97c3 993a 7c02 3d39 af8b d8b9 878a 60bc
00000190: 0f15 3fbc 2043 e6bb 7148 f73a efa3 1eba
000001a0: 3c02 3fba 69ab 0abc 78bd 0fbc 5ab5 4b3c
000001b0: 5b7a d9bb a714 e939 5b12 8f3b e931 723c
000001c0: af7b 523c 0e5a 213c c426 2a3b 381f 0b39
000001d0: 20b1 9fb8 7734 6f3c 5f8e 32bc 349d 25bc
000001e0: a9c5 1e39 17ff d4ba 5b6f 983a 8ef0 41ba
000001f0: d5f4 adba 9354 b63a 48b4 c839 7a3a 133b
00000200: b6e0 36ba cbdf 0f39 ca55 d83a 37ed 25ba
00000210: 9edc 3e39 5cec 89b9 4524 243b 2f93 d83a
00000220: 70dc d63a a829 f4b9 1512 b8ba 2631 b33a
00000230: 018e 59b9 77ae a8ba 1e75 8e3a 6731 20b7
00000240: 2821 e539 3277 34ba c723 0539 da0d 91bc
00000250: 434e 593c 54d5 573c 71c8 3a3b bed5 0bba
00000260: b73a 8aba 3a28 253c 0aea 80bc a5ce 693c
00000270: c38c 89ba d552 163b 86bc d93b 0ff6 d9ba
00000280: f756 af39 3ef1 833a ab20 de3a 8b18 c93b
00000290: 0fca 8bbb 27bb 283b d074 b0b9 2f78 f839
000002a0: a8c9 d5ba 09ae 0cba 633f 603a 6b28 c239
000002b0: 93f7 153b e36d b7b9 fa60 81bc 5f15 53bc
000002c0: 62d5 2fbc 9c32 babb e42f 7ebb b41f 6a3b
000002d0: 9c6d a73a 1638 e439 c77b c4b9 e1ac 93ba
000002e0: 902b 99b9 b165 17ba 052e de3a cb48 1239
000002f0: 65ca 6f3a 78a8 0ebb 48e1 123a 378b d338
00000300: 3038 24b9 784a 89ba e66c 06ba 6bdc 58b9
00000310: a623 90ba 13a3 88b8 26f7 4ab9 b312 9e39
00000320: f3fa 6939 1f76 823b 61c7 9c3a 1987 bdba
00000330: f47a 43ba 1bc7 ac3a d544 22ba 33a3 e939
00000340: 4480 553a 6047 0ab9 f51c 9eb9 3832 9bb9
00000350: f62c 083a aafa c5b9 58e4 b5ba 3b1c 883a
00000360: 0c90 0e3b 76e5 703b 6d7d 48bb 5710 8dba
00000370: 1ee0 53ba 5d47 143a 3fcf 52bc 6e35 3fbc
00000380: 13a6 16bc c248 573b a6f7 f43a 5076 eaba
00000390: 873d 64ba 9ede 5eba 1f13 823a 9360 0a3b
000003a0: e765 c139 6814 b4b9 6efc cb3a 571e a1b9
000003b0: f108 35ba 293a 22bc dcd0 803c b18d 74bc
000003c0: 8fe6 ba39 4a81 ceb9 6927 0b39 313b a2b8
000003d0: a501 d839 b5c6 e63a 413d 813c 50c0 2a3d
000003e0: 9839 1c3d 2754 353b 113b 96ba 84e3 2cb9
000003f0: f964 e2ba 1ff9 65ba d60c 5d3a a2de 7eba
