robot_controllers/config/pointfoot/PF_P441C2/policy/policy.onnx (onnx, 761221 bytes, 8 tensors)

0.bias f4 [512]
0.025931472 -0.2412768 0.14336206 -0.02149401 0.15702759 -0.06567494 0.06747722 0.20184477
-0.18834504 0.10502378 0.1981743 0.15688172 -0.09547756 -0.14553054 -0.21244389 0.23505495
0.08661499 -0.1099881 -0.17608693 -0.12428919 -0.14723258 0.025356475 0.12192659 -0.053221397
-0.18323578 -0.026158808 0.024481485 -0.22463211 0.0057617864 -0.06863067 0.082515545 0.096144535
0.19783618 -0.12852687 0.040427327 0.025794936 0.06711726 0.022348851 0.070345424 -0.18642509
0.08191735 -0.25277627 -0.093503326 0.2082878 0.07657908 -0.13163425 -0.067133024 -0.14049369
0.10159947 0.04653555 0.028118948 -0.057427324 -0.18334886 -0.13155265 0.26119384 -0.017753081
0.13786213 -0.12915224 -0.13879259 -0.11477207 -0.14216262 -0.19770278 0.20555256 -0.12412639
0.022852253 0.027336549 -0.011814803 -0.09699196 -0.042254414 -0.07929229 0.18572782 0.23432161
0.09637501 -0.099311404 0.09712139 0.053862143 -0.04421331 -0.17130712 -0.20063269 0.17009905
0.014569984 0.017207779 -0.03308948 -0.10820836 -0.11232527 0.0671335 0.20641921 0.14622636
-0.088674724 -0.0927791 0.19415411 -0.098422304 0.019384798 0.06761256 0.14358066 -0.08136391
-0.15471315 0.1675797 -0.28511992 -0.18861477 -0.20573679 0.0029993656 0.11776299 0.09717555
0.058842607 0.03530925 -0.19766113 0.06365366 -0.015477989 0.07815493 0.14252923 -0.005256952
-0.036370844 -0.0924064 0.042024296 -0.13167922 0.0881784 0.15593131 -0.077129126 0.049555935
0.042345505 0.19675145 -0.04070575 0.056189183 0.14326791 0.06857 0.21358448 -0.08805299
0.22698484 0.130965 0.05002268 -0.10360676 0.039379615 0.19199108 0.0151288435 0.17013122
-0.06500314 0.08880834 0.044198845 -0.047695864 -0.20668969 -0.096918434 -0.042141095 -0.016676636
-0.14334449 0.016441915 -0.020009907 0.14084043 -0.2157171 0.17028488 -0.027087579 0.05990944
0.114414595 0.041715905 0.24962346 -0.090907395 0.09058322 -0.15746184 0.096081585 -0.015202675
0.020329673 0.11001665 -0.26863593 -0.111107804 -0.12322033 -0.00566318 0.021703089 0.09686162
0.24190994 -0.3593159 0.0431545 -0.0039787325 -0.045286607 -0.04506709 0.15252197 0.08698151
0.1072735 0.072735585 0.08994674 -0.06933637 -0.1928347 -0.044851366 0.029015545 -0.27800158
0.04288307 -0.28559116 0.01639407 -0.17335722 -0.27716354 0.07358682 0.068945326 0.16368173
-0.035443604 0.13810305 0.08035612 0.18203315 -0.013656417 -0.3093124 0.120994955 -0.00813074
-0.11562878 0.021278864 0.18326962 0.06806604 0.17502026 0.047545947 0.27952248 0.0875659
0.05987928 0.1153617 0.17915107 -0.11424568 0.058568187 -0.20471892 -0.22033684 -0.0892623
-0.17056493 -0.07526404 0.18417284 -0.33595365 0.03968057 0.004843784 0.12259542 0.11494756
-0.14010933 -0.060845193 0.13010776 0.037961006 0.09090682 0.06802382 -0.03642891 -0.01922335
0.2697017 -0.047918737 -0.009117343 0.08406124 -0.07308264 0.15194623 0.06971519 -0.049879983
0.088642344 0.011351829 -0.14161101 -0.18087076 -0.043280695 0.041470144 -0.027039196 0.018063288
0.28768733 -0.14871736 0.18542652 0.0026220803 -0.2057475 -0.018559108 0.06272062 -0.052443396
00000000: 3d6e d43c 4411 77be 81cd 123e 3514 b0bc
00000010: d7cb 203e 9580 86bd 7f31 8a3d 65b0 4e3e
00000020: 86dd 40be b516 d73d 34ee 4a3e 9aa5 203e
00000030: bd89 c3bd f505 15be e48a 59be 3fb2 703e
00000040: 3363 b13d 7141 e1bd 2250 34be 558b febd
00000050: 23c4 16be 62b8 cf3c a6b4 f93d aefe 59bd
00000060: 29a2 3bbe ff4a d6bc 658d c83c f605 66be
00000070: 5ecd bc3b 3d8e 8cbd e9fd a83d 6de7 c43d
00000080: 9195 4a3e 8c9c 03be 2097 253d e74f d33c
00000090: c674 893d f014 b73c 4311 903d 38e6 3ebe
000000a0: 49c4 a73d e46b 81be ac7e bfbd 6649 553e
000000b0: 7ed5 9c3d 21cb 06be 0a7d 89bd 94dd 0fbe
000000c0: 6213 d03d 109c 3e3d b559 e63c ea38 6bbd
000000d0: cebf 3bbe bdb5 06be 33bb 853e e96e 91bc
000000e0: bb2b 0d3e 7c40 04be a51f 0ebe 9e0d ebbd
000000f0: 1493 11be 9972 4abe 5f7c 523e fa35 febd
00000100: a634 bb3c e6f0 df3c e092 41bc b9a3 c6bd
00000110: f712 2dbd ff63 a2bd 6f2f 3e3e 01f2 6f3e
00000120: 4360 c53d c763 cbbd 94e7 c63d 8d9e 5c3d
00000130: 0419 35bd 226b 2fbe a872 4dbe 722e 2e3e
00000140: f1b6 6e3c 54f7 8c3c d688 07bd 589c ddbd
00000150: cb0a e6bd 4a7d 893d 8f5f 533e 5dbc 153e
00000160: 189b b5bd f802 bebd 56d0 463e a291 c9bd
00000170: decc 9e3c 7478 8a3d cf06 133e 1fa2 a6bd
00000180: 206d 1ebe 039a 2b3e 3dfb 91be 3b24 41be
00000190: aaac 52be 0191 443b b92d f13d fa03 c73d
000001a0: f204 713d 6fa0 103d ae67 4abe da5c 823d
000001b0: 6497 7dbc b10f a03d 2ff3 113e 8242 acbb
000001c0: 98f9 14bd 913f bdbd ab21 2c3d ebd6 06be
000001d0: e196 b43d 75ac 1f3e e0f5 9dbd 2afb 4a3d
000001e0: 7b72 2d3d 3679 493e 13bb 26bd a126 663d
000001f0: d3b4 123e 6e6e 8c3d e4b5 5a3e 2055 b4bd
00000200: b76e 683e b01b 063e 95e4 4c3d c82f d4bd
00000210: 854c 213d 4f99 443e f8de 773c e136 2e3e
00000220: 5e20 85bd 26e1 b53d d909 353d bd5c 43bd
00000230: 76a6 53be 2c7d c6bd 249c 2cbd 719d 88bc
00000240: e6c8 12be 32b1 863c d1eb a3bc 7938 103e
00000250: f2e4 5cbe 295f 2e3e c5e6 ddbc 9a63 753d
00000260: 3352 ea3d 4cde 2a3d 4b9d 7f3e a82d babd
00000270: b283 b93d ad3d 21be 6cc6 c43d a414 79bc
00000280: 6a8a a63c 6950 e13d a68a 89be 7d8c e3bd
00000290: f15a fcbd 3292 b9bb adca b13c 635f c63d
000002a0: 3db7 773e 41f8 b7be c6c2 303d 0760 82bb
000002b0: 737e 39bd 4598 38bd b82e 1c3e 5d23 b23d
000002c0: 35b2 db3d 65f6 943d ff35 b83d 3a00 8ebd
000002d0: 7676 45be 11b6 37bd 02b2 ed3c 3956 8ebe
000002e0: 28a6 2f3d 0139 92be db4c 863c 8e84 31be
000002f0: 61e8 8dbe b0b4 963d 3533 8d3d 2f9c 273e
00000300: 502d 11bd e36a 0d3e c091 a43d e666 3a3e
00000310: 2abf 5fbc 325e 9ebe 34cc f73d cc36 05bc
00000320: c8ce ecbd 0351 ae3c 08ab 3b3e 3566 8b3d
00000330: 8338 333e 8abf 423d 921d 8f3e c055 b33d
00000340: fa43 753d c142 ec3d 6173 373e a4f9 e9bd
00000350: 32e5 6f3d d6a1 51be fb9f 61be 27cf b6bd
00000360: 93a8 2ebe 0824 9abd ce97 3c3e 1e02 acbe
00000370: 1888 223d 9bb8 9e3b 4f13 fb3d a069 eb3d
00000380: d278 0fbe cf38 79bd f83a 053e 007d 1b3d
00000390: 5b2d ba3d 1350 8b3d 7b36 15bd 497a 9dbc
000003a0: 5716 8a3e 7046 44bd e960 15bc 4d28 ac3d
000003b0: 5aac 95bd cb97 1b3e d6c6 8e3d f44e 4cbd
000003c0: 1e8a b53d 06fd 393c 7a02 11be 2f36 39be
000003d0: 1947 31bd 99dc 293d 4e81 ddbc 76f9 933c
000003e0: c14b 933e 5d49 18be 73e0 3d3e 35d7 2b3b
000003f0: 79af 52be 4509 98bc ab73 803d e3ce 56bd

2.bias f4 [256]
-0.2523062 -0.07150153 -0.12254215 -0.050676547 0.056930974 -0.05620649 -0.09707134 -0.06525623
-0.091868155 -0.14756003 -0.04653979 -0.013019866 -0.06056201 -0.3987914 -0.13524596 -0.06209693
-0.14513204 -0.11001719 -0.15757272 -0.17179388 -0.11227943 -0.06696619 -0.009418289 -0.08836843
-0.3779356 -0.1124163 -0.35519838 -0.2483306 -0.091367655 -0.1421734 -0.24902008 -0.06295607
-0.09279216 -0.18796499 -0.03314013 -0.16713504 -0.144249 -0.23312083 -0.19088024 -0.08254134
-0.14564791 -0.12652233 -0.16752498 -0.18907274 -0.068984136 0.20381935 -0.14091226 -0.0074772574
-0.28927064 -0.021556005 -0.09890501 -0.11956516 -0.12830181 -0.06343928 -0.05664981 -0.21083036
-0.07445337 -0.1277128 -0.13420288 -0.057568066 -0.06688963 -0.36681956 -0.13334753 -0.23660596
-0.14412007 -0.30454767 -0.12655705 -0.23221502 -0.24704285 -0.13660295 -0.29677415 -0.09303822
-0.24522994 -0.12512635 -0.039963167 -0.0075901393 -0.09484789 -0.339909 -0.082206674 -0.114706405
-0.0999526 -0.1952082 -0.055066492 -0.20087121 -0.19232683 -0.086607546 0.031071508 -0.09377165
-0.09350769 -0.16985606 -0.10100442 -0.14270514 -0.072898686 -0.2656031 -0.20828867 -0.27677438
0.021984302 -0.47312132 -0.02999244 -0.15205452 -0.18996009 -0.10902475 -0.17355675 -0.11922328
-0.14925618 -0.12204653 -0.15163 -0.23741098 -0.03836105 -0.02442097 -0.16177158 -0.1383122
-0.057503495 -0.080873184 -0.26505548 -0.23771626 -0.25282907 -0.045128264 -0.34007838 -0.0430298
-0.19664475 -0.34909385 -0.040819667 -0.1810126 -0.346519 -0.05882321 -0.10002058 -0.13072847
-0.2569233 -0.2023067 -0.15394801 -0.07935403 -0.1563845 -0.29889748 -0.033193108 -0.16118331
-0.08930242 -0.09467697 -0.15232973 -0.11835376 -0.1413365 -0.23833501 -0.3365002 -0.3204907
0.02757142 -0.093559265 -0.02133422 -0.24475068 -0.17689425 -0.21257317 -0.06840489 -0.18548764
-0.10433503 -0.10353268 -0.15304631 -0.11515079 -0.060542397 -0.040748872 -0.09265 -0.078247525
0.01900043 -0.20160483 -0.15284872 -0.05189057 -0.12949178 -0.052111298 -0.4389576 0.0046258145
-0.082382746 0.018549794 -0.086211205 -0.119161315 -0.02589421 -0.50355166 -0.06354365 -0.037021797
-0.15020573 -0.15978745 -0.13747609 -0.009375977 -0.1849478 -0.24282013 -0.1510598 -0.09618978
-0.09537069 -0.21159753 -0.18025726 -0.14004494 -0.13804173 -0.15774594 -0.44129655 -0.24128681
-0.0010243178 -0.11212249 -0.19655512 -0.11268894 -0.36040923 -0.2866111 -0.13823166 -0.10335165
-0.21067904 -0.12587327 -0.031279095 -0.08815923 -0.12113028 -0.05885814 -0.24550109 -0.031883325
-0.32553896 -0.21190953 -0.38686296 -0.41463593 -0.29768482 -0.09017008 -0.9508132 -0.31694803
-0.28953627 -0.030932711 -0.13445215 -0.23971966 -0.06968026 -0.39838263 -0.22348769 0.017009804
-0.45911172 -0.20729496 -0.18119565 -0.034048177 -0.25512886 -0.07635726 -0.19895254 -0.21065019
-0.2918582 -0.10786001 -0.13312969 -0.06673084 -0.1050049 -0.082579255 -0.42256704 -0.37544563
-0.1617803 -0.07394912 -0.14874496 -0.17806363 -0.14697047 -0.12103069 -0.19235134 -0.10348775
-0.12693691 -0.40152442 -0.10518106 -0.12692614 -0.20406744 -0.22580935 -0.050659508 -0.16182652
00000000: 472e 81be 656f 92bd 61f7 fabd 3692 4fbd
00000010: 7430 693d c738 66bd 57cd c6bd 0fa5 85bd
00000020: 5f25 bcbd fa19 17be 82a0 3ebd 4751 55bc
00000030: df0f 78bd 632e ccbe eb7d 0abe 5a59 7ebd
00000040: 7e9d 14be b150 e1bd be5a 21be bcea 2fbe
00000050: c2f2 e5bd 9225 89bd 2b4f 1abc 82fa b4bd
00000060: c680 c1be 843a e6bd 90dc b5be 604a 7ebe
00000070: f71e bbbd e795 11be 1fff 7ebe 1def 80bd
00000080: d109 bebd e579 40be f2bd 07bd 7325 2bbe
00000090: 03b6 13be 3ab7 6ebe 1c76 43be 6f0b a9bd
000000a0: ba24 15be 128f 01be ab8b 2bbe 499c 41be
000000b0: 8e47 8dbd 05b6 503e 4e4b 10be c803 f5bb
000000c0: 481b 94be 3896 b0bc b68e cabd 94de f4bd
000000d0: 8d61 03be 74ec 81bd a209 68bd eae3 57be
000000e0: 027b 98bd 25c7 02be 7b6c 09be 7ecc 6bbd
000000f0: 6efd 88bd c6cf bbbe 418c 08be d548 72be
00000100: 3694 13be aced 9bbe 2c98 01be c6c9 6dbe
00000110: cdf8 7cbe a5e1 0bbe c8f2 97be d38a bebd
00000120: 8f1d 7bbe 1f21 00be 6bb0 23bd b4b6 f8bb
00000130: 9c3f c2bd 8d08 aebe f95b a8bd 31eb eabd
00000140: f3b3 ccbd a9e4 47be 678d 61bd 2fb1 4dbe
00000150: 53f1 44be 4c5f b1bd ad89 fe3c 5a0b c0bd
00000160: f680 bfbd bfee 2dbe 68db cebd 4c21 12be
00000170: e84b 95bd 21fd 87be a049 55be 5fb5 8dbe
00000180: 6c18 b43c f53c f2be b5b2 f5bc 2eb4 1bbe
00000190: e684 42be 5e48 dfbd dcb8 31be 562b f4bd
000001a0: 9dd6 18be 88f3 f9bd e544 1bbe dd1b 73be
000001b0: 7a20 1dbd 7c0e c8bc 73a7 25be b7a1 0dbe
000001c0: c988 6bbd d7a0 a5bd 5ab5 87be e46b 73be
000001d0: d072 81be 6ad8 38bd c11e aebe 0440 30bd
000001e0: 3e5d 49be 6ebc b2be 8632 27bd 5e5b 39be
000001f0: f06a b1be 9bf0 70bd 97d7 ccbd afdd 05be
00000200: 738b 83be 7d29 4fbe 8ca4 1dbe 5e84 a2bd
00000210: 4223 20be 1709 99be 7ff5 07bd 3d0d 25be
00000220: 30e4 b6bd 00e6 c1bd 53fc 1bbe 7563 f2bd
00000230: 84ba 10be 180e 74be c149 acbe 5b17 a4be
00000240: 75dd e13c 009c bfbd 1ac5 aebc ec9f 7abe
00000250: c423 35be c8ac 59be dd17 8cbd 79f0 3dbe
00000260: 9bad d5bd f108 d4bd 2cb8 1cbe 2dd4 ebbd
00000270: 4efb 77bd 4ae8 26bd 48bf bdbd 3d40 a0bd
00000280: caa6 9b3c 7f71 4ebe 6084 1cbe 358b 54bd
00000290: 7e99 04be a872 55bd 0dbf e0be 2594 973b
000002a0: 49b8 a8bd bdf5 973c 808f b0bd d90a f4bd
000002b0: 1820 d4bc c3e8 00bf 2c23 82bd 2ba4 17bd
000002c0: 88cf 19be 529f 23be 88c6 0cbe b39d 19bc
000002d0: f562 3dbe d7a5 78be 6caf 1abe 26ff c4bd
000002e0: b551 c3bd 06ad 58be 5c95 38be f167 0fbe
000002f0: d05a 0dbe 2788 21be 9ff1 e1be e413 77be
00000300: 6742 86ba 7aa0 e5bd bf45 49be 75c9 e6bd
00000310: 8f87 b8be b1be 92be 9a8c 0dbe 08aa d3bd
00000320: 3fbc 57be ece4 00be 821e 00bd d48c b4bd
00000330: 2713 f8bd 3c15 71bd a364 7bbe 1798 02bd
00000340: 0bad a6be d0fe 58be e712 c6be 294b d4be
00000350: 256a 98be 17ab b8bd 7e68 73bf 0347 a2be
00000360: 193e 94be 9966 fdbc d3ad 09be 1279 75be
00000370: 86b4 8ebd cff8 cbbe f5d9 64be 2558 8b3c
00000380: b110 ebbe 2145 54be 5a8b 39be 1a76 0bbd
00000390: 40a0 82be 3261 9cbd 37ba 4bbe afb4 57be
000003a0: 706e 95be b5e5 dcbd 2653 08be 2eaa 88bd
000003b0: cf0c d7bd 501f a9bd b55a d8be 693a c0be
000003c0: bca9 25be a372 97bd 9950 18be 5056 36be
000003d0: 6d7f 16be f0de f7bd c0f7 44be 63f1 d3bd
000003e0: c0fb 01be 9c94 cdbe 2b69 d7bd edf8 01be
000003f0: 0ef7 50be 913a 67be 5880 4fbd dab5 25be

4.bias f4 [128]
-0.011064573 -0.18178429 -0.08454163 -0.20872812 -0.15301055 -0.2551089 -0.10166831 -0.22602455
-0.21288541 -0.15675983 -0.020085141 -0.18725449 -0.15284052 -0.28117877 -0.19799106 -0.13002075
-0.18844871 -0.22999203 -0.25541744 -0.22928047 -0.18278822 -0.019359432 -0.1189891 -0.10835639
-0.20187317 -0.065875754 -0.22777519 -0.22577755 -0.09616347 -0.22118005 -0.0050911186 -0.08363055
-0.110187866 -0.07113057 -0.1697235 -0.62709624 -0.21755838 -0.06386527 -0.09480681 -0.089990325
-0.25922272 -0.20752665 -0.066964336 -0.053494472 -0.04664223 -0.36318907 -0.06603566 -0.024230994
-0.11298729 -0.043308616 -0.11679532 -0.4453345 -0.081609875 -0.14753444 -0.016734699 -0.62066466
-0.057264958 -0.15566665 -0.15416256 -0.0848095 -0.04308921 -0.131913 -0.40923753 -0.14917934
-0.05716498 -0.16463928 -0.014957688 -0.009167087 -0.022262864 -0.062272396 -0.2919163 -0.102459446
-0.18375628 -0.06930054 -0.11465415 -0.1717236 -0.093195274 -0.21824013 -0.16000128 0.033222724
-0.029705403 -0.21529159 -0.11607025 -0.17559174 -0.22979543 -0.13927282 -0.16996983 -0.17486034
-0.21651061 -0.07833557 -0.72869486 -0.044402014 -0.2644762 -0.1546352 -0.1411674 -0.037502825
-0.018004954 -0.12443792 -0.34151825 -0.091738336 -0.13728245 -0.15569924 -0.275836 -0.12834448
-0.2579206 -0.15573551 -0.046147358 -0.51501966 -0.15678677 -0.034985866 -0.16913855 -0.0270157
0.03467933 -0.13315995 -0.039234146 -0.07436448 -0.22290236 -0.07931109 -0.06365094 -0.19460768
-0.25270092 -0.17120034 -0.2546894 -0.11202202 -0.1613299 -0.15236337 0.0773647 -0.19643383
00000000: 2f48 35bc a925 3abe 2a24 adbd d3bc 55be
00000010: ccae 1cbe a29d 82be 7a37 d0bd fb72 67be
00000020: a2fe 59be a685 20be 9889 a4bc a4bf 3fbe
00000030: 3a82 1cbe aaf6 8fbe 2bbe 4abe 2924 05be
00000040: b3f8 40be 0883 6bbe 13c6 82be 80c8 6abe
00000050: d62c 3bbe ac97 9ebc 8fb0 f3bd f4e9 ddbd
00000060: d7b7 4ebe dee9 86bd e63d 69be 3b32 67be
00000070: 5af1 c4bd 067d 62be 66d3 a6bb 7e46 abbd
00000080: 2daa e1bd e7ac 91bd ffcb 2dbe 6189 20bf
00000090: a0c7 5ebe cbcb 82bd 132a c2bd d94c b8bd
000000a0: d7b8 84be de81 54be 9924 89bd 051d 5bbd
000000b0: ec0b 3fbd ebf3 b9be b43d 87bd 1480 c6bc
000000c0: e165 e7bd 6064 31bd 6232 efbd e202 e4be
000000d0: 1423 a7bd 4513 17be 3517 89bc e1e3 1ebf
000000e0: a98e 6abd 1467 1fbe cadc 1dbe 9ab0 adbd
000000f0: 507e 30bd 3414 07be 9587 d1be 78c2 18be
00000100: d325 6abd 3397 28be 1711 75bc 8d31 16bc
00000110: 9c60 b6bc 5711 7fbd 0e76 95be 42d6 d1bd
00000120: 9b2a 3cbe 71ed 8dbd cccf eabd 50d8 2fbe
00000130: 2add bebd 577a 5fbe 60d7 23be 8d14 083d
00000140: bf58 f3bc 6675 5cbe 3db6 edbd 52ce 33be
00000150: 7e4f 6bbe 899d 0ebe 920c 2ebe 970e 33be
00000160: f5b4 5dbe 666e a0bd bf8b 3abf e3de 35bd
00000170: 6d69 87be b158 1ebe 308e 10be 909c 19bd
00000180: 207f 93bc 4fd9 febd 7bdb aebe 4fe1 bbbd
00000190: c593 0cbe 9f6f 1fbe 603a 8dbe bc6c 03be
000001a0: 2b0e 84be 2179 1fbe 0305 3dbd 54d8 03bf
000001b0: b68c 20be 574d 0fbd a832 2dbe 0750 ddbc
000001c0: ea0b 0e3d 155b 08be fcb3 20bd 684c 98bd
000001d0: 8440 64be da6d a2bd 6d5b 82bd 3c47 47be
000001e0: 0462 81be 244f 2fbe a666 82be cd6b e5bd
000001f0: aa33 25be 2505 1cbe 6271 9e3d f325 49be

6.bias f4 [6]
0.11084886 0.27503574 -0.0120411925 -0.075359136 -0.31064507 0.19081263
00000000: ba04 e33d 7cd1 8c3e 6c48 45bc e455 9abd
00000010: df0c 9fbe 6364 433e

onnx::MatMul_24 f4 [36, 512]
0.05021388 0.30521533 -0.1593127 -0.049200214 -0.20586185 -0.018297197 0.07789167 -0.15312672
0.15991032 0.008932663 0.07546535 -0.10141155 -0.16069691 0.04956071 -0.14175375 0.025915015
-0.017267914 -0.333929 0.28196523 0.051476907 -0.13392648 -0.1276721 -0.18053938 0.08603775
-0.039827082 -0.1614612 -0.14348343 -0.1480159 0.117872514 0.1755068 -0.25989273 -0.08369959
-0.09403084 0.18061796 -0.3463931 -0.24903055 -0.4403404 0.084818475 0.18394777 -0.25200933
-0.08044727 -0.12087724 0.19696818 -0.43264446 -0.16167593 -0.059832875 0.119025074 -0.16666286
-0.013398613 -0.055124722 -0.12558392 0.08674586 0.0951595 0.1784207 -0.09232869 0.07639661
0.19064344 0.11798387 0.10834132 -0.2714993 -0.1387782 -0.010621168 0.014697848 0.08403679
-0.08137787 0.020795716 -0.13350905 -0.00019769745 -0.08516632 -0.19055167 -0.4876321 0.0015364216
0.2033265 -0.0640737 0.23878689 0.22159672 0.101018086 0.34899876 -0.12592395 0.03432946
-0.28246063 0.25078046 -0.0031367093 0.011243489 -0.071753845 0.1039303 0.052402727 -0.21924917
0.15323906 -0.018756203 0.025008537 -0.39210892 -0.117292985 -0.0822617 0.009948954 0.71842706
0.113210954 -0.029145554 -0.06594053 0.510704 0.32552683 0.4249473 0.19909857 -0.0923983
-0.008070575 0.14330088 -0.05684803 0.5706383 -0.15728977 -0.032591876 -0.93692887 -0.038957916
-0.11108114 0.117324024 0.019315878 -0.20242059 -0.007052667 0.054682314 0.3296971 0.30239558
-0.14490823 0.15134029 0.06542811 -0.090665855 -0.07408139 -0.17987922 -0.008915869 -0.34881493
-0.05573568 -0.3491276 0.16189729 -0.12669967 0.161936 -0.03601466 -0.15415093 -0.17795992
0.15124983 0.0018872762 0.007333566 0.05261129 -0.23254743 0.013961454 0.057837643 0.025810802
-0.16969146 -0.028901786 0.30760983 0.04935949 0.054639712 -0.2764709 0.0073101264 0.07867367
-0.10667903 -0.21967144 0.21730529 0.17178327 0.28788367 -0.12676693 -0.08727771 0.19087978
0.14056942 0.05974725 0.08722601 0.10965881 -0.07437204 -0.12671389 -0.038551945 0.07957277
0.050866056 -0.28505403 -0.14721839 0.06484026 -0.2388524 0.0771688 -0.10632586 -0.037059564
-0.039513767 0.19807585 0.031446833 -0.20034295 0.17610985 -0.033937346 -0.2704263 0.0024833186
-0.04491739 0.1591158 0.100554086 -0.3193506 -0.0905597 -0.18870103 -0.04064667 0.19899276
0.22278069 0.09150992 0.06315044 0.033790965 -0.0016093825 0.18194924 0.020968923 -0.11086022
-0.17487213 -0.08939127 0.084678665 0.037629727 0.45965487 -0.09600784 -0.2400706 -0.041970827
0.26030046 0.0018259495 0.10850158 -0.045975357 -0.115436874 0.032405995 -0.2171779 0.21309243
0.14343746 -0.13041444 0.12592635 0.3333744 0.38495386 -0.0891404 -0.22866192 -0.06151061
0.06903958 -0.09691998 0.08058445 -0.00651905 -0.08804009 -0.027203593 -0.03444003 -0.117209636
0.025862195 0.1301857 0.12706459 -0.31186855 0.225397 0.16820584 -0.011340369 0.07326508
-0.046723492 -0.08857488 -0.018679226 -0.05369888 0.19762756 -0.17126666 -0.06223838 -0.012091672
-0.53233516 0.15674399 -0.3391771 -0.23339786 0.0037710064 0.077622965 0.023389222 -0.016814616
00000000: 12ad 4d3d 2f45 9c3e de22 23be 2a86 49bd
00000010: 73cd 52be 01e4 95bc ab85 9f3d 40cd 1cbe
00000020: 88bf 233e 4e5a 123c 948d 9a3d dcb0 cfbd
00000030: bb8d 24be 2c00 4b3d e527 11be ba4b d43c
00000040: 7175 8dbc bef8 aabe bf5d 903e 73d9 523d
00000050: 0624 09be 7abc 02be 51df 38be 8f34 b03d
00000060: b921 23bd 1656 25be 52ed 12be 7b91 17be
00000070: 2567 f13d 0eb8 333e a910 85be b16a abbd
00000080: 3e93 c0bd eaf3 383e 705a b1be dd01 7fbe
00000090: 4c74 e1be 4fb5 ad3d ce5c 3c3e 5e07 81be
000000a0: 8ac1 a4bd 7d8e f7bd 07b2 493e 9383 ddbe
000000b0: 608e 25be 5113 75bd 6bc3 f33d aba9 2abe
000000c0: db85 5bbc 76ca 61bd 1299 00be d0a7 b13d
000000d0: fce2 c23d eab3 363e d316 bdbd d375 9c3d
000000e0: 0938 433e 87a1 f13d 0ee2 dd3d f501 8bbe
000000f0: df1b 0ebe 6804 2ebc 3ecf 703c 7b1b ac3d
00000100: 71a9 a6bd c75b aa3c 99b6 08be 014d 4fb9
00000110: ae6b aebd fa1f 43be eaaa f9be c161 c93a
00000120: d234 503e 1239 83bd 8d84 743e 40ea 623e
00000130: 92e2 ce3d f7af b23e 35f2 00be 0c9d 0c3d
00000140: ae9e 90be 4c66 803e 4091 4dbb 9c36 383c
00000150: aef3 92bd 69d9 d43d 3ea4 563d db82 60be
00000160: b3ea 1c3e 9ca6 99bc b4de cc3c 80c2 c8be
00000170: 4e37 f0bd d278 a8bd f000 233c d6ea 373f
00000180: 25db e73d a8c2 eebc d40b 87bd 7fbd 023f
00000190: 74ab a63e b192 d93e 7fe0 4b3e 523b bdbd
000001a0: 723a 04bc 77bd 123e 7bd9 68bd 5a15 123f
000001b0: 9210 21be 0f7f 05bd 92da 6fbf 5692 1fbd
000001c0: 827e e3bd 9447 f03d 553c 9e3c 5847 4fbe
000001d0: 0f1a e7bb 90fa 5f3d 0fce a83e 98d3 9a3e
000001e0: d362 14be f3f8 1a3e 2cff 853d 05af b9bd
000001f0: fcb7 97bd 4232 38be dd13 12bc df97 b2be
00000200: 194b 64bd dac0 b2be 67c8 253e 8fbd 01be
00000210: 8dd2 253e 1c84 13bd bed9 1dbe 203b 36be
00000220: 3ce1 1a3e 7b5e f73a 694e f03b f07e 573d
00000230: ea20 6ebe 95be 643c 2ae7 6c3d 2d71 d33c
00000240: 99c3 2dbe 70c3 ecbc 097f 9d3e 2d2d 4a3d
00000250: e4cd 5f3d 988d 8dbe c989 ef3b a91f a13d
00000260: 897a dabd 8df1 60be 4785 5e3e f4e7 2f3e
00000270: 7d65 933e 31cf 01be a8be b2bd fd75 433e
00000280: 6ef1 0f3e 88b9 743d 8da3 b23d cc94 e03d
00000290: 5e50 98bd 49c1 01be a5e8 1dbd 0cf7 a23d
000002a0: ed58 503d 9af2 91be 6bc0 16be f8ca 843d
000002b0: b995 74be ad0a 9e3d 5fc1 d9bd c5cb 17bd
000002c0: 30d9 21bd 65d4 4a3e 65ce 003d b426 4dbe
000002d0: 2456 343e e301 0bbd 5175 8abe 2cbf 223b
000002e0: 4cfb 37bd 41ef 223e 4def cd3d ec81 a3be
000002f0: 5d77 b9bd d83a 41be 1f7d 26bd c2c4 4b3e
00000300: 9f20 643e 8e69 bb3d 0555 813d 6568 0a3d
00000310: eaf1 d2ba e750 3a3e 05c7 ab3c af0a e3bd
00000320: ae11 33be c512 b7bd 026c ad3d a121 1a3d
00000330: e257 eb3e c29f c4bd 11d5 75be 9ae9 2bbd
00000340: 1a46 853e b354 ef3a 1436 de3d a850 3cbd
00000350: 2b6a ecbd 26bc 043d e263 5ebe e734 5a3e
00000360: 45e1 123e 5d8b 05be d6f2 003e 0db0 aa3e
00000370: ac18 c53e 3e8f b6bd 5a26 6abe 8df2 7bbd
00000380: a064 8d3d fc7d c6bd 7609 a53d c19d d5bb
00000390: 5d4e b4bd 12da debc fd10 0dbd 9b0b f0bd
000003a0: f4dc d33c 664f 053e 381d 023e 3cad 9fbe
000003b0: 79ce 663e 273e 2c3e f4cc 39bc 010c 963d
000003c0: 2261 3fbd bf66 b5bd 2d05 99bc 5bf3 5bbd
000003d0: e15e 4a3e 8760 2fbe aced 7ebd 261c 46bc
000003e0: 1e47 08bf 7f81 203e 9fa8 adbe d9ff 6ebe
000003f0: fd22 773b caf8 9e3d c19a bf3c cebe 89bc

onnx::MatMul_25 f4 [512, 256]
-0.009959353 -0.12181784 0.10891894 0.0006957012 -0.033411928 0.01696885 -0.04587848 -0.1110695
-0.26704317 -0.12099065 0.0702239 -0.25729114 -0.024049222 -0.2599442 0.06959088 -0.072386555
-0.34335247 -0.064400874 -0.057007328 -0.06811088 0.12487017 -0.46579102 -0.020862052 -0.051798243
-0.4497058 -0.052440956 0.017614873 -0.13661021 -0.23980303 -0.13649723 0.11339966 -0.017368054
0.10496434 -0.10942965 -0.004014237 -0.105856605 0.11418987 -0.5684694 -0.03981908 -0.27133298
0.015930729 -0.17018272 0.034921907 -0.2581035 0.14374846 0.26098728 0.06375518 0.13839999
-0.22209918 0.06825315 0.06901075 -0.024517464 -0.012791074 -0.12682405 -0.13367832 -0.113902576
-0.34082878 -0.09087138 -0.31178224 -0.070778415 -0.2966099 0.12933564 -0.30420378 -0.4797808
0.026343757 -0.33929193 -0.19090128 -0.30596933 -0.19224118 0.058952767 -0.15099421 0.04131596
-0.492073 0.124171056 0.16403827 -0.167349 -0.203799 -0.026044773 -0.020275561 0.10266106
-0.2468451 -0.026815586 -0.18603088 -0.057342116 0.05604908 -0.12023481 0.27166685 -0.112636454
-0.2526237 -0.1313219 0.03933687 0.023078071 0.017691845 -0.33344135 0.034496047 -0.14801097
0.05669588 -0.038838908 0.02375022 -0.06793501 -0.093349144 0.0072927205 -0.21894363 -0.03488546
-0.16220531 -0.22311418 0.0040106694 -0.14502992 0.17390606 0.14920618 -0.1332001 0.022851441
-0.1968688 -0.088791244 -0.0849849 0.2185815 -0.19911477 -0.16606677 -0.11637561 -0.18358588
-0.11432655 -0.05905303 -0.07082995 -0.61510676 -0.2721336 0.014264968 -0.20301849 0.01944051
0.0078006308 -0.1401434 -0.36067206 -0.13512109 -0.023598313 -0.24983974 0.04301535 0.045117274
-0.095468745 -0.12597987 -0.2671248 0.14758143 0.049180668 -0.52363515 -0.46935457 -0.072060525
-0.08267054 -0.025054917 0.04589828 0.07438273 -0.323293 -0.042125616 -0.095157705 0.048545256
-0.19503929 0.06740771 -0.2535686 -0.13697217 -0.090092085 -0.07402698 -0.17719404 -0.29552713
-0.08187051 -0.20897554 -0.08007587 0.0537364 -0.07107495 -0.4616109 -0.675116 0.02214154
0.029961228 -0.18161358 0.050969623 0.08123888 0.025649983 -0.1427875 -0.16710593 -0.1313149
0.2430357 0.13198222 -0.15846996 -0.4905921 -0.38514376 -0.18336333 -0.09766111 -0.14559636
0.09727436 -0.30598006 0.072424 -0.27827552 -0.3250921 -0.0076667806 -0.17627354 -0.07601155
-0.04063014 -0.14871027 -0.17093982 0.04081076 0.013945375 -0.41870752 0.12540804 -0.07384251
-0.026485162 0.046404984 -0.048327833 -0.097246304 -0.14075671 -0.13066466 -0.17715962 -0.039841123
-0.2712113 -0.38600647 -0.15567388 -0.07536237 -0.050430056 0.018852388 -0.24479757 -0.4593326
-0.17065684 -0.13359022 -0.18019089 -0.027805932 0.010339117 -0.06886377 -0.17697185 0.28571135
-0.5113706 0.10271161 -0.25507295 0.006517034 -0.07541673 0.15482299 -0.039574824 0.07416611
-0.29860213 -0.1750411 0.026006151 -0.12883158 -0.4225733 0.1658263 -0.04238543 -0.24939501
0.075957544 -0.09360647 -0.21725163 0.14885226 0.0016367096 0.0037529706 -0.019190514 -0.4714782
-0.010065742 -0.02884253 -0.16377057 0.029041689 -0.09031874 0.0037226789 0.20195471 0.1925954
00000000: 8e2c 23bc a27b f9bd e510 df3d b85f 363a
00000010: f2da 08bd 4202 8b3c 13eb 3bbd 6878 e3bd
00000020: e2b9 88be f2c9 f7bd 8cd1 8f3d aabb 83be
00000030: e002 c5bc 6817 85be aa85 8e3d 673f 94bd
00000040: e5cb afbe 9be4 83bd 8480 69bd b87d 8bbd
00000050: efbb ff3d 297c eebe e5e6 aabc 652a 54bd
00000060: d73f e6be 54cc 56bd 114d 903c 8ce3 0bbe
00000070: ed8e 75be eec5 0bbe 153e e83d 7347 8ebc
00000080: 8bf7 d63d a71c e0bd dc89 83bb 59cb d8bd
00000090: 61dc e93d 3687 11bf 5519 23bd 28ec 8abe
000000a0: 2981 823c 6144 2ebe 460a 0f3d 2426 84be
000000b0: cc32 133e 20a0 853e 1392 823d bab8 0d3e
000000c0: f86d 63be 4fc8 8b3d 8255 8d3d d9d8 c8bc
000000d0: a791 51bc 2ade 01be f8e2 08be c145 e9bd
000000e0: 1c81 aebe c61a babd eca1 9fbe 46f4 90bd
000000f0: 41dd 97be 9070 043e 99c0 9bbe d4a5 f5be
00000100: ddce d73c acb7 adbe a07b 43be 03a8 9cbe
00000110: dfda 44be 7578 713d 3a9e 1abe ed3a 293d
00000120: fef0 fbbe 654d fe3d a6f9 273e 895d 2bbe
00000130: afb0 50be d95b d5bc ef18 a6bc f63f d23d
00000140: f6c4 7cbe 5cac dbbc e17e 3ebe 91df 6abd
00000150: b893 653d ab3d f6bd eb17 8b3e f1ad e6bd
00000160: e557 81be 4079 06be b31f 213d 390e bd3c
00000170: 7dee 903c d3b8 aabe ba4b 0d3d 3090 17be
00000180: f039 683d 8c15 1fbd d28f c23c 8321 8bbd
00000190: d62d bfbd c6f7 ee3b c232 60be 0ee4 0ebd
000001a0: 2619 26be 0b78 64be ef6b 833b b982 14be
000001b0: 6e14 323e 81c9 183e 9b65 08be f232 bb3c
000001c0: fa97 49be 2fd8 b5bd 900c aebd d4d3 5f3e
000001d0: bee4 4bbe 680d 2abe 5656 eebd f0fd 3bbe
000001e0: 0a24 eabd 97e1 71bd 4b0f 91bd a377 1dbf
000001f0: 1855 8bbe 9db7 693c 14e4 4fbe b441 9f3c
00000200: 6f9c ff3b c081 0fbe 02aa b8be 2f5d 0abe
00000210: 4051 c1bc fdd5 7fbe dd30 303d e4cc 383d
00000220: 1e85 c3bd de00 01be 95c4 88be 961f 173e
00000230: ab71 493d f40c 06bf 3e4f f0be 7894 93bd
00000240: 2c4f a9bd f83f cdbc d6ff 3b3d f955 983d
00000250: a986 a5be e98b 2cbd 0be2 c2bd 64d7 463d
00000260: 61b8 47be 0e0d 8a3d bed3 81be 6f42 0cbe
00000270: 3382 b8bd 759b 97bd 5b72 35be 554f 97be
00000280: baab a7bd affd 55be d1fe a3bd b31a 5c3d
00000290: be8f 91bd 4458 ecbe 67d4 2cbf 2d62 b53c
000002a0: 4071 f53c e9f8 39be 86c5 503d 9260 a63d
000002b0: ea1f d23c e336 12be d11d 2bbe 6a77 06be
000002c0: 5ade 783e 5926 073e f345 22be e32e fbbe
000002d0: 9031 c5be 99c3 3bbe 8c02 c8bd 3617 15be
000002e0: c837 c73d 6ba9 9cbe 0953 943d 217a 8ebe
000002f0: 7972 a6be 9e39 fbbb 0d81 34be f2ab 9bbd
00000300: ca6b 26bd 8147 18be d90a 2fbe 2f29 273d
00000310: 247b 643c d560 d6be f76a 003e be3a 97bd
00000320: 69f7 d8bc 2713 3e3d 68f3 45bd 1229 c7bd
00000330: 8722 10be f5cc 05be 5569 35be 7230 23bd
00000340: 35dc 8abe a4a2 c5be f968 1fbe 9657 9abd
00000350: bf8f 4ebd 5370 9a3c 37ac 7abe a42d ebbe
00000360: abc0 2ebe e0cb 08be f683 38be 44c9 e3bc
00000370: 6665 293c 7308 8dbd 1c38 35be c248 923e
00000380: 2fe9 02bf 775a d23d ec98 82be d88c d53b
00000390: 1674 9abd eb89 1e3e 3619 22bd 67e4 973d
000003a0: 61e2 98be f93d 33be da0a d53c 6dec 03be
000003b0: 875b d8be 5fce 293e 589c 2dbd 6861 7fbe
000003c0: a18f 9b3d c0b4 bfbd 3677 5ebe ba6c 183e
000003d0: dc86 d63a 66f4 753b 6d35 9dbc 9765 f1be
000003e0: c8ea 24bc 2b47 ecbc 79b3 27be d6e8 ed3c
000003f0: 08f9 b8bd 30f8 733b 37cd 4e3e bb37 453e

onnx::MatMul_26 f4 [256, 128]
0.15567595 0.09467509 -0.12552305 -0.01416351 -0.05778143 0.07435727 0.03333636 -0.15726864
-0.05119434 0.06268404 -0.058214307 0.26228544 0.1805882 -0.28191847 0.07734768 0.27576977
-0.14286341 -0.102486074 -0.13497321 0.02572626 0.17976066 -0.1898945 -0.075188756 0.048289828
0.19046533 0.013032781 -0.027047088 0.002320588 0.08612249 -0.0924079 0.0029211016 -0.10935549
-0.19815697 -0.016780283 -0.03492022 -0.0948336 -0.093010455 0.32187843 0.12953126 -0.04018865
0.06664646 -0.08353666 -0.21226759 0.09713389 0.12542376 -0.21123104 -0.08322118 0.039238848
0.15709992 0.00692156 -0.011703272 0.24798732 -0.09420495 -0.18586402 -0.10599831 0.11961758
-0.24122219 -0.119466126 0.25958928 0.18597303 -0.07048575 0.2317356 0.20843092 0.13631363
0.4480308 0.42854333 -0.0059826537 0.07639095 -0.050302558 0.119317465 0.123833515 -0.16286287
-0.0027505062 0.023558708 -0.0716962 0.045315146 -0.03065202 0.13291565 0.043120135 -0.015384421
0.23546079 -0.10937901 -0.066688746 0.056656852 -0.23339602 0.013069529 0.25916138 0.045173604
0.09899875 -0.0788155 0.11002252 0.07934217 0.10244826 0.05850036 0.04555273 0.21965562
-0.043787103 -0.10153547 -0.06349674 -0.040639773 0.06739497 -0.039397437 0.08494296 0.036723245
0.19249888 0.056069743 0.11869427 0.10603774 0.06586555 0.08267422 0.060970973 0.15236886
0.10961728 -0.22031255 -0.10753894 0.079086564 -0.1342808 0.02157261 0.21721582 0.23269624
0.04937077 -0.17383832 -0.069141194 -0.33821353 0.19110571 -0.07908712 0.063360594 0.21984024
0.06364198 -0.08829088 -0.119876124 0.11027433 -0.3783504 -0.10926492 0.32576942 -0.03206208
-0.12719516 0.06463757 -0.043208092 -0.09224824 0.14003438 0.02421971 -0.08658122 -0.11018974
0.14795686 -0.16717492 0.14329177 -0.13296191 -0.53596234 0.0039957296 0.07062597 0.12516375
-0.11524744 0.12665302 0.10543956 0.20866126 -0.17102297 0.19469157 -0.023027392 -0.1583661
0.053316835 0.3185884 -0.17570086 -0.18758726 -0.123354726 -0.28623417 -0.051286355 -0.061982077
-0.40011498 0.16322637 -0.22416958 -0.112355016 -0.04195289 -0.04205349 -0.0106895855 -0.1060459
-0.2072847 -0.08509582 0.13186526 0.12221019 0.018014628 -0.11814481 0.11672264 0.16359766
0.1348799 -0.12316721 -0.16584583 -0.04464114 0.00493535 0.054691322 0.049892932 0.008909604
0.05954684 -0.33443725 -0.097124696 -0.273887 -0.087522596 -0.25929794 -0.17896344 0.16758776
0.16514339 -0.03286954 -0.051503517 0.10120914 0.09083982 0.042453155 -0.164042 -0.046113793
-0.16831078 -0.06397835 0.047856525 -0.27464566 -0.12604602 0.022821475 -0.2575458 -0.18875556
0.19881247 -0.2949164 0.2783725 -0.2673989 -0.05049811 0.13783064 0.38768896 -0.11672661
0.09205859 -0.04413262 0.107912056 0.07250944 -0.20165479 -0.30854952 -0.49622265 0.12362213
-0.22034468 -0.17669867 0.14250089 -0.16540043 0.07394594 -0.1200979 -0.054964725 -0.15973708
-0.04296664 -0.06130932 0.12242721 -0.014211657 0.09292667 -0.3646116 0.17046148 -0.09846936
-0.013488464 0.2285723 0.101150885 -0.13553643 0.07324264 0.09456629 0.053817853 -0.13876456
00000000: 8469 1f3e 03e5 c13d 1d89 00be 110e 68bc
00000010: 39ac 6cbd a048 983d b58b 083d 080b 21be
00000020: 28b1 51bd 7d60 803d 2072 6ebd 474a 863e
00000030: 1dec 383e 9e57 90be 7668 9e3d b231 8d3e
00000040: c94a 12be 38e4 d1bd 6b36 0abe e1bf d23c
00000050: 2e13 383e b473 42be 90fc 99bd 8ecb 453d
00000060: 5809 433e 7287 553c db91 ddbc 0215 183b
00000070: fd60 b03d 5a40 bdbd f46f 3f3b c5f5 dfbd
00000080: a9e9 4abe ce76 89bc 8108 0fbd 1e38 c2bd
00000090: 447c bebd 40cd a43e d8a3 043e db9c 24bd
000000a0: f07d 883d 4515 abbd ad5c 59be 22ee c63d
000000b0: 166f 003e f34c 58be de6f aabd eab8 203d
000000c0: cdde 203e 41ce e23b 15bf 3fbc 63f0 7d3e
000000d0: 86ee c0bd 2353 3ebe a415 d9bd 10fa f43d
000000e0: f302 77be a8aa f4bd e3e8 843e b76f 3e3e
000000f0: d55a 90bd 194c 6d3e ea6e 553e cd95 0b3e
00000100: 4b64 e53e 086a db3e 230a c4bb dc72 9c3d
00000110: 0e0a 4ebd b75c f43d 6d9c fd3d 86c5 26be
00000120: d641 34bb 31fe c03c 75d5 92bd 609c 393d
00000130: f219 fbbc 0a1b 083e bd9e 303d f00e 7cbc
00000140: a21c 713e 1a02 e0bd 1c94 88bd 0411 683d
00000150: 5eff 6ebe 9421 563c cdb0 843e f507 393d
00000160: dbbf ca3d 056a a1bd 7d53 e13d 267e a23d
00000170: 65d0 d13d 139e 6f3d 8095 3a3d 67ed 603e
00000180: 1b5a 33bd d4f1 cfbd 940a 82bd e475 26bd
00000190: 6006 8a3d 355f 21bd 93f6 ad3d 1d6b 163d
000001a0: 6d1e 453e 63a9 653d fb15 f33d 512a d93d
000001b0: 84e4 863d 1a51 a93d b3bc 793d 9506 1c3e
000001c0: 067f e03d 9d99 61be 603d dcbd 23f8 a13d
000001d0: e880 09be 0bb9 b03c d36d 5e3e ec47 6e3e
000001e0: 0139 4a3d ac02 32be e699 8dbd 532a adbe
000001f0: 37b1 433e 6ef8 a1bd 33c3 813d cd1d 613e
00000200: ba56 823d d9d1 b4bd 9d81 f5bd 82d7 e13d
00000210: 25b7 c1be 49c6 dfbd 40cb a63e 8753 03bd
00000220: 733f 02be b460 843d f8fa 30bd a5ec bcbd
00000230: 2c65 0f3e 6a68 c63c 7f51 b1bd 29ab e1bd
00000240: 0182 173e e72f 2bbe 14bb 123e 2b27 08be
00000250: d434 09bf 9cee 823b 59a4 903d ed2a 003e
00000260: da06 ecbd 54b1 013e b2f0 d73d 4cab 553e
00000270: a520 2fbe 3a5d 473e f1a3 bcbc b92a 22be
00000280: c162 5a3d 051e a33e edea 33be e016 40be
00000290: 67a1 fcbd 498d 92be a411 52bd ebe0 7dbd
000002a0: dfdb ccbe d024 273e b68c 65be 631a e6bd
000002b0: cbd6 2bbd 4840 2cbd 5f23 2fbc 982e d9bd
000002c0: 7142 54be b846 aebd b007 073e 5649 fa3d
000002d0: 6a93 933c e8f5 f1bd 480c ef3d 2586 273e
000002e0: f51d 0a3e 173f fcbd 7dd3 29be a1d9 36bd
000002f0: b7b8 a13b 0204 603d 885c 4c3d 96f9 113c
00000300: 63e7 733d 5c3b abbe 50e9 c6bd eb3a 8cbe
00000310: 0c3f b3bd b3c2 84be 3142 37be 209c 2b3e
00000320: 591b 293e 36a2 06bd 5af5 52bd bd46 cf3d
00000330: 3a0a ba3d 5ce3 2d3d a0fa 27be d1e1 3cbd
00000340: a959 2cbe 1507 83bd 3405 443d 5b9e 8cbe
00000350: 3512 01be 1af4 ba3c 0bdd 83be 2349 41be
00000360: 7f95 4b3e 48ff 96be d786 8e3e 82e8 88be
00000370: 1bd7 4ebd 7a23 0d3e 2b7f c63e 5c0e efbd
00000380: 3789 bc3d 68c4 34bd ff00 dd3d d47f 943d
00000390: 987e 4ebe 34fa 9dbe e510 febe 992d fd3d
000003a0: 09a2 61be 7ff0 34be c1eb 113e bb5e 29be
000003b0: f870 973d e3f5 f5bd b122 61bd 1e92 23be
000003c0: cafd 2fbd 7b1f 7bbd 1ebb fa3d 03d8 68bc
000003d0: 5750 be3d 5fae babe 748d 2e3e 4eaa c9bd
000003e0: b8fe 5cbc db0e 6a3e 3228 cf3d 10ca 0abe
000003f0: 3d00 963d f9ab c13d 1c70 5c3d 4c18 0ebe

onnx::MatMul_27 f4 [128, 6]
-0.038710404 -0.035982803 0.054945756 0.005658653 -0.020445326 0.007159044 0.010387316 0.040571947
-0.114448555 -0.0050268685 -0.044329405 -0.0847472 0.032182414 -0.0073471433 0.012582532 -0.014405324
-0.03298255 -0.02684834 0.014659532 -0.030478274 0.06500013 -0.007428582 0.041891586 -0.03591407
0.010217285 0.10639053 -0.021749586 0.0021938656 0.092463896 0.023828954 0.11142715 0.03148203
0.22193731 -0.119033135 -0.027607625 0.099516995 0.038141597 -0.057843518 -0.047162715 -4.7590496e-05
-0.026108727 -0.065567344 -0.039566666 -0.024221523 0.06630503 -0.013974275 -0.006163957 -0.118060045
-0.14988549 0.005729961 -0.025078924 0.022279212 0.010578797 0.08437614 -0.0031171886 0.018719556
0.037564933 0.03148132 0.0154095655 -0.05757422 0.041824553 -0.005667096 -0.18590239 0.07439189
0.004334951 -0.079030745 0.014219295 -0.007195727 -0.026111495 0.04078017 0.018087925 -0.09797744
-0.047034774 0.02086603 0.017131088 -0.0062173028 0.03471386 0.05808131 -0.057501785 -0.03687848
-0.062215038 0.07657755 -0.02605014 0.014619876 0.0069223912 0.0019158155 0.00647167 -0.04144181
0.0023260717 0.11930654 -0.057186037 -0.019480145 0.00074355485 0.049556382 0.0009243682 -0.043945897
-0.00026146058 0.06602012 0.042666044 0.043259293 0.0092770485 -0.015525611 0.021623408 0.012700095
-0.011423845 -0.06261059 -0.015898174 0.07439821 -0.06780877 -0.06233716 0.031951804 -0.0029974699
-0.0022657062 0.021222267 -0.04748679 -0.01528463 0.022012046 0.034922916 -0.016056182 -0.007893798
-0.059868813 -0.009748639 0.0861645 0.04095017 0.022462443 0.25121945 -0.05679884 0.020512301
-0.037392024 0.019592077 0.021584485 0.028968837 0.032651726 0.057087697 -0.09286976 0.014250198
0.0009967154 0.0033896533 0.0025419877 -0.0362216 -0.002267226 -0.00035268703 -0.0816249 0.025664745
0.024046117 -0.0009003393 0.15008816 0.04907474 0.0062846188 -0.03757693 0.0018698397 0.057820417
0.0028338672 -0.009069549 0.056049086 -0.033720482 -0.03397316 0.0019099584 -0.101276 0.083724484
-0.030554717 -0.01740629 -0.07544321 -0.009754002 -0.054926854 0.017503694 -0.015388758 0.03321385
-0.010764108 0.059470885 -0.015150635 0.032006454 0.1604886 -0.16394652 -0.0028232525 -0.038478345
-0.018347178 -0.041533988 0.041165203 0.010134612 0.07523349 -0.009869817 0.006346013 -0.07701372
-0.021964543 -0.056158315 -0.1254527 0.023934327 0.077864625 0.0014070148 0.05606068 0.08501841
0.110156186 -0.035796586 -0.18532416 0.05882646 -0.024247097 -0.05317669 0.022005433 -0.07439915
-0.07906609 0.011351589 -0.07411151 -0.03697964 -0.0149226235 -0.058432512 0.04125228 -0.03783107
0.001754234 0.0122201415 0.0145919705 -0.15484904 0.01344606 0.03073111 0.20822324 -0.04904211
-0.0072892196 0.018082153 -0.028304249 -0.08267472 -0.013343832 0.02068988 0.012721963 -0.030607726
0.106528156 0.0006662793 -0.04166463 0.026712095 -0.027740581 -0.039704263 0.027560275 -0.045022618
0.0014005727 0.08261406 -0.031740572 -0.015915377 -0.046809983 0.07154107 0.012852643 0.13097982
0.038281895 -0.10252074 0.0110729 0.10261407 0.003265578 -0.033630945 0.024408517 0.0625999
0.047286358 -0.0033630468 0.05017731 -0.012219781 -0.02929293 0.04425065 0.048975635 -0.00058745255
00000000: cd8e 1ebd b462 13bd cd0e 613d 396c b93b
00000010: f57c a7bc 6a96 ea3b 902f 2a3c c52e 263d
00000020: 0164 eabd 6eb8 a4bb c092 35bd f18f adbd
00000030: b5d1 033d 4ec0 f0bb f726 4e3c 4f04 6cbc
00000040: b618 07bd 0df1 dbbc 892e 703c 93ad f9bc
00000050: ca1e 853d 766b f3bb 8396 2b3d a21a 13bd
00000060: 6666 273c 47e3 d93d 302c b2bc f5c6 0f3b
00000070: b65d bd3d f034 c33c eb33 e43d 4df3 003d
00000080: 8943 633e a5c7 f3bd 6329 e2bc 91cf cb3d
00000090: 5d3a 1c3d 53ed 6cbd b12d 41bd e89b 47b8
000000a0: f8e1 d5bc 2c48 86bd a810 22bd 376c c6bc
000000b0: eeca 873d 5cf4 64bc 05fb c9bb 77c9 f1bd
000000c0: 957b 19be 66c2 bb3b 5172 cdbc e582 b63c
000000d0: b152 2d3c 66cd ac3d bf49 4cbb c159 993c
000000e0: b0dd 193d 8ef2 003d 6778 7c3c f2d2 6bbd
000000f0: 3950 2b3d 0cb3 b9bb 325d 3ebe c65a 983d
00000100: 340c 8e3b dfda a1bd 0cf8 683c 22ca ebbb
00000110: c6e7 d5bc 1c09 273d 212d 943c 65a8 c8bd
00000120: 89a7 40bd 3def aa3c 7f56 8c3c 84ba cbbb
00000130: 1f30 0e3d abe6 6d3d fe86 6bbd e40d 17bd
00000140: 32d5 7ebd b1d4 9c3d 1a67 d5bc 3488 6f3c
00000150: 3ad5 e23b 1a1c fb3a 4e10 d43b e3be 29bd
00000160: 0271 183b fd56 f43d e83b 6abd d394 9fbc
00000170: 1feb 423a a2fb 4a3d 4d51 723a 9d00 34bd
00000180: a514 89b9 8f35 873d 97c2 2e3d a830 313d
00000190: c3fe 173c 225f 7ebc 9323 b13c 0f14 503c
000001a0: 142b 3bbc fb39 80bd e33c 82bc 175e 983d
000001b0: 53df 8abd 4055 7fbd e5df 023d 3371 44bb
000001c0: 3e7c 14bb 52da ad3c 8281 42bd 626c 7abc
000001d0: 9b52 b43c 550b 0f3d 4188 83bc fd54 01bc
000001e0: 0039 75bd c1b8 1fbc 0377 b03d 5ebb 273d
000001f0: 2803 b83c d69f 803e e7a5 68bd 6a09 a83c
00000200: 6128 19bd 907f a03c f2d1 b03c 0e50 ed3c
00000210: d1bd 053d cad4 693d 8032 bebd aa79 693c
00000220: 38a4 823a f224 5e3b 7a97 263b 1a5d 14bd
00000230: be95 14bb dae8 b8b9 f52a a7bd df3e d23c
00000240: 5dfc c43c bf04 6cba b6b0 193e 9802 493d
00000250: 34ef cd3b 44ea 19bd 6915 f53a 1ad5 6c3d
00000260: 67b8 393b 7298 14bc ba93 653d 7d1e 0abd
00000270: 7127 0bbd 9257 fa3a cb69 cfbd be77 ab3d
00000280: e34d fabc a397 8ebc f881 9abd 40cf 1fbc
00000290: fbfa 60bd e863 8f3c 2121 7cbc 3f0b 083d
000002a0: f15b 30bc be97 733d 5e3a 78bc 3319 033d
000002b0: 2057 243e 99e1 27be 5106 39bb 789b 1dbd
000002c0: d24c 96bc 8b1f 2abd d89c 283d a50b 263c
000002d0: 0414 9a3d 03b5 21bc 37f2 cf3b 5fb9 9dbd
000002e0: fcee b3bc 4306 66bd ac76 00be ec11 c43c
000002f0: 7d77 9f3d 956b b83a e29f 653d 221e ae3d
00000300: 9199 e13d 719f 12bd 9ec5 3dbe 04f4 703d
00000310: d9a1 c6bc cdcf 59bd bd44 b43c 955e 98bd
00000320: 67ed a1bd 04fc 393c c6c7 97bd f777 17bd
00000330: 057e 74bc ee56 6fbd 27f8 283d c1f4 1abd
00000340: 53ee e53a fd36 483c 2913 6f3c bf90 1ebe
00000350: dd4c 5c3c cfbf fb3c 7938 553e 61e0 48bd
00000360: 68da eebb 0621 943c 50de e7bc 5d51 a9bd
00000370: 17a0 5abc d37d a93c c86f 503c 0ebd fabc
00000380: 6f2b da3d 3fa9 2e3a 88a8 2abd 53d3 da3c
00000390: 3740 e3bc f0a0 22bd 16c6 e13c a369 38bd
000003a0: 6c93 b73a 8f31 a93d 6702 02bd f760 82bc
000003b0: d3bb 3fbd 2084 923d e493 523c 931f 063e
000003c0: 7acd 1c3d 65f6 d1bd 1c6b 353c 5327 d23d
000003d0: 4f03 563b 9ac0 09bd 5ff4 c73c 6034 803d
000003e0: 57af 413d 9066 5cbb b986 4d3d 7a35 48bc
000003f0: baf7 efbc 2b40 353d ad9a 483d 46ff 19ba
