robot_controllers/config/pointfoot/WF_TRON1A/policy/encoder.onnx (onnx, 443544 bytes, 6 tensors)

encoder.0.bias f4 [256]
000000 ba 66 4d be 48 22 86 3e 44 2b 68 be cc b2 9f be
       -0.20058718 0.2619803 -0.22672755 -0.311911
000010 63 d5 fe 3d 27 c2 09 be b2 d6 c1 be ec c1 1e bf
       0.12443044 -0.1345297 -0.37859112 -0.6201465
000020 a7 b1 1a bf e0 c8 49 c0 10 7c 60 be d5 a6 ce 3d
       -0.60427326 -3.1528854 -0.21922326 0.100904144
000030 f3 bb 9a be 6e ba 81 be 82 f4 e8 be 6b 06 f7 be
       -0.3022152 -0.25337547 -0.45499045 -0.48247084
000040 5d 28 97 3d e0 69 aa be dc 40 1e bf ca 54 cb bf
       0.073807456 -0.332839 -0.6181772 -1.588525
000050 8e 2f 94 be 92 88 ae bd 54 c6 a4 c0 b8 32 13 c0
       -0.2894253 -0.085221425 -5.14921 -2.2999706
000060 7b 37 88 3d 58 4e 8f 3e b5 a7 f7 bc 8b ab d9 3d
       0.06651207 0.2798946 -0.030231336 0.10628422
000070 a2 62 8e 3c 83 03 8e be 61 a0 d5 be 73 b3 84 bf
       0.017381016 -0.27737054 -0.41723922 -1.0367264
000080 d3 4b 67 be e1 59 81 be 5c 18 a2 be 3f b5 95 be
       -0.22587518 -0.25263885 -0.3165921 -0.29239842
000090 bc 6c c5 3d 1e a5 a7 3d a3 21 fc bd d3 dd fa bf
       0.0963988 0.081857905 -0.12311103 -1.9598945
0000a0 51 4e 2f be 3c 3c 86 be c5 58 9b 3e d3 b7 67 3e
       -0.17119719 -0.2621783 0.30341163 0.22628717
0000b0 0b cc 55 3d e5 eb d4 be d2 a7 24 be 85 f9 68 bd
       0.052196544 -0.41586223 -0.16079643 -0.056878585
0000c0 32 c6 15 c0 54 d8 1c bf a2 52 c0 be f2 26 0d 3d
       -2.340222 -0.6126759 -0.37563044 0.03446097
0000d0 48 de 8f 3c 54 7a 95 c0 04 e3 ae be b8 f9 6c be
       0.017562047 -4.6711826 -0.34157574 -0.23142135
0000e0 41 c9 a8 be a2 78 59 bf 02 d7 75 3d 52 3b 3f bf
       -0.32966045 -0.84949696 0.0600195 -0.7469989
0000f0 00 01 69 3e f2 b4 61 be ad e6 25 bd e6 d4 fe be
       0.22754288 -0.22041681 -0.040503193 -0.49771804
000100 66 db 84 be ba 88 89 bd d5 51 80 3d 2c 57 b9 bf
       -0.25948638 -0.06715532 0.06265608 -1.4479728
000110 3d c5 8b c0 43 93 19 c0 9a 94 c2 be 1e 55 e6 bf
       -4.367827 -2.3996131 -0.38004 -1.7994726
000120 35 32 0b 3d 6b cb 71 bc 59 18 41 bd 79 f2 a3 be
       0.033983428 -0.014757971 -0.04714236 -0.3202093
000130 8d 09 aa 3e 3a 6b 0c 3e b4 4f f0 3d f4 7d d8 bf
       0.33210412 0.13712779 0.11733952 -1.6913438
000140 7d 87 12 bf 40 f5 f9 bf 06 49 f6 bd 87 c3 99 be
       -0.5723799 -1.9527969 -0.12025647 -0.30031988
000150 11 c8 68 be 7a 16 68 bf 90 c5 f4 bf 42 04 59 be
       -0.2273257 -0.90659297 -1.9122791 -0.2119303
000160 92 79 47 be ea 9c a5 bc 67 c5 ed be 72 ef 90 c0
       -0.19479969 -0.020216424 -0.4643967 -4.529229
000170 9e dc 10 3c ac e6 86 3e b2 b3 40 c0 bf 40 7d bd
       0.008841662 0.26347864 -3.0109677 -0.061829325
000180 05 c1 0f 3e 43 3b 96 bd cf ad a4 be eb d9 71 be
       0.14038475 -0.07335522 -0.32163855 -0.23618285
000190 f6 b5 91 c0 90 9a 4f bd 76 69 0e c0 7f 79 89 3e
       -4.553462 -0.05068451 -2.2251868 0.26850507
0001a0 05 6b f3 be 33 f8 dd be 2c 9d 7f c0 f4 73 6f be
       -0.47542587 -0.43353423 -3.993968 -0.23384076
0001b0 84 99 a6 be 90 f0 b9 bf fb b8 22 bf b7 f7 25 bf
       -0.32538998 -1.4526539 -0.6356351 -0.6483111
0001c0 8a cb 06 bf 0f 63 39 c0 79 21 79 3d 22 e2 ac c0
       -0.52654326 -2.896671 0.060822938 -5.402604
0001d0 af cf 67 be 42 80 d1 be b8 2f 0d bf 70 7b 01 bd
       -0.22637819 -0.40918165 -0.5515094 -0.03161186
0001e0 69 56 83 be 0b 3e 9c be 28 25 81 3f f7 96 63 c0
       -0.25651863 -0.30516085 1.0089464 -3.5560892
0001f0 fc a0 40 bf 47 a3 b4 bf f9 09 68 be 6c 50 8a 3d
       -0.7524564 -1.4112328 -0.22660054 0.067536205
000200 85 0f 6b be 8e 29 49 c0 3c bb b0 be 69 01 ca bf
       -0.22955139 -3.1431613 -0.34517848 -1.578168
000210 86 fb 89 bf b2 bd cb be 58 9e 02 bf 39 62 37 bf
       -1.0779884 -0.39793164 -0.51022863 -0.7163425
000220 d3 48 03 bf f2 89 c0 bd db e1 a1 bd 48 1f 0a bd
       -0.51282996 -0.09401311 -0.07904407 -0.03372124
000230 0a 84 5c bd 23 af 37 c0 c8 31 9e bf b6 81 2c 3e
       -0.05383686 -2.8700645 -1.2358942 0.16846356
000240 cf ab bc bd 32 6a 40 bf 0b c9 ac 3c 5e 75 23 bf
       -0.092124574 -0.7516204 0.021091959 -0.63850963
000250 e1 5a b4 3d 87 b0 a5 c0 af 12 eb 3c 0e 60 7c bd
       0.08806396 -5.1777987 0.028695432 -0.061615042
000260 55 37 a4 3d c0 10 b4 be 68 c6 24 c0 96 b5 86 bf
       0.08018366 -0.3516903 -2.5746098 -1.0524166
000270 bf 91 fd bf 16 b9 35 bf b6 e7 3b bf d5 47 42 bf
       -1.9810103 -0.70985544 -0.7340044 -0.75890857
000280 1c c9 a7 bd 20 cc a9 c0 8d b6 e1 be 41 e6 c6 be
       -0.081926554 -5.3061676 -0.44084588 -0.38847545
000290 b3 b3 c0 be 33 05 81 bd 99 54 ab bf 1b 3e 1e be
       -0.376371 -0.0629982 -1.3385192 -0.15453379
0002a0 0f 7f 7b c0 7e 7a 3e bf 36 fd c8 be 36 ab ee be
       -3.92963 -0.7440566 -0.39255685 -0.46615
0002b0 67 c7 da be 88 65 d0 be e2 73 87 c0 0d de 03 c0
       -0.42730257 -0.40702462 -4.232896 -2.060428
0002c0 14 fa 9d bf c9 f9 39 bf 3a 64 31 be 51 80 fe be
       -1.2341943 -0.72646767 -0.1732339 -0.49707273
0002d0 58 25 90 bf c3 d3 b9 bd 2c b5 f1 bd 7e 1e 81 be
       -1.1261396 -0.090735935 -0.11802134 -0.25218576
0002e0 1f 98 9d be c4 52 ed bf 0e 59 0d 3d 2b 8a 0f be
       -0.30780122 -1.8540883 0.034508757 -0.1401755
0002f0 66 14 86 bc 75 44 f7 bd 9b 9e e1 bd ad 81 6e bf
       -0.016367149 -0.12073604 -0.1101658 -0.9316662
000300 f7 43 77 be 08 4c 29 bf 18 11 67 3e bc 1c 41 bf
       -0.2414702 -0.6613164 0.22565114 -0.7543447
000310 a7 5a d9 be 86 f3 22 c0 8a af 01 bc d0 04 0f c0
       -0.42451975 -2.5461135 -0.007915387 -2.2346687
000320 10 8f e2 3d a2 41 97 bf da 79 5c 3e d9 93 5e 3e
       0.11062443 -1.1816905 0.21530858 0.21736087
000330 5b 36 c3 bd 48 e4 8c bd 97 02 8c be 75 d4 1a c0
       -0.09531852 -0.06879479 -0.27345726 -2.4192173
000340 0d 81 21 be 75 af b5 bf 44 1b 4d bd 93 75 5d c0
       -0.15771885 -1.419417 -0.05007483 -3.4603012
000350 b0 1b d4 bd 07 31 5a bf 93 4c a6 be ae 5f ba bd
       -0.103568435 -0.8523106 -0.32480296 -0.09100281
000360 86 cd c2 3d 0f f1 5c be 2a fe db 3d 98 72 bb be
       0.09511857 -0.21576332 0.10741837 -0.36610866
000370 3d 83 ca be 02 e7 5c be 49 4f 92 be ea ae 3d 3e
       -0.39553252 -0.21572497 -0.28576115 0.18523756
000380 2f cc 1f be 50 f4 a1 bf 4d 15 31 bd e4 7d a8 be
       -0.15605234 -1.2652683 -0.043233205 -0.32908547
000390 d6 4f b8 be c0 50 2e bc 72 ac b2 3e 12 a5 e5 bd
       -0.3599841 -0.0106393695 0.3489719 -0.11213125
0003a0 04 ff 6c 3d 2c 7d bd bf ab 34 92 be 87 3f 92 be
       0.05786039 -1.4803824 -0.28555807 -0.28564093
0003b0 0e 29 ed 3e de 89 ce bf 3b 08 02 c0 19 52 8d be
       0.46320385 -1.6135824 -2.0317523 -0.27601698
0003c0 16 63 e1 ba b9 5c e9 3c 60 9e 8d bd d6 f9 9f bf
       -0.0017195668 0.028486596 -0.06914973 -1.2498119
0003d0 ef 1c 7f bf 4b f7 48 3e c4 fe aa bf 07 43 88 c0
       -0.99653524 0.19625585 -1.3358998 -4.258182
0003e0 61 2c a2 bf 89 62 09 bd 40 5b a6 3d 01 27 05 bf
       -1.2669793 -0.033541236 0.08122873 -0.5201264
0003f0 82 f5 d2 bf 97 a7 b6 bf 95 3b 14 be a0 cd 0c be
       -1.6481173 -1.4269894 -0.14475854 -0.13750315

encoder.2.bias f4 [128]
000000 00 b2 a8 be a9 f0 02 be 37 08 03 be 29 07 23 be
       -0.32948303 -0.12787117 -0.12796102 -0.159207
000010 69 2e 58 be 4e 3b bc bd c5 6d aa be bd 10 9b be
       -0.21111454 -0.09190999 -0.33286873 -0.30286208
000020 f6 f9 68 be 11 61 18 be f0 b5 10 be bc 57 89 bd
       -0.22751603 -0.14880778 -0.14131904 -0.06706187
000030 81 5d 84 be 01 c5 32 be 2e 5c 37 be 3a e2 85 be
       -0.25852588 -0.17457964 -0.17906258 -0.2614916
000040 ba a9 cb bc 9f 33 6e be 1a d7 34 be 82 ed 12 be
       -0.024861205 -0.2326188 -0.1766018 -0.14348415
000050 72 ab 82 be 71 b9 d8 bd 41 5d fd bd 4f 14 c7 bd
       -0.25521427 -0.10582245 -0.123713024 -0.097206704
000060 58 c7 2d be ff 43 67 bd 4b 36 3e be 3f 5a 03 be
       -0.16970575 -0.05646133 -0.18575399 -0.12827395
000070 0a 76 14 be 65 3f 8d be 64 80 56 bd e4 94 f4 bc
       -0.14498153 -0.2758743 -0.052368537 -0.029856153
000080 4e 8d d5 be 30 23 0a 3d a9 8f 86 be 26 4d 28 be
       -0.4170937 0.033724964 -0.2628148 -0.1643568
000090 7e e5 0f be 63 7a 54 bb f9 c3 9f be 5a e7 72 bd
       -0.14052388 -0.003242158 -0.31204203 -0.059302665
0000a0 16 d5 2a 3c 3b e6 34 bd f0 9a 5f be 24 4e 6b bd
       0.01042678 -0.044164877 -0.21836448 -0.057447568
0000b0 60 c9 23 be ba c5 90 be cb c5 c0 bd 2d 51 a0 be
       -0.15994787 -0.28275853 -0.09412726 -0.31311932
0000c0 39 48 8c bd af fa 07 be cd 3c 4b bd 91 d8 86 be
       -0.06849713 -0.13279222 -0.04961853 -0.26337102
0000d0 25 6d 70 3d 41 3b b2 be 5d 1c db bd dc e6 74 bd
       0.05869784 -0.34810832 -0.10698769 -0.059790477
0000e0 df 5d b7 bd 62 55 d7 bd fc 63 8e be f8 48 b1 be
       -0.08953451 -0.10514332 -0.27810657 -0.34625983
0000f0 c2 94 9f be 33 8d 2d be 23 45 77 be a9 7c 56 be
       -0.3116818 -0.16948394 -0.24147467 -0.20945992
000100 68 2c 81 bd 73 c8 a8 bd bb ea 8d be 16 fe 60 be
       -0.06307298 -0.08241358 -0.27718148 -0.21971926
000110 46 19 24 be fc d8 9c bd 68 18 e3 bd ce ed 09 3d
       -0.16025266 -0.07658574 -0.110886395 0.033674054
000120 cf f0 c3 bd fc 19 d4 be ae 19 0e be b6 a8 db be
       -0.09567415 -0.41426075 -0.13876984 -0.42902154
000130 3f 1d 11 be c3 dc e5 bd 80 15 dd bd 92 1a 85 be
       -0.14171313 -0.112237476 -0.107951164 -0.25996834
000140 4b 2e 33 be fb 45 0e bf 33 ad 1d bd f4 88 58 bd
       -0.17498128 -0.5557553 -0.038495254 -0.052864984
000150 e3 cd 2b be fa 83 c1 bd 99 9c 1c be 62 a7 eb bb
       -0.16777758 -0.09449001 -0.15294112 -0.0071915844
000160 0c 1a fe bd ac 60 09 be 4e be 00 be aa 88 52 be
       -0.12407312 -0.13415784 -0.12572595 -0.20559946
000170 a9 a7 09 be 6b 44 3f be 4d 8a 2c bd 6f bc 91 bd
       -0.13442864 -0.18678443 -0.04212408 -0.07116019
000180 5f d6 d5 bd cc 49 a4 be 7a a3 3e be d2 6c 5d be
       -0.10441279 -0.32087553 -0.18617049 -0.21623543
000190 50 98 09 be ae 10 34 be b5 e4 57 bd 9d 9c 64 be
       -0.13437009 -0.17584488 -0.052708346 -0.22325368
0001a0 64 4d 10 be 82 df 3f be c6 c7 68 bc 35 16 45 bd
       -0.14092022 -0.18737605 -0.014207786 -0.04811688
0001b0 e3 53 3d be 53 8d 3d be f8 ff d3 be c7 b8 11 be
       -0.18489031 -0.18510942 -0.41406226 -0.14230643
0001c0 aa 5e e8 bd fe f8 f3 bd 56 f5 83 be e7 66 5c be
       -0.11346181 -0.11912726 -0.25773114 -0.21523629
0001d0 ed 24 9e be cb 20 34 be ef c6 5f bd cc 84 79 be
       -0.30887547 -0.17590635 -0.054633077 -0.24367064
0001e0 31 ef 74 be bf 1f 6c bd 66 1b df bc 20 25 49 be
       -0.2391937 -0.057647463 -0.027234744 -0.19643068
0001f0 83 2d 94 bd d9 2e fb 3c c9 1e a3 be 73 33 ba be
       -0.07235243 0.030661987 -0.31859425 -0.36367378

encoder.4.bias f4 [3]
000000 44 81 92 bc 4f e8 b3 bc 4e c1 61 bb
       -0.017883904 -0.02196136 -0.0034447494

onnx::MatMul_18 f4 [280, 256]
000000 58 98 c3 3f 20 e5 c8 3d ab fd 49 3e 23 72 34 bf
       1.5280867 0.09809327 0.19725673 -0.7048666
000010 44 6f 83 3d 18 3b 04 3f ff 2f 17 3f 16 1e 31 bc
       0.064177066 0.5165267 0.5905761 -0.010810396
000020 94 52 33 bd f6 24 88 3f 9d f6 0e 3f 9f 21 82 3e
       -0.043779925 1.063628 0.5584505 0.25416276
000030 14 8f 48 be d0 e4 cf be 98 3c 56 c0 9c 46 9d bb
       -0.1958583 -0.40604258 -3.3474483 -0.004799677
000040 37 94 f3 be 03 32 a8 3e 38 7e 3e 3e ce 7f 04 bf
       -0.47574016 0.32850656 0.18602836 -0.51757514
000050 05 dc 96 be fd 84 2b be 22 c6 b2 3d 93 5f 80 bf
       -0.29464737 -0.1674995 0.08729197 -1.0029167
000060 94 2b 5e be e9 79 52 be 3b 9c dc bd b4 c0 ce bd
       -0.21696311 -0.20554318 -0.10771986 -0.10095349
000070 d6 a8 c6 3d 6c cd e1 3e d9 bb 14 be 16 49 d8 3d
       0.09700172 0.44102037 -0.14524783 0.10560815
000080 0f b8 09 3e 25 62 01 bd 1a a1 8d 3d 05 9c 17 3f
       0.13449119 -0.03158774 0.06915493 0.5922244
000090 31 bf 04 be 64 75 41 bf 08 60 92 be 41 dd 91 be
       -0.12963559 -0.7556975 -0.2858889 -0.28489116
0000a0 0b a5 80 be 65 24 12 be 40 59 49 3e 9a 29 32 3d
       -0.25125918 -0.14271696 0.19662952 0.043496706
0000b0 0d 0f c2 3b e0 29 0f be dd 88 58 3f 7d e8 c4 bc
       0.0059222043 -0.13980818 0.84583837 -0.02403664
0000c0 ad 0f 67 3e 5e 65 00 be c2 ab 19 be 71 3d 76 3c
       0.22564574 -0.12538669 -0.15006927 0.015029297
0000d0 fc 7d 08 3d 52 f2 84 3c 62 9b 5c be 39 6a c8 bd
       0.033323273 0.016228829 -0.21543649 -0.09785885
0000e0 f6 39 03 c0 87 da 90 bd da 7d c3 3d d0 59 c0 bd
       -2.0504127 -0.07072931 0.09545489 -0.093921304
0000f0 7f cd 51 be f1 9d 27 40 b9 18 ff 3d 3c 07 ea bf
       -0.20488547 2.619015 0.12455887 -1.8283458
000100 da 5d 8e 3d ae 34 c5 bc 78 25 69 be a0 62 7c bc
       0.069514945 -0.024072971 -0.227682 -0.015404373
000110 81 69 ab be dc ca a5 3e 8a ce de bb b4 f9 1c 3e
       -0.3347893 0.32381332 -0.0067995237 0.15329629
000120 c6 f3 b5 3e 5e b7 74 bc c3 d8 bf be 5f ae 87 bd
       0.35537547 -0.014936296 -0.37470064 -0.066250555
000130 08 54 6d be 29 47 65 be 73 13 15 be 76 67 96 be
       -0.23176587 -0.22390427 -0.145582 -0.2937581
000140 3a 2b 5c 3c a0 7e 40 be 8b 34 80 3d 59 62 55 3d
       0.01343804 -0.18798304 0.06260022 0.052095745
000150 5e 79 65 3e 80 9b 09 bd 6f 6b bd bd b4 29 c4 bd
       0.22409579 -0.033595562 -0.09249007 -0.09578267
000160 9c 31 e1 bd 27 cb 46 be 23 63 08 be 00 61 ed be
       -0.1099579 -0.19413434 -0.13319068 -0.46363068
000170 33 a7 b4 bd ef ca 4f 3e 08 0a 3d 3e 12 6e cf bd
       -0.08820953 0.20292257 0.18460858 -0.10128416
000180 af ee 4a 3d 42 5e be 3d 7d e7 ac 3d 4b 93 7a 3e
       0.049544033 0.09295322 0.084425904 0.2447025
000190 73 22 16 bf 0b e0 62 3d 6d ad 24 bf 14 9d 6c 3e
       -0.58646315 0.055389445 -0.64327127 0.23106796
0001a0 a8 91 26 3d a7 01 fd 3d 58 49 fc 3d 89 3b 20 be
       0.040666252 0.12353831 0.12318677 -0.15647711
0001b0 0f 92 3e 3e 57 32 0d bd d7 4d 53 be 98 f4 a1 be
       0.18610404 -0.034471836 -0.20635162 -0.31631923
0001c0 42 b6 1f bc 03 0c 31 bd 10 75 4a be 46 e2 06 bd
       -0.0097480435 -0.043224346 -0.19771218 -0.032930635
0001d0 24 e3 f5 3d bf 16 28 3f b2 b2 35 be 57 28 0a 3e
       0.12006214 0.6565971 -0.17743948 0.13491951
0001e0 97 5d 7c 3e 0b 63 ba be 3d d7 63 bd 01 a8 99 bd
       0.24645077 -0.3640369 -0.05562519 -0.07502747
0001f0 e3 e0 96 3d 03 65 80 be 69 66 75 bd c1 8c 97 3e
       0.073671125 -0.25077066 -0.05991212 0.29599574
000200 6c f6 67 bd 47 f1 30 be 2c 02 b5 3d 32 a2 0e be
       -0.05663149 -0.1727954 0.08838305 -0.1392906
000210 a5 4f ac 3e 00 c0 06 bd ad 59 9b be 8a 11 1f be
       0.33654514 -0.03289795 -0.30341855 -0.15534034
000220 60 d9 c7 bd a2 14 e8 3e 7f 90 b4 bd a7 d4 13 3c
       -0.09758258 0.45328242 -0.08816623 0.009022868
000230 8c 96 b6 3c 88 87 b8 be bd 7b bf 3d 5e e0 b5 3c
       0.022288583 -0.36040902 0.09349773 0.022201713
000240 17 57 c9 be 11 ab 92 bd b8 ff 66 bb 7e 6c e2 3e
       -0.39324257 -0.071615346 -0.0035247635 0.44223398
000250 65 a9 fb bd f4 30 ad bd 75 ba 3b 3e f9 d5 ba bd
       -0.12288169 -0.08456603 0.18332846 -0.09122843
000260 51 fd d0 bd b8 3f e8 3c 12 74 03 bc a4 1b a1 bd
       -0.10204566 0.028350696 -0.008023279 -0.078666
000270 af 75 08 c0 41 e3 05 bd 32 e0 c9 bc db 92 e9 3e
       -2.1321828 -0.03268743 -0.024643037 0.45619854
000280 bd 07 d5 3c 5e 3e 87 bd b0 13 15 3f a9 7e eb bd
       0.026004666 -0.066036925 0.58233166 -0.11498768
000290 dd 53 d6 bd 27 46 17 3e 25 ab 28 3e 5b 8a 1f be
       -0.104652144 0.14772855 0.16471536 -0.15580122
0002a0 4c 34 79 3d 26 cd a9 bd 31 54 e4 bd 33 5a 1b bf
       0.06084089 -0.08291082 -0.11148871 -0.6068451
0002b0 d1 d7 d2 bc 4c 25 45 c0 69 ed 9c 3e a2 cf f6 be
       -0.025737675 -3.0804014 0.3064988 -0.48205286
0002c0 f5 3b 49 bc 33 35 2b 3d 8e 43 2c bd 06 0d 76 3c
       -0.012282361 0.04179878 -0.042056613 0.0150177535
0002d0 50 c2 01 3e c0 0d 09 be 6f b8 1b bc 5e ff 78 40
       0.1267178 -0.13384151 -0.009504422 3.8905864
0002e0 3e 2b 8a 3e 0d b7 5e 3e 67 8f 1f be 88 56 08 bc
       0.26986116 0.21749516 -0.15582047 -0.008321412
0002f0 e6 14 ff 3d 79 4c f7 bd 0b ca 3d 3f b4 68 9e be
       0.12455158 -0.12075133 0.7413642 -0.30939257
000300 30 94 58 3e 3d 45 bc be c3 ce 36 be b8 79 a4 be
       0.21150279 -0.36771575 -0.17852311 -0.32124114
000310 cd ae 82 bd b1 1a 8f be 6f 61 41 bd 3a 0d 21 3e
       -0.06380997 -0.2795005 -0.04721206 0.15727702
000320 7a 36 6a be ef 37 94 be f5 38 a3 be ef 11 b2 3b
       -0.22872344 -0.28948924 -0.31879392 0.0054342668
000330 0b 31 86 3c 18 46 6d 3c 0b b1 70 bf c2 57 f7 3f
       0.016380807 0.014482044 -0.94020146 1.9323657
000340 ce dd c1 bd 64 b0 03 be 44 dd fa 3b d3 0c 4f 3e
       -0.09466134 -0.12860256 0.0076557714 0.20219736
000350 bb 3d a1 bf 13 ce c9 be d2 28 b2 bd 39 82 ee bc
       -1.2596964 -0.39415035 -0.08699192 -0.02911483
000360 b7 2d dc bd be 3d 3a be 00 4f 5d 3b d8 e2 60 bd
       -0.10750907 -0.18187615 0.0033769011 -0.054903835
000370 99 8d 1f 3d 29 58 fc bd 28 91 47 bf 6d 33 1d be
       0.038953397 -0.12321503 -0.77955866 -0.15351649
000380 b7 2c 0e 3e ec 9f 32 3e a9 84 07 3c 12 5c 4c be
       0.13884245 0.17443818 0.008271375 -0.19956997
000390 85 57 04 bf 91 05 47 3d 41 64 a6 3d 03 77 80 be
       -0.51696044 0.048589293 0.08124591 -0.250908
0003a0 d3 2f 48 be 57 dc 25 be 2d de 02 3d c9 f9 73 bd
       -0.19549493 -0.16197334 0.031950165 -0.059564386
0003b0 07 98 f8 3f d5 da 63 bd 97 a9 17 c0 c2 34 d4 3d
       1.9421395 -0.055628616 -2.369726 0.10361625
0003c0 b6 69 3d bd 5e 50 02 be ff c8 3f 3d dc bf ce be
       -0.046243392 -0.1272597 0.046822544 -0.40380752
0003d0 ec 0f b1 bd 5f 55 e4 bd dd c1 0c 3d 9c d0 a4 3e
       -0.08645615 -0.11149096 0.03436457 0.32190406
0003e0 eb 68 fe be 46 7a ad 3d 8a e5 e0 3e 81 0e 0b bf
       -0.4968942 0.084705874 0.43925124 -0.54319006
0003f0 0b 3c a3 3e fd 4f 72 be 52 36 99 3b f3 b3 36 3c
       0.31881747 -0.23663326 0.004675665 0.011151302

onnx::MatMul_19 f4 [256, 128]
000000 52 80 76 be 31 c4 a4 bc c7 41 d3 bb 27 18 7b bc
       -0.24072388 -0.020113083 -0.0064470503 -0.015325583
000010 3d 7f 7a bd cc a0 d5 bd e9 f1 ce 3c be 62 86 3c
       -0.0611565 -0.1043106 0.025261836 0.016404506
000020 9a 9c cd 3c 43 b6 05 be 06 3f 87 3c 4a 0e fd be
       0.025099088 -0.13057809 0.016509544 -0.49424964
000030 08 05 b9 bb bb 53 88 be 7b de 70 bb b3 8f 07 bd
       -0.0056463517 -0.2662638 -0.0036753702 -0.033096027
000040 e1 6e ce 3c 26 4f a5 3d 60 2c f0 3d b2 f3 dd bc
       0.025199356 0.08071737 0.11727214 -0.027093742
000050 bc 5d 4d be 67 5a 36 3d 6d d2 55 bc 15 46 6b 3d
       -0.20055288 0.04451981 -0.013050658 0.057439882
000060 db b5 38 bc 59 cd ac 3c 52 36 4a 3d 0b 41 38 3b
       -0.0112738265 0.021094011 0.04936821 0.002811494
000070 84 1c d3 3c 7b 61 11 3d 15 e2 58 3d 3a b6 a5 bd
       0.025770433 0.035493355 0.052949984 -0.080913976
000080 7b 4c 2a bf e8 bf e1 bc 3e 87 7e be 67 66 00 bb
       -0.6652295 -0.027557328 -0.24856278 -0.0019592287
000090 07 2f 05 bc 4d 6c 5d bc c8 9f d1 3c 57 11 54 3d
       -0.008128888 -0.01351459 0.025588885 0.05177435
0000a0 2a 95 d1 bc c6 44 32 be 69 12 0d bf 41 87 26 3c
       -0.025583822 -0.17409047 -0.55106217 0.010164083
0000b0 fd 69 d9 3b dc 8e 49 3d e1 cd 9f 3e c0 a2 49 be
       0.0066349492 0.049208507 0.3121176 -0.1969099
0000c0 94 c6 2d bb 89 48 1f bd 05 a7 fc bd e4 df 87 3d
       -0.0026516067 -0.038887534 -0.12336544 0.066345006
0000d0 ff f3 72 3b 1a 5b 0f 3e a4 ca 33 3a 89 17 04 bc
       0.0037071703 0.13999596 0.0006858504 -0.008062252
0000e0 34 4f 1f bc ee 2b 43 bb 72 24 48 be 85 29 d1 b9
       -0.009723473 -0.0029780823 -0.19545153 -0.0003989452
0000f0 82 28 e0 bc 53 77 c1 be 65 60 20 3d b6 8d 9c 3b
       -0.027363066 -0.3778635 0.03915443 0.0047776354
000100 d9 a3 13 bd 83 c5 09 be 1d a1 a7 3d ad 0e 07 be
       -0.03604493 -0.13454251 0.08185027 -0.13189192
000110 5a 24 ab 3c 6a 3a d9 3c 88 f4 3e 3d ad 69 84 bd
       0.020891357 0.026517112 0.046619922 -0.064654686
000120 17 b2 36 3c 4e b8 6f bc 08 61 92 bb fd 5d 24 bf
       0.011150858 -0.014631344 -0.0044671334 -0.64205915
000130 ca 0f 34 3c 77 52 6c 3c 2c 26 d8 3c f3 15 a0 bd
       0.0109900925 0.014423958 0.02638539 -0.078166865
000140 d1 f7 d8 3c f3 7e 04 bf d6 dc d1 3d 6c 29 79 3c
       0.026485356 -0.5175621 0.10247199 0.01520763
000150 2a f6 dc 3c 14 1e 14 3d 2a f5 fe 3c 8c ef 81 3c
       0.026972849 0.036161497 0.031122763 0.015861295
000160 31 db 9f bc a6 89 fc 3d 5e 2a 04 bd 65 90 f1 3c
       -0.019513698 0.12330942 -0.032266967 0.029487798
000170 81 e2 5f 3d dd 63 47 3d 3c c5 ac 3c 1d d3 41 bc
       0.05465937 0.04867922 0.021090142 -0.0118301185
000180 53 e5 2c 3d aa fd d0 bd 4c a9 cb 3d 3d c1 2c 3c
       0.042210888 -0.102046326 0.099444 0.0105441185
000190 63 30 0d 3b 73 d2 7b 3c 36 a3 80 bd 52 b2 2c be
       0.0021543733 0.015369999 -0.0628113 -0.16864899
0001a0 03 e7 07 be 4c c6 1f b6 33 d9 08 3c 0e b9 96 bd
       -0.13271718 -2.380827e-06 0.008352566 -0.07359515
0001b0 83 bc b1 3b af 95 8e 3b 08 29 0e bf 8c 56 1b 3d
       0.0054240837 0.00435134 -0.5553136 0.037924334
0001c0 f4 31 e9 bb 8f b4 24 bd 9f f9 55 3c 86 ce 8d be
       -0.0071165506 -0.040211257 0.013060003 -0.27696627
0001d0 dd 77 29 3b de 30 26 bb 39 a8 5b be 87 36 1b bc
       0.0025858798 -0.0025358717 -0.2145089 -0.00947345
0001e0 b8 8b e5 bc a2 e9 2e 3d b2 e3 e8 bd 8f a9 20 3d
       -0.028020725 0.04270328 -0.113715544 0.039224204
0001f0 c4 00 6f 3d c6 cb 3a be 0f 76 1c bc 74 96 1d bc
       0.05835034 -0.18241796 -0.009549632 -0.00961839
000200 24 b0 4f bd 7c 0c a3 bd 5c a3 d2 bd de 01 0b 3e
       -0.05070509 -0.079613656 -0.102850646 0.13574931
000210 15 86 2b be 78 42 70 3c 51 02 c5 3d 3b 67 62 be
       -0.16750367 0.014664285 0.096195824 -0.22109692
000220 6a 97 4f bc 4e 60 27 3d 70 ad 12 bd a6 80 58 3e
       -0.012670377 0.040863328 -0.035809934 0.21142825
000230 09 58 88 bd b2 fa 1f 3d 87 61 d5 3d e2 cb f7 bb
       -0.066574164 0.03905744 0.104189925 -0.0075621465
000240 1f 7f aa bd 50 2d b9 be 78 2b 1d bd 71 7d 7c 3e
       -0.08325028 -0.36167383 -0.038371533 0.24657227
000250 22 6e 30 be 76 fe 36 be 75 3a 51 bd f7 6c 0b be
       -0.17229512 -0.17870507 -0.05108114 -0.13615786
000260 c9 38 9f bd eb be 80 bd a7 a4 04 be 72 be 9b be
       -0.07774503 -0.06286415 -0.12953435 -0.30418736
000270 01 b1 1e bd 89 2e a8 bd 4a 1e 7a bd f5 d6 29 3e
       -0.038743023 -0.08212001 -0.061064042 0.16585906
000280 da e8 85 3d 1d a4 c1 bb 43 eb b2 bd 6b 6c 89 bd
       0.065385535 -0.0059094564 -0.08736279 -0.06710132
000290 09 e3 57 3d b0 24 96 3e 55 de cb be 06 df 38 3c
       0.052706752 0.29324865 -0.39818063 0.011283642
0002a0 c4 cb 96 3d e4 0d 0c 3e d4 b9 83 3d 2e 77 3f bd
       0.07363084 0.13677174 0.06431928 -0.046744518
0002b0 df 90 53 be 3b 3b 8b be d5 b7 c8 be 79 75 06 3e
       -0.20660733 -0.27193627 -0.39202753 0.1313075
0002c0 31 e5 86 3e 52 5c 20 be 75 52 97 bd 15 e5 01 bf
       0.26346734 -0.15660217 -0.07388774 -0.50740176
0002d0 e4 dc cb bd b8 87 b8 3e 32 2c d0 3c 8d bb f3 bd
       -0.09954241 0.36041045 0.025411699 -0.11901007
0002e0 c3 2a 87 bd 63 71 a3 3d 35 ab 8e bc 08 8c b8 3d
       -0.06599953 0.07980611 -0.017415622 0.09011084
0002f0 75 a8 7f bd 24 96 80 bd 20 a4 6a 3b 74 05 88 3c
       -0.062416513 -0.06278637 0.0035803393 0.016604163
000300 20 f5 88 bc 9a 4f da bd b6 25 52 3d 69 95 68 be
       -0.016718447 -0.10659714 0.051305495 -0.22713245
000310 95 d8 96 bd 27 d9 04 be ef 4c a0 bd 97 49 62 be
       -0.073655285 -0.12973462 -0.07827174 -0.22098385
000320 99 db e2 bd 3a c5 78 be 5b e0 64 3c cc 38 45 3e
       -0.11077041 -0.24293986 0.013969506 0.19259948
000330 ee 7a ce be b4 94 09 be 3b 27 0b be b1 da 7e bd
       -0.40328163 -0.13435632 -0.13589184 -0.06222028
000340 82 26 11 be 97 4b 0f 3e 21 78 0d bc 69 49 2e bd
       -0.14174846 0.13993679 -0.008634598 -0.042550478
000350 23 30 a5 3d 50 38 28 bd 06 1c e8 3d 67 0b 89 bd
       0.08065822 -0.04106933 0.1133347 -0.06691628
000360 8a 6c b7 bd 4b 06 8c bc bd 1b f4 3d 96 b7 dc 3c
       -0.08956249 -0.017092844 0.11919353 0.02694301
000370 59 30 43 be 79 88 88 3d ca 2c 0d bd 68 0e 02 3d
       -0.19061412 0.06666655 -0.034466542 0.03175202
000380 70 64 e0 bd 90 d2 50 be 9a 11 fe bd 8e 12 35 bd
       -0.10956657 -0.20392823 -0.12405701 -0.04420715
000390 9d bc b9 be 77 d7 60 be 29 4c cd bd 5f fc b9 be
       -0.36276713 -0.21957193 -0.10024292 -0.36325356
0003a0 be 74 dd 3d 5d 5f 7e bd 97 84 10 be ae 08 43 bd
       0.108132824 -0.062102664 -0.14113079 -0.0476157
0003b0 b0 35 81 3e 0a 91 dc bd 4e 68 d9 be 15 7d 4b be
       0.25236273 -0.107698515 -0.4246239 -0.19871934
0003c0 18 3d 9d bd 01 83 3f bc 17 31 b2 bd 1c 5e 82 bd
       -0.07677668 -0.011688949 -0.087007694 -0.06365606
0003d0 6a a6 b0 3c 2e 8b 1b be fe f0 28 bd 15 21 c2 be
       0.021563727 -0.15189812 -0.041245453 -0.37915865
0003e0 48 90 98 3d 2d 62 45 be 6e bb 93 be 1d f1 47 bd
       0.074493945 -0.19275732 -0.28853935 -0.048813928
0003f0 b0 ac b1 bd c4 c9 10 bd 26 35 ab 3d 18 3b 7a bd
       -0.08675516 -0.03534867 0.08359747 -0.061091512

onnx::MatMul_20 f4 [128, 3]
000000 b9 81 e5 bc 65 fd 41 ba ab 72 37 bb 81 4a 61 3a
       -0.028015958 -0.00074001245 -0.0027991931 0.0008594171
000010 10 b9 3e bc 92 40 a5 39 09 6f 49 bc 9f c4 a6 b9
       -0.011640802 0.0003151936 -0.012294539 -0.0003180848
000020 7d 98 00 bb f0 f9 05 3b 05 0d e9 3b df 3d 2e ba
       -0.001962214 0.0020443164 0.0071121478 -0.0006646793
000030 f9 2c 48 b9 0e 2f 3b 39 9e aa 59 bc 73 09 a9 39
       -0.0001909024 0.00017851239 -0.013285307 0.00032241232
000040 a6 e8 8d 38 12 c3 bd 3b 61 b6 f8 b9 ed 96 cc 39
       6.766738e-05 0.0057910765 -0.0004743813 0.0003902236
000050 c2 36 1e 3b 5a 70 66 ba e6 c2 20 bc bf b5 83 b8
       0.0024141525 -0.00087905454 -0.009812092 -6.2804196e-05
000060 ff 51 1b 3d ae 8b 48 3b b8 ff 04 3b 50 f2 dc bb
       0.037919994 0.0030600834 0.0020294022 -0.006742753
000070 00 8c a5 39 c5 8d 8c ba e4 bd f1 bb 26 ca 01 bd
       0.0003157556 -0.0010723403 -0.007377373 -0.031686924
000080 0e da d8 3a 9f e4 9d bc fc 89 0f bc 52 9d 81 bb
       0.0016544478 -0.019274054 -0.008760925 -0.0039555216
000090 85 cf d3 ba d9 d3 c8 39 74 1f 04 3a b0 dc cd 39
       -0.0016159868 0.00038304811 0.0005040087 0.00039265072
0000a0 ac 71 d4 39 8e fd ff bb 2c c2 7a 3c f0 5c b1 39
       0.00040520483 -0.0078122085 0.015305083 0.00033829315
0000b0 75 13 51 3a fe 81 6d bc 6a 65 8b 3c 53 56 bd bc
       0.00079756166 -0.014496325 0.017016131 -0.023112452
0000c0 24 67 fc b9 ae 6d a0 ba fd fc 89 ba 52 cf 17 bb
       -0.0004814203 -0.0012239718 -0.0010527667 -0.0023164344
0000d0 94 b4 41 bb 0d e3 c7 3b ae 9f f8 38 47 70 34 3c
       -0.0029557096 0.0061000646 0.00011855304 0.011013097
0000e0 e5 cb 9b 38 30 4d 1b ba 17 aa 35 3a 21 cd 6e 3b
       7.428954e-05 -0.00059242826 0.00069299474 0.0036438184
0000f0 5a 39 0d 3a 42 fb 14 3d af 65 02 3a 42 fc 9d 3a
       0.0005387269 0.03637243 0.00049742585 0.0012053328
000100 29 e6 7b 3a 68 e3 92 bc ec 03 13 bb 87 c8 58 bb
       0.00096091867 -0.017930701 -0.0022432758 -0.0033078508
000110 e7 32 35 3a cf 14 05 ba 75 59 21 ba 37 9a 3b bc
       0.0006912187 -0.0005076648 -0.0006154993 -0.011450342
000120 1e 49 73 3b ab 7c 8a bc 00 8f ef bb 6b b8 f5 bb
       0.0037122439 -0.01690515 -0.007310748 -0.007498791
000130 c2 7b cf 3b e7 6e da 39 80 57 8b 38 8f 81 7b 3c
       0.0063318918 0.0004166283 6.644335e-05 0.015350713
000140 2d 2e fc b9 3e e8 dd 3a 48 56 08 bb ca d3 10 3b
       -0.0004809959 0.0016930175 -0.002080338 0.0022098892
000150 30 f9 b0 3c a9 46 c6 bc 3b ae d9 3c ea b1 49 bc
       0.021603197 -0.024203615 0.026572337 -0.012310484
000160 de 0c 46 3a dc 57 00 3d 25 45 a8 ba 6e 22 42 39
       0.0007555018 0.03133379 -0.001283799 0.00018514108
000170 c5 60 e7 b9 71 bb f0 3c e4 c8 1b bc 35 eb 93 3c
       -0.00044131852 0.029386254 -0.009508345 0.018056491
000180 fb 1b 43 bc 0d d7 8b 38 6b 86 15 bc 05 15 bb b8
       -0.0119085265 6.668093e-05 -0.009126286 -8.92077e-05
000190 f3 0a f7 38 c8 eb c6 ba 91 74 1b 3d 99 6f 26 3c
       0.00011779917 -0.001517647 0.037952963 0.010158443
0001a0 a8 f5 81 3c 57 80 83 3b 1f 0c df b9 fc f4 0f bd
       0.015864208 0.004013102 -0.00042542905 -0.035145745
0001b0 73 82 48 39 bb a3 ca 3b 18 0a 00 ba b6 01 85 3b
       0.00019122082 0.006184069 -0.00048843166 0.004059042
0001c0 27 95 35 bb 4c a1 2e bc 75 3b 36 3d 9b 2b e0 38
       -0.002770731 -0.010658573 0.044490296 0.000106892745
0001d0 96 a0 a7 3c be fa a2 b7 f0 36 5f 3a 8d bb a0 3b
       0.020462316 -1.9428666e-05 0.0008514961 0.0049051703
0001e0 78 bc c4 b8 a9 e1 a4 ba cf ed ed ba 68 c1 66 bb
       -9.381113e-05 -0.0012579459 -0.0018152538 -0.0035210494
0001f0 ce f5 1d ba d4 d5 26 ba 94 80 66 3c bc b7 e9 bc
       -0.00060257025 -0.00063642603 0.014068741 -0.028529994
000200 b4 0c 19 3c ba e9 23 bb 99 dc 02 bb ee eb 48 bb
       0.009341408 -0.0025011138 -0.0019967912 -0.0030658203
000210 2a d8 cd bc ba 2f 50 3a 7b 58 61 bb 61 6d 9c 3a
       -0.02512749 0.0007941682 -0.0034385014 0.0011934453
000220 bf b0 ed 3c 5e fc 69 b9 79 25 64 3b de f0 39 39
       0.029014943 -0.00022314626 0.0034812375 0.00017732705
000230 89 25 c6 39 55 77 2a bc cc a7 4c bb 41 67 18 bb
       0.0003779347 -0.010404428 -0.0031227944 -0.0023254903
000240 b5 99 9d 3a d8 2b 34 3b 26 46 c6 3a 80 2e 90 bb
       0.0012023958 0.0027491953 0.0015127107 -0.0044000745
000250 7d 9c 86 3c 8b d7 ba bc 4c 20 93 ba 6b 9c ca 39
       0.016432041 -0.022807857 -0.0011224835 0.00038644983
000260 da b9 13 3c d8 68 a8 bc 54 e7 7c 3a 3b e2 a2 ba
       0.009016478 -0.020557806 0.00096475077 -0.0012427041
000270 bf 93 8e 39 3d ac da 39 02 b1 3b 3c ca d1 70 3c
       0.0002719443 0.00041708528 0.011455776 0.014698455
000280 c8 7f df bc df 7a 52 bb b9 25 50 bb b2 4a 4e bc
       -0.02728261 -0.0032116694 -0.0031760766 -0.012591051
000290 09 e8 68 3a c9 f8 bb ba 50 a5 3b 3a bc e1 a3 3c
       0.00088846736 -0.0014341112 0.00071581174 0.0200051
0002a0 b4 4a 97 3b a8 04 cd bb 0b 7d 9b 3c 0e 8b 61 bb
       0.0046170596 -0.0062566586 0.018980524 -0.0034415158
0002b0 85 fd f1 39 1c e3 0c 3d 66 4c f8 3c 36 5b 3e bb
       0.0004615599 0.034396276 0.030309867 -0.0029046065
0002c0 1a b7 a0 3a 07 ba 9f 39 cb 31 79 39 87 00 85 bc
       0.00122616 0.00030465444 0.0002376504 -0.016235603
0002d0 16 ac 09 3b f5 58 a4 bc df 94 92 3c 6d 5d 4e 3a
       0.0021007112 -0.02006195 0.017893253 0.0007872198
0002e0 87 e5 b5 3b 1a 4c 07 ba 23 af 1a 3c c0 36 79 bc
       0.0055510434 -0.00051611813 0.00944117 -0.015210807
0002f0 41 83 39 bc 3c 7b 2b 38 50 0b b7 ba 6e 7e 96 bb
       -0.011322797 4.0884348e-05 -0.0013965163 -0.0045927083
000300 72 94 63 39 cc f7 2c 3c 78 42 39 38 50 f3 27 3b
       0.00021703707 0.010557126 4.416934e-05 0.0025627203
000310 5b c6 8d 3a e2 d3 ba 3a 64 90 ac bc 7e cb 8a 3c
       0.0010816561 0.001425382 -0.021064945 0.016942736
000320 3c eb 95 3c 36 09 a3 bc c3 8a e9 ba 7f 3f 86 ba
       0.018300645 -0.019901853 -0.0017817843 -0.0010242312
000330 52 ba c3 38 4e 5b 67 ba 44 68 11 bc 43 e2 d1 3a
       9.3330294e-05 -0.0008825556 -0.0088749565 0.0016012866
000340 e6 1c e3 b9 01 bc 6c 3a 63 90 be ba ed 6a c1 39
       -0.00043318345 0.00090307003 -0.001453888 0.00036891495
000350 97 d3 2a bb 91 e1 a4 3b 49 34 93 bb 30 03 13 ba
       -0.0026066059 0.0050317724 -0.004492317 -0.000560808
000360 32 91 a0 bb b8 5b 38 3c 1d bc 87 bc 7c 91 6f 3c
       -0.004900121 0.011252336 -0.016569192 0.0146220885
000370 11 a8 a0 bc 25 39 a7 bc e9 40 d0 3b cd f7 70 39
       -0.01961139 -0.02041299 0.006355394 0.00022980497
000380 fe d6 9c 39 1a d9 06 bc c3 6f ac 3c 8c d7 a2 3c
       0.0002991482 -0.008230472 0.021049386 0.019878171
000390 34 78 47 bc fa 77 bf 39 d6 19 9c ba f1 be e9 bc
       -0.012174655 0.00036519748 -0.0011909555 -0.02853343
0003a0 6e 97 4d 3a e7 8c 22 bb 4e fe e3 3a 35 d1 3d 39
       0.0007842694 -0.0024803223 0.0017394514 0.0001810238
0003b0 57 54 d5 ba ec c4 21 3c e0 a0 93 bb 65 36 aa bc
       -0.0016275746 0.00987361 -0.004505262 -0.02077789
0003c0 fd 82 92 3c 38 1e ba bb 0c 48 ee 3b ea 8d 51 3c
       0.017884726 -0.005679872 0.0072717723 0.012790183
0003d0 a1 4f 35 3c 16 43 9b bc f5 b6 c8 b9 69 cb 20 3a
       0.011066348 -0.018952888 -0.00038283286 0.0006133826
0003e0 7d 64 c3 3b ed a5 54 39 11 87 6c b9 9e 49 74 bb
       0.005962907 0.00020279708 -0.0002255703 -0.0037275325
0003f0 90 cc 90 bb ba 2d 49 3a c3 82 56 3b a5 a6 a1 3c
       -0.004418917 0.00076743553 0.0032731749 0.019732783
