robot_controllers/config/pointfoot/WF_TRON1A/policy/policy.onnx (onnx, 758212 bytes, 8 tensors)

0.bias f4 [512]
0.062959716 0.05521253 0.005563623 0.090256356 -0.17153364 -0.1687785 -0.28589275 -0.13473897
0.026252387 0.091078684 0.036760885 -0.18888497 0.0811379 -0.12050403 -0.0064357123 -0.03457843
-0.0009104447 0.1710654 -0.07465432 0.18553376 0.09677149 -0.038666096 0.148903 -0.14824872
-0.14939511 0.116891205 0.12075678 -0.08450494 0.023385225 0.15021983 0.06944316 -0.22260927
0.100592606 -0.039222695 -0.14073762 -0.06293763 -0.046200007 0.12288817 0.058700297 0.15233602
0.053031046 0.114035174 0.10671601 0.018931374 0.014364265 -0.030657439 -0.041207325 0.011622014
-0.13176171 -0.12667207 -0.075615115 -0.17790423 -0.12249507 -0.06890371 -0.12577273 -0.24044517
-0.09865801 0.018928407 -0.038499698 -0.0044099693 -0.010640348 -0.020273853 -0.070455186 0.049020533
-0.18946496 0.11842225 0.17182212 0.15471032 -0.10954688 -0.22806378 -0.09675081 0.031656113
-0.016336743 0.022768594 -0.05653058 0.18468206 -0.15062472 0.095144734 0.08813066 0.079784274
-0.21892846 0.024020195 -0.0420674 -0.1622402 0.07116924 -0.011528762 -0.20769477 -0.06520643
0.09266144 -0.09200337 -0.015133494 -0.0928541 -0.113129646 -0.12161773 -0.03641519 -0.21634452
0.045766085 -0.12786308 -0.21394658 -0.090826966 -0.05618946 -0.044114295 0.05175099 -0.23409231
0.009051511 0.175827 -0.028421342 0.06179712 0.09810071 0.16003439 0.2423469 -0.124409124
-0.087456405 0.074490786 -0.1222272 0.081460334 0.17818101 0.18960486 -0.090989895 -0.064359225
-0.13167214 0.11459969 -0.24877922 0.009320318 -0.15184814 0.1952652 -0.11975201 -0.1549495
-0.09196716 0.086341955 -0.21075648 -0.0068522063 -0.0074212644 0.054413777 -0.03387691 -0.06986476
0.116490886 0.06488332 -0.11341601 0.19738363 -0.26948243 0.08502503 0.1291506 0.09221751
-0.17757902 -0.14300954 -0.27426878 -0.019000782 0.021268347 -0.2236853 0.1071327 0.009728057
0.13130714 0.03140826 0.04684958 -0.14371598 -0.026307955 -0.05607874 -0.15326512 0.19484618
-0.019160414 0.09545853 0.025794681 0.21108183 0.120464526 0.2003235 0.14201187 -0.19198385
0.03866565 0.13904068 -0.0358366 -0.13483085 0.1474406 0.01631046 0.013812973 -0.06642365
0.0070504807 -0.08666581 -0.024896981 -0.08303703 0.104205765 -0.261244 -0.09168301 -0.13325733
-0.0841369 -0.04655744 0.040005427 0.009917747 -0.11276206 -0.100169174 0.27764672 -0.07141224
0.10380479 -0.1459963 0.0034130488 0.13277961 0.1251987 -0.08407737 0.097170345 -0.18319784
-0.055955254 -0.06573138 -0.082668394 -0.2447569 0.051572952 0.09248496 -0.018413473 0.13805696
0.16981643 -0.11637217 -0.21255034 0.0049928273 0.10680839 -0.045850348 -0.22300194 0.058817398
-0.0020298867 -0.16205244 -0.10856485 0.051106952 -0.17048547 0.08953587 -0.09074769 -0.118267156
-0.060380522 -0.1316775 -0.1886807 0.034799937 -0.16146961 -0.05811247 -0.09950412 0.16204095
0.019594416 -0.11177017 0.08542291 -0.13802025 -0.2172668 0.23053661 -0.09686934 0.17738505
-0.26865506 -0.088324085 0.067537256 -0.13366586 0.11089261 -0.0023142793 -0.08210383 -0.047094
-0.24129657 0.045980137 -0.0476316 -0.21893972 -0.015969407 0.006101387 -0.033895742 0.05092996
00000000: 06f1 803d 8926 623d 0d4f b63b 53d8 b83d
00000010: 84a6 2fbe 45d4 2cbe 8960 92be 03f9 09be
00000020: 3f0f d73c 7687 ba3d 9592 163d 106b 41be
00000030: a12b a63d d1ca f6bd abe2 d2bb 1da2 0dbd
00000040: e9aa 6eba c52b 2f3e 5de4 98bd 90fc 3d3e
00000050: 2230 c63d 5760 1ebd 077a 183e 83ce 17be
00000060: 08fb 18be a864 ef3d 554f f73d ed10 adbd
00000070: 5f92 bf3c 3ad3 193e 3738 8e3d aff3 63be
00000080: 7f03 ce3d faa7 20bd 861d 10be 72e5 80bd
00000090: 383c 3dbd cbac fb3d b96f 703d f9fd 1b3e
000000a0: 1537 593d 468b e93d ec8d da3d f815 9b3c
000000b0: 1858 6b3c 4f25 fbbc 03c9 28bd 436a 3e3c
000000c0: 8bec 06be 53b6 01be 19dc 9abd 872c 36be
000000d0: b2de fabd 631d 8dbd 91ca 00be 4237 76be
000000e0: 360d cabd bf0f 9b3c dcb1 1dbd 8181 90bb
000000f0: db54 2ebc 5a15 a6bc cf4a 90bd c1c9 483d
00000100: 1a03 42be 5d87 f23d 23f2 2f3e 626c 1e3e
00000110: 1d5a e0bd 8d89 69be 4a25 c6bd d7a9 013d
00000120: a2d4 85bc 3485 ba3c 9c8c 67bd 4b1d 3d3e
00000130: 5e3d 1abe 3edb c23d d97d b43d f065 a33d
00000140: c82e 60be 00c6 c43c de4e 2cbd 4c22 26be
00000150: 2ec1 913d 22e3 3cbc f0ad 54be f38a 85bd
00000160: 48c5 bd3d 436c bcbd 79f2 77bc 4a2a bebd
00000170: 84b0 e7bd b712 f9bd 1828 15bd 6b89 5dbe
00000180: 3875 3b3d 8aee 02be d014 5bbe 7d03 babd
00000190: eb26 66bd 31b1 34bd d9f8 533d e5b5 6fbe
000001a0: ca4c 143c fe0b 343e e0d3 e8bc fa1e 7d3d
000001b0: 06e9 c83d 0ee0 233e c929 783e 36ca febd
000001c0: 581c b3bd a08e 983d 4152 fabd add4 a63d
000001d0: 1575 363e c727 423e e958 babd c5ce 83bd
000001e0: 10d5 06be 3eb3 ea3d fbbf 7ebe 3fb4 183c
000001f0: 147e 1bbe 9af3 473e 8b40 f5bd 15ab 1ebe
00000200: 4759 bcbd 0dd4 b03d 8cd0 57be 7988 e0bb
00000210: 142e f3bb fbe0 5e3d 84c2 0abd 4115 8fbd
00000220: c692 ee3d 8ce1 843d a746 e8bd ef1e 4a3e
00000230: 9af9 89be 9a21 ae3d 0e40 043e 89dc bc3d
00000240: 46d7 35be 1871 12be f56c 8cbe 87a7 9bbc
00000250: f53a ae3c c20d 65be 6468 db3d 6e62 1f3c
00000260: 6175 063e f3a5 003d 58e5 3f3d 482a 13be
00000270: c883 d7bc d2b2 65bd 88f1 1cbe c285 473e
00000280: 4df6 9cbc c37f c33d 5e4f d33c d625 583e
00000290: 1bb6 f63d 9b21 4d3e 8f6b 113e 6a97 44be
000002a0: df5f 1e3d ae60 0e3e 66c9 12bd 1911 0abe
000002b0: abfa 163e 849d 853c cf4f 623c 1f09 88bd
000002c0: b807 e73b d87d b1bd c1f4 cbbc 520f aabd
000002d0: d569 d53d c6c1 85be 4dc4 bbbd 9c74 08be
000002e0: f84f acbd 04b3 3ebd bbdc 233d 0c7e 223c
000002f0: cbef e6bd 7f25 cdbd b627 8e3e 9540 92bd
00000300: 9b97 d43d 0e80 15be 75ad 5f3b 61f7 073e
00000310: 1734 003e c230 acbd 3f01 c73d 3798 3bbe
00000320: 5631 65bd 2c9e 86bd 0c4e a9bd 8ea1 7abe
00000330: 293e 533d c168 bd3d dad7 96bc ce5e 0d3e
00000340: 5ce4 2d3e 8854 eebd cca6 59be df9a a33b
00000350: 5bbe da3d 93cd 3bbd 9f5a 64be 83ea 703d
00000360: d907 05bb 13f1 25be 4057 debd 8655 513d
00000370: be93 2ebe 955e b73d edd9 b9bd 0d36 f2bd
00000380: 9151 77bd 77d6 06be 8335 41be 618a 0e3d
00000390: 4a58 25be 5707 6ebd d1c8 cbbd 10ee 253e
000003a0: 7884 a03c c2e7 e4bd 35f2 ae3d 2e55 0dbe
000003b0: 307b 5ebe ca11 6c3e 6f63 c6bd 6da4 353e
000003c0: 288d 89be 42e3 b4bd f950 8a3d b4df 08be
000003d0: aa1b e33d 2aab 17bb 0e26 a8bd a3e5 40bd
000003e0: 7316 77be ab55 3c3d 5a19 43bd bc31 60be
000003f0: 46d2 82bc 25ee c73b 43d6 0abd ef9b 503d

2.bias f4 [256]
0.0025385153 -0.09850262 -0.07010127 -0.13303562 -0.06937406 -0.05766761 -0.00024465832 -0.050597806
-0.110972285 -0.17202343 -0.12994687 -0.039026525 -0.16648383 0.059068162 -0.0112806 -0.005706962
-0.0031752023 -0.014783885 -0.050399777 0.029708533 -0.05070662 -0.052202422 -0.10253371 -0.046271924
-0.075190276 -0.16400841 -0.077259384 -0.102474645 -0.029511102 -0.08872057 -0.17337656 -0.20995231
0.012913854 -0.098890014 0.00897701 -0.090017706 -0.06824485 -0.028427562 -0.1836395 -0.11293024
-0.019232739 -0.10749828 0.066282846 0.01790118 -0.1281693 -0.024998838 -0.10384326 -0.20712587
-0.101363726 0.0037480828 -0.08765575 -0.030293016 -0.05348194 -0.08859534 -0.03847984 -0.03907924
-0.15033004 0.04787274 -0.022794465 -0.010941741 0.011377885 -0.16989663 -0.10779914 -0.053028632
-0.0467898 -0.04128289 -0.2989611 -0.028068658 -0.05430621 -0.05073684 -0.042649314 -0.04501247
0.028766276 -0.10307667 -0.049975164 -0.06402821 -0.10357644 -0.09498069 -0.25529504 -0.06680931
-0.035881132 -0.06698401 -0.103811674 -0.11114061 -0.20953894 -0.058126 -0.20001878 -0.11438143
-0.1337606 -0.08779498 -0.05302049 0.025504958 -0.016197363 -0.20126706 -0.051600877 -0.037543308
0.009667881 -0.04621527 -0.17576125 -0.04550192 -0.08518275 -0.061566852 0.030180862 -0.2466125
-0.05209337 -0.099479176 -0.016296128 -0.2510825 -0.125767 -0.038599867 -0.10991143 -0.10010054
-0.06359241 -0.0591755 0.04186328 -0.062337022 -0.17937465 -0.028507726 -0.077705935 -0.3148757
-0.0905702 -0.109038204 0.0033626736 -0.07523356 -0.1131972 -0.12710889 -0.095104575 -0.017129472
-0.05124549 -0.03638402 -0.15244082 -0.13993114 -0.12589136 -0.19781023 -0.073052585 -0.1104203
-0.16664411 -0.06388294 0.08604403 -0.06151923 -0.1741009 -0.007927506 -0.10523155 -0.13011032
-0.24418995 -0.06767591 -0.03165383 0.020051809 -0.24863802 0.086108804 -0.12444513 -0.009207697
-0.22921057 -0.14031407 -0.23923689 -0.13507383 -0.008536958 -0.008762898 -0.2725519 -0.107911125
-0.043087114 -0.16791676 -0.20171277 -0.03341205 -0.07326014 -0.114848286 -0.059307493 -0.08324072
0.02647264 -0.007641987 -0.006570458 -0.004652918 -0.076198675 -0.06403754 -0.09688112 -0.08739577
-0.05163582 -0.08249282 0.1251976 -0.12918247 -0.02731932 -0.15975074 -0.16964781 -0.08456708
-0.13801982 -0.113399036 -0.21405667 -0.05898577 0.046326615 -0.14908274 -0.02301008 -0.13733444
0.022754023 -0.02729898 -0.11469407 -0.13569956 -0.16464688 -0.05330038 -0.20795895 -0.15523514
-0.11103559 -0.0962418 -0.04575641 -0.12837124 -0.0045021554 -0.06948206 0.0550281 0.012415148
-0.06844948 -0.10297747 -0.058572736 -0.0523907 -0.09888546 -0.100782864 -0.12410765 -0.09968174
-0.05908696 -0.122170076 -0.10311361 -0.19947197 -0.108623035 -0.18728623 -0.12091119 -0.011656094
-0.21525735 -0.03876443 -0.15971589 -0.13137586 -0.2568927 -0.015471734 -0.06834359 -0.078688264
-0.057796616 -0.0893471 0.09766716 -0.2198959 -0.12296635 -0.24134944 0.09778127 -0.09460278
-0.036176566 0.031062642 -0.17074843 -0.075370416 -0.074021325 -0.12610409 -0.13574062 -0.23344268
-0.10926995 -0.34487614 -0.09926788 -0.16533607 -0.123505875 -0.20995064 -0.14931734 -0.18372986
00000000: 385d 263b bebb c9bd 4191 8fbd 7d3a 08be
00000010: fd13 8ebd df34 6cbd 7c45 80b9 a53f 4fbd
00000020: 7045 e3bd e926 30be cb10 05be 47da 1fbd
00000030: bd7a 2abe 75f1 713d 44d2 38bc 7801 bbbb
00000040: 0e17 50bb 1c38 72bc ff6f 4ebd 4f5f f33c
00000050: bfb1 4fbd 35d2 55bd 32fd d1bd a187 3dbd
00000060: 5cfd 99bd d2f1 27be 2b3a 9ebd 3ade d1bd
00000070: 44c1 f1bc 21b3 b5bd a089 31be bdfd 56be
00000080: a194 533c d986 cabd 4f14 133c 345b b8bd
00000090: f5c3 8bbd ebe0 e8bc fe0b 3cbe f847 e7bd
000000a0: fa8d 9dbc 0f28 dcbd 4dbf 873d 7fa5 923c
000000b0: d03e 03be 5dca ccbc c6ab d4bd ce18 54be
000000c0: c997 cfbd 65a2 753b dc84 b3bd 0f29 f8bc
000000d0: e10f 5bbd 7971 b5bd 099d 1dbd 8e11 20bd
000000e0: 1ef0 19be 3516 443d 75bb babc fd44 33bc
000000f0: 4f6a 3a3c 62f9 2dbe ccc5 dcbd 8d34 59bd
00000100: a9a6 3fbd 3f18 29bd 6e11 99be 3ef0 e5bc
00000110: 3070 5ebd 6fd1 4fbd 0cb1 2ebd ff5e 38bd
00000120: 41a7 eb3c dc19 d3bd c2b2 4cbd 3921 83bd
00000130: e21f d4bd 3c85 c2bd 08b6 82be 52d3 88bd
00000140: 18f8 12bd ea2e 89bd 379b d4bd b09d e3bd
00000150: 6091 56be 8715 6ebd b9d1 4cbe d040 eabd
00000160: 8af8 08be dbcd b3bd 032c 59bd c6ef d03c
00000170: 55b0 84bc f418 4ebe 715b 53bd 03c7 19bd
00000180: 0866 1e3c 394c 3dbd c2fa 33be 3960 3abd
00000190: 4b74 aebd 862d 7cbd db3d f73c fd87 7cbe
000001a0: dc5f 55bd bdbb cbbd 757f 85bc e38d 80be
000001b0: 10c9 00be e51a 1ebd 3e19 e1bd 8301 cdbd
000001c0: bd3c 82bd 0262 72bd d578 2b3d 1b55 7fbd
000001d0: fdad 37be 0989 e9bc 4a24 9fbd 6337 a1be
000001e0: de7c b9bd 6c4f dfbd 4d60 5c3b 0d14 9abd
000001f0: efd3 e7bd d528 02be 30c6 c2bd 1b53 8cbc
00000200: cae6 51bd 6907 15bd 7219 1cbe 1c4a 0fbe
00000210: aae9 00be c48e 4abe 989c 95bd 0a24 e2bd
00000220: c1a4 2abe 0fd5 82bd da37 b03d 97fb 7bbd
00000230: 8247 32be 5fe2 01bc a483 d7bd a43b 05be
00000240: ee0c 7abe ab99 8abd 72a7 01bd b143 a43c
00000250: f79a 7ebe d059 b03d 17dd febd e1db 16bc
00000260: 2db6 6abe 7eae 0fbe 84fa 74be cb50 0abe
00000270: 99de 0bbc 4292 0fbc ec8b 8bbe 8200 ddbd
00000280: 1d7c 30bd 5ff2 2bbe cb8d 4ebe 13db 08bd
00000290: 6a09 96bd 9435 ebbd 6aec 72bd 1c7a aabd
000002a0: 26dd d83c a269 fabb ff4c d7bb 8177 98bb
000002b0: 0d0e 9cbd 1d26 83bd 9c69 c6bd 8efc b2bd
000002c0: 1580 53bd fff1 a8bd cd33 003e 6948 04be
000002d0: c4cc dfbc b395 23be 28b8 2dbe 8131 adbd
000002e0: 1155 0dbe c13d e8bd ac31 5bbe 109b 71bd
000002f0: fac0 3d3d 25a9 18be a37f bcbc 66a1 0cbe
00000300: a566 ba3c 1ca2 dfbc b9e4 eabd d3f4 0abe
00000310: 3199 28be 8051 5abd 31f3 54be f6f5 1ebe
00000320: a166 e3bd 6c1a c5bd 136b 3bbd c073 03be
00000330: d186 93bb 9c4c 8ebd 2565 613d e868 4b3c
00000340: 3e2f 8cbd dae5 d2bd f7e9 6fbd a197 56bd
00000350: 7684 cabd 3f67 cebd 272c febd f125 ccbd
00000360: 2b05 72bd 4e34 fabd 3a2d d3bd 6142 4cbe
00000370: c175 debd f6c7 3fbe 49a0 f7bd 34f9 3ebc
00000380: 6c6c 5cbe 73c7 1ebd 908c 23be 6587 06be
00000390: 7187 83be 287d 7dbc b9f7 8bbd 5027 a1bd
000003a0: 25bc 6cbd 9dfb b6bd b805 c83d 642c 61be
000003b0: c8d5 fbbd 4f24 77be 8c41 c83d 1abf c1bd
000003c0: e12d 14bd 1577 fe3c add8 2ebe ce5b 9abd
000003d0: 7e98 97bd 6e21 01be 97ff 0abe 990b 6fbe
000003e0: ecc8 dfbd 9b93 b0be f54c cbbd dc4d 29be
000003f0: a6f0 fcbd 4dfd 56be a5e6 18be ae23 3cbe

4.bias f4 [128]
0.04944146 -0.06258983 -0.08317031 -0.11539077 -0.014172495 -0.06459082 -0.11297852 -0.036681153
-0.02256548 0.0084360475 0.003867142 -0.04822036 -0.07103912 -0.053729672 -0.047461912 -0.12532385
0.049749672 -0.02193445 -0.07339744 -0.0938388 -0.21826899 -0.078596726 -0.033291146 0.11573307
-0.038497224 -0.09753616 -0.06619747 -0.02298419 0.03303955 -0.039184436 0.011926914 -0.01823342
-0.13008875 0.03831975 -0.0006548011 0.022075104 -0.12773694 -0.1329799 -0.09899184 -0.06365023
-0.15177532 -0.01108703 -0.09979131 -0.06732047 -0.08053383 -0.06299642 -0.00109153 -0.09807581
-0.01075454 -0.06727499 -0.08767161 -0.006484386 0.019753166 -0.09126089 0.07467382 -0.07240485
-0.033047333 0.008162596 -0.024908295 -0.017368292 0.01363932 -0.05096919 -0.0063496 -0.044926193
-0.19626209 0.01657708 -0.046587724 0.01116753 -0.004306502 -0.05626257 -0.04267831 -0.07982022
-0.0141107105 -0.07730469 -0.031089056 -0.053263735 -0.10219679 -0.11614496 -0.004967425 -0.11800278
-0.020675294 -0.0827307 -0.028411902 -0.068318896 -0.23797265 -0.2729854 -0.058197055 -0.043310117
-0.08145329 -0.06838945 -0.09860697 -0.08174876 -0.06291653 -0.087623596 -0.05325555 -0.015876578
-0.0039087906 -0.07382882 -0.066840775 -0.08619399 -0.057225004 -0.03514931 -0.004139687 -0.19012122
-0.16957654 -0.10500671 -0.12591091 -0.048699882 -0.050977934 -0.06246391 0.05600289 -0.036500968
-0.12524153 -0.04598281 -0.14819607 -0.07001125 -0.04892961 -0.083994925 -0.06441271 -0.022671562
-0.068369664 0.0018990228 -0.10666963 0.007932228 -0.023184514 -0.020525366 -0.045112215 -0.1031093
00000000: 2183 4a3d 192f 80bd 3255 aabd ff51 ecbd
00000010: c133 68bc 3148 84bd 4861 e7bd fa3e 16bd
00000020: 3edb b8bc 5937 0a3c e06f 7d3b b682 45bd
00000030: f57c 91bd a513 5cbd 6c67 42bd e554 00be
00000040: 50c6 4b3d e0af b3bc 6651 96bd 8f2e c0bd
00000050: e881 5fbe 52f7 a0bd 4c5c 08bd 7605 ed3d
00000060: 44af 1dbd 0ac1 c7bd 8a92 87bd 5749 bcbc
00000070: 7b54 073d dc7f 20bd 1a69 433c 415e 95bc
00000080: fc35 05be 2cf5 1c3d f5a6 2bba d9d6 b43c
00000090: 79cd 02be e22b 08be 3cbc cabd 0d5b 82bd
000000a0: fd6a 1bbe 60a6 35bc 635f ccbd 51df 89bd
000000b0: ecee a4bd 4404 81bd ab11 8fba f8db c8bd
000000c0: cf33 30bc 78c7 89bd 2c8d b3bd f97a d4bb
000000d0: 64d1 a13c fde6 babd 96ee 983d fe48 94bd
000000e0: a45c 07bd 69bc 053c 7b0c ccbc f347 8ebc
000000f0: 7477 5f3c 12c5 50bd 4e10 d0bb 8704 38bd
00000100: eef8 48be a8cc 873c c5d2 3ebd 04f8 363c
00000110: 8f1d 8dbb 9573 66bd 74cf 2ebd c978 a3bd
00000120: 9c30 67bc ec51 9ebd 7aae febc 132b 5abd
00000130: 8d4c d1bd 69dd edbd c8c5 a2bb 71ab f1bd
00000140: 3c5f a9bc b76e a9bd 14c0 e8bc c7ea 8bbd
00000150: 1aaf 73be bec4 8bbe 0960 6ebd f365 31bd
00000160: fcd0 a6bd c50f 8cbd 73f2 c9bd e56b a7bd
00000170: 62da 80bd 0074 b3bd 7e22 5abd 990f 82bc
00000180: 5015 80bb 9033 97bd d1e3 88bd 7a86 b0bd
00000190: c464 6abd b9f8 0fbd 36a6 87bb 23af 42be
000001a0: 79a5 2dbe c20d d7bd caee 00be 8779 47bd
000001b0: 3dce 50bd 28da 7fbd 4963 653d 0a82 15bd
000001c0: 513f 00be 7958 3cbd b6c0 17be 0f62 8fbd
000001d0: 6a6a 48bd 8805 acbd d0ea 83bd b6b9 b9bc
000001e0: 6505 8cbd a2e8 f83a 9b75 dabd 2df6 013c
000001f0: 73ed bdbc d024 a8bc 96c7 38bd f82a d3bd

6.bias f4 [8]
0.16978611 -0.059618562 -0.011680245 0.030487372 0.07076682 0.045226194 0.022176309 -0.11185868
00000000: 69dc 2d3e 9832 74bd 805e 3fbc a7c0 f93c
00000010: 32ee 903d 1a3f 393d 17ab b53c 2a16 e5bd

onnx::MatMul_24 f4 [34, 512]
0.31502467 0.0069493568 0.1988508 0.060877513 -0.05017812 -0.012012889 0.008194063 -0.16697948
0.17272387 -0.20256142 0.08478262 -0.23849589 0.12382404 -0.07980871 0.16171896 -0.0048350133
-0.012457833 -0.13525617 0.092725076 -0.082527325 0.16219407 -0.17795497 0.1618246 0.22993448
-0.014850122 0.049088262 -0.08299992 -0.21524312 0.080971226 0.109883234 0.06923461 -0.31668273
0.050430145 -0.0009123041 -0.06792628 0.010416019 -0.014598959 -0.00671691 0.2600781 0.14519869
-0.17016499 0.2177499 -0.16272587 0.15643094 -0.075228006 0.023129307 0.123533 -0.0055289315
-0.07914613 0.13631722 0.27903754 0.18371798 -0.06894136 -0.11037678 0.09759077 0.054494098
-0.14047563 0.0062926095 -0.027586488 0.10339456 0.110185385 -0.094090775 0.23814194 -0.11010421
-0.11247117 -0.17236033 0.02540903 -0.10513537 0.197622 -0.11059619 0.06749713 -0.011476612
-0.064122975 0.02710368 -0.17307243 0.15980606 0.068040766 0.049009398 -0.0064949817 0.06442005
-0.15732594 -0.068123884 0.004580652 -0.0057814023 -0.048043936 -0.048044126 -0.05279513 -0.037336018
0.20363711 0.16719814 -0.05526226 0.15094502 -0.24340285 0.010897122 -0.0510434 0.09517392
0.16499114 -0.21724078 0.25207794 -0.009484516 -0.077251494 -0.21952942 -0.008812757 -0.06776617
-0.1293868 0.0783519 -0.23172072 0.1356351 -0.114529915 -0.011073997 0.08588749 0.10249886
-0.030158821 0.18714465 0.16326763 -0.052554592 -0.14349443 -0.113687545 -0.004067537 0.08986038
-0.047554888 -0.081748165 -0.008052058 0.2010289 -0.08543659 0.054426167 -0.0186092 -0.28547698
-0.013539057 0.1286937 0.27239516 -0.055871535 -0.026625536 -0.10054413 0.18539901 -0.0383384
-0.22945991 -0.009951097 0.0052711996 0.06034047 -0.193943 0.08052389 -0.023209453 0.06729499
-0.018463738 0.051801547 -0.035609927 -0.023092788 0.12712897 -0.09425614 -0.05097687 0.05941048
-0.15453865 -0.11888866 0.01398922 -0.22585782 -0.107879795 0.13855127 0.044742875 0.109846674
0.19401734 0.26047483 -0.02124164 0.084499955 -0.2471644 0.20391344 -0.038818203 -0.060342714
-0.3499943 -0.1663054 0.02820619 0.23293132 -0.13556711 -0.33354366 -0.15192112 -0.14864488
0.085225135 0.03902493 0.100085214 0.12473515 -0.06542923 -0.07447584 -0.3399506 0.25950643
0.16953103 0.058558192 -0.12954393 -0.062077906 0.15681021 -0.059514575 0.13253613 -0.26443174
-0.019857256 0.061907955 0.12789237 -0.009757835 -0.14760475 -0.08177293 0.12695931 -0.18761659
-0.028152358 0.017450368 -0.07045326 -0.22209588 -0.0359099 -0.006815868 0.14486043 0.063155234
0.0030739473 0.0039161528 0.06422216 -0.019632699 -0.20572466 0.050134823 0.11974073 -0.06579872
0.21322386 -0.2061165 -0.022527145 -0.007820676 -0.13669762 -0.043078635 0.053552885 -0.0006526268
0.051450267 -0.15549083 0.16596715 -0.00956 -0.14250173 0.06005065 0.17453958 -0.13536228
-0.042749826 0.03580524 -0.04854417 0.03283627 -0.23152563 0.21338078 -0.10507534 -0.10682031
0.044551767 0.025968939 -0.0075654974 0.16373214 -0.101772584 0.10570318 -0.10209773 -0.09028842
0.10562831 0.1511965 0.011375796 0.028798956 -0.08045872 -0.035276856 -0.18989587 -0.122998856
00000000: ea4a a13e 6eb7 e33b 8b9f 4b3e b35a 793d
00000010: 9387 4dbd b5d1 44bc 6440 063c abfc 2abe
00000020: 87de 303e 436c 4fbe 83a2 ad3d 4438 74be
00000030: 7597 fd3d c072 a3bd a899 253e 086f 9ebb
00000040: f01b 4cbc 9880 0abe a5e6 bd3d 1604 a9bd
00000050: 3416 263e d439 36be 59b5 253e f273 6b3e
00000060: ed4d 73bc c610 493d ddfb a9bd b168 5cbe
00000070: 3ed4 a53d 760a e13d e0ca 8d3d 3d24 a2be
00000080: d78f 4e3d b127 6fba ef1c 8bbd f3a7 2a3c
00000090: 7930 6fbc 8619 dcbb f528 853e f7ae 143e
000000a0: bb3f 2ebe d4f9 5e3e 9ca1 26be 6f2f 203e
000000b0: 2411 9abd ac79 bd3c dffe fc3d 0a2c b5bb
000000c0: 5e17 a2bd be96 0b3e 02de 8e3e 9120 3c3e
000000d0: 2131 8dbd 390d e2bd abdd c73d 3435 5f3d
000000e0: d8d8 0fbe 3c32 ce3b 0ffd e1bc 87c0 d33d
000000f0: e0a8 e13d aab2 c0bd 7bdb 733e 517e e1bd
00000100: 4957 e6bd 3a7f 30be 9926 d03c 3651 d7bd
00000110: 6c5d 4a3e 4180 e2bd ef3b 8a3d 6608 3cbc
00000120: e852 83bd 8908 de3c e639 31be 33a4 233e
00000130: f558 8b3d 14be 483d dbd3 d4bb a9ee 833d
00000140: 0d1a 21be 8984 8bbd 4b19 963b eb71 bdbb
00000150: b8c9 44bd ebc9 44bd b53f 58bd a7ed 18bd
00000160: 3f86 503e fd35 2b3e ae5a 62bd 5591 1a3e
00000170: 993e 79be d889 323c e212 51bd 8bea c23d
00000180: 70f3 283e 5e74 5ebe 5c10 813e f264 1bbc
00000190: 0836 9ebd 52cc 60be 6263 10bc fdc8 8abd
000001a0: f97d 04be f676 a03d 3248 6dbe ede3 0a3e
000001b0: a98e eabd b66f 35bc c8e5 af3d ecea d13d
000001c0: a20f f7bc d9a2 3f3e a12f 273e 7c43 57bd
000001d0: 34f0 12be 04d5 e8bd f948 85bb b808 b83d
000001e0: eac8 42bd 956b a7bd c7ec 03bc 85da 4d3e
000001f0: 61f9 aebd f9ed 5e3d 5272 98bc 0a2a 92be
00000200: ecd2 5dbc 48c8 033e 6177 8b3e 8dd9 64bd
00000210: cc1d dabc 15ea cdbd 3dd9 3d3e ba08 1dbd
00000220: 8af7 6abe ed09 23bc 07ba ac3b 9227 773d
00000230: fe98 46be b6e9 a43d c021 bebc f5d1 893d
00000240: 4441 97bc dc2d 543d b7db 11bd 162d bdbc
00000250: 192e 023e 5d09 c1bd 1fcd 50bd 6758 733d
00000260: 613f 1ebe e67b f3bd 0b33 653c 4647 67be
00000270: 15f0 dcbd 62e0 0d3e 4e44 373d 4bf7 e03d
00000280: 7bac 463e f55c 853e f302 aebc 500e ad3d
00000290: aa18 7dbe afce 503e d6ff 1ebd ec29 77bd
000002a0: 7432 b3be f64b 2abe ab10 e73c 8c85 6e3e
000002b0: 1bd2 0abe 3cc6 aabe 3691 1bbe 5d36 18be
000002c0: 848a ae3d 9bd8 1f3d 7af9 cc3d 2475 ff3d
000002d0: c3ff 85bd ca86 98bd 010e aebe 07de 843e
000002e0: 8b99 2d3e b7da 6f3d 2aa7 04be 6745 7ebd
000002f0: db92 203e 8ec5 73bd 8db7 073e 9963 87be
00000300: afab a2bc 3293 7d3d 38f6 023e 54df 1fbc
00000310: b325 17be 9178 a7bd 9f01 023e 901e 40be
00000320: c69f e6bc 13f4 8e3c cc49 90bd 1a6d 63be
00000330: 4216 13bd a557 dfbb 4b56 143e 8857 813d
00000340: 4774 493b 1253 803b e886 833d c1d4 a0bc
00000350: 7ca9 52be 2c5a 4d3d a13a f53d 7bc1 86bd
00000360: 5b57 5a3e 3410 53be d98a b8bc 4b22 00bc
00000370: 76fa 0bbe 3973 30bd 455a 5b3d 0b15 2bba
00000380: 84bd 523d fd38 1fbe 4bf3 293e 8ca1 1cbc
00000390: f9eb 11be acf7 753d 81ba 323e 699c 0abe
000003a0: 711a 2fbd 84a8 123d 40d6 46bd 537f 063d
000003b0: 0e15 6dbe 7e80 5a3e bd31 d7bd 9bc4 dabd
000003c0: ea7b 363d d0bc d43c fee7 f7bb 66a9 273e
000003d0: 256e d0bd e97a d83d 9d18 d1bd 23e9 b8bd
000003e0: a853 d83d 41d3 1a3e 8c61 3a3c caeb eb3c
000003f0: 8bc7 a4bd 777e 10bd 1074 42be d3e6 fbbd

onnx::MatMul_25 f4 [512, 256]
0.025438076 0.08155239 -0.21053812 -0.066038325 -0.01852079 -0.057860736 -0.12936008 -0.032521077
-0.15393563 0.08259088 -0.10333111 0.041297708 -0.0022511343 -0.011655511 0.28482106 -0.04884457
0.009728151 0.12182752 -0.03922326 0.029213909 0.06623246 0.04582172 0.059937302 -0.016952518
0.13394447 -0.060164917 0.12940492 -0.07927832 0.046641238 0.024059314 0.19432275 -0.11316624
0.02217056 -0.026613528 0.07152338 0.023662288 0.114940464 -0.012314296 -0.096095614 -0.043659423
-0.02853595 -0.011544662 0.04347126 -0.023403902 0.07309564 0.10958517 0.15267369 0.04391794
-0.13804086 0.027194202 -0.034652635 0.014983761 -0.08404917 -0.031929 -0.092491396 -0.0013109653
-0.16962282 0.019055089 0.2158811 0.0057592355 -0.091995895 0.023537835 0.00077896344 -0.11887547
-0.16304295 -0.098477826 -0.019413523 -0.01662802 -0.06634958 0.084019415 0.12285306 -0.07820782
-0.028407326 0.044546627 0.004696667 -0.044683743 0.0005157799 0.1384119 0.08145805 0.13891003
0.044688325 -0.07003694 -0.042024966 0.036242962 -0.0012259034 -0.05652966 -0.06100904 -0.029259855
0.08990079 0.0456162 0.07331617 0.08037695 0.057066686 -0.049940377 0.10646163 -0.05756108
0.049175747 0.06464226 -0.062464263 -0.053051315 -0.010117284 0.11514928 0.10565278 -0.010075917
0.040343184 -0.04591137 0.07989738 0.01603515 -0.02390273 -0.04577168 0.025618002 -0.0036225312
-0.038526244 -0.042850316 0.07764741 0.011411287 0.004920706 -0.0989557 -0.15225463 -0.15198039
-0.033139482 -0.08087048 -0.015530393 0.033538673 0.035617243 0.15471022 -0.00419235 0.16240168
0.22174652 0.019889705 0.09317807 -0.19532584 -0.03202429 0.03164687 0.008108395 -0.11399743
-0.010245036 -0.012998766 0.17026354 -0.035086915 0.015589969 -0.009345063 -0.043621562 -0.038348716
0.034576662 -0.15136845 -0.00585954 -0.106651306 0.088539295 0.07467907 -0.054758027 -0.06900581
-0.06484435 0.04268517 0.11289367 -0.07041069 -0.015795827 0.173885 -0.030717598 0.042306762
0.13385424 -0.09223726 -0.035281535 0.10430229 0.0054154485 0.12427949 -0.12697814 -0.008742362
0.0842643 -0.0014419078 0.06172867 0.09909075 -0.04269038 0.04966374 0.3239585 -0.06333932
-0.027911756 -0.0017374443 -0.09255112 -0.003042869 0.00053489173 -0.04859877 0.0018036491 0.070961915
0.033756025 -0.038613565 0.021839552 0.06266174 0.05749981 -0.044472743 0.059550527 0.08901901
0.0253663 -0.038638633 0.01832202 0.0004532062 0.11458764 0.0053207246 0.018996693 0.14298968
0.006709044 0.06871036 0.09520753 0.005929035 -0.10439844 0.13936801 -0.05212442 0.010386453
0.13217331 0.34467748 -0.17625368 -0.068585776 0.040392138 -0.10157006 0.026903044 -0.008100327
0.01810784 0.06913311 -0.0480829 0.033234194 -0.052120354 0.17716363 -0.18560386 -0.06303485
0.25155208 0.017200178 -0.012612324 0.037721563 -0.17426781 0.14192955 -0.017432788 -0.014691822
0.029937094 0.052472733 -0.032340966 0.056043357 0.018619591 0.011943056 0.13764708 0.09047721
0.071899556 -0.08353277 0.14725342 -0.0044668377 -0.051377106 0.0045833136 0.12179692 0.052563448
0.016962249 0.06072843 0.013514434 -0.029441886 -0.07692582 -0.093877584 0.23785515 -0.030975578
00000000: 8363 d03c f004 a73d 4e97 57be 1a3f 87bd
00000010: e9b8 97bc 61ff 6cbd f876 04be d234 05bd
00000020: 4da1 1dbe 6825 a93d 439f d3bd c927 293d
00000030: c487 13bb c2f6 3ebc 11d4 913e 3e11 48bd
00000040: d362 1f3c b580 f93d 92a8 20bd 0252 ef3c
00000050: e2a4 873d 8eaf 3b3d d180 753d 02e0 8abc
00000060: bd28 093e 7d6f 76bd b982 043e ac5c a2bd
00000070: e20a 3f3d 0a18 c53c 8bfc 463e b4c3 e7bd
00000080: 099f b53c 9d04 dabc da7a 923d 6ad7 c13c
00000090: e865 eb3d e7c1 49bc c7cd c4bd 39d4 32bd
000000a0: 3ac4 e9bc d225 3dbc ec0e 323d 8ab9 bfbc
000000b0: 2bb3 953d 316e e03d 7e56 1c3e 4ce3 333d
000000c0: 955a 0dbe 60c6 de3c ecef 0dbd 737e 753c
000000d0: f921 acbd fcc7 02bd 216c bdbd b2d4 abba
000000e0: 9bb1 2dbe 6b19 9c3c ef0f 5d3e f8b7 bc3b
000000f0: 5868 bcbd 6bd2 c03c 5a33 4c3a fb74 f3bd
00000100: bbf4 26be beae c9bd 1c09 9fbc 7c37 88bc
00000110: 4ae2 87bd 5f12 ac3d 639a fb3d 6c2b a0bd
00000120: 7bb6 e8bc 8676 363d 80e6 993b 4d06 37bd
00000130: 6735 073a d9bb 0d3e 7ad3 a63d 6e3e 0e3e
00000140: 1b0b 373d 876f 8fbd 5f22 2cbd 8073 143d
00000150: 7eae a0ba a58b 67bd 9de4 79bd 5db2 efbc
00000160: e81d b83d 0dd8 3a3d ca26 963d ac9c a43d
00000170: c2be 693d 488e 4cbd 8e08 da3d 2bc5 6bbd
00000180: 826c 493d 2963 843d 87da 7fbd 564c 59bd
00000190: f7c2 25bc 63d3 eb3d 7c60 d83d 7515 25bc
000001a0: e53e 253d 900d 3cbd 3da1 a33d 265c 833c
000001b0: a8cf c3bc 167b 3bbd d8dc d13c fd67 6dbb
000001c0: b2cd 1dbd d083 2fbd 9b05 9f3d 68f6 3a3c
000001d0: e03d a13b 49a9 cabd a3e8 1bbe bfa0 1bbe
000001e0: 44bd 07bd 6c9f a5bd 3173 7ebc d95f 093d
000001f0: 63e3 113d 5b6c 1e3e fb5f 89bb a04c 263e
00000200: 8511 633e bcef a23c 25d4 be3d 7f03 48be
00000210: e72b 03bd 26a0 013d 13d9 043c 7c77 e9bd
00000220: ccda 27bc c7f8 54bc 9159 2e3e 4cb7 0fbd
00000230: 126d 7f3c 091c 19bc 86ac 32bd 8b13 1dbd
00000240: 42a0 0d3d 5500 1bbe 6201 c0bb 006c dabd
00000250: 1754 b53d 57f1 983d f449 60bd eb52 8dbd
00000260: 1dcd 84bd a5d6 2e3d cc34 e73d 7b33 90bd
00000270: 4066 81bc e90e 323e 79a3 fbbc db49 2d3d
00000280: 1611 093e e3e6 bcbd 5f83 10bd 709c d53d
00000290: 1374 b13b 3f86 fe3d 8f06 02be 203c 0fbc
000002a0: c392 ac3d 66fe bcba 34d7 7c3d 17f0 ca3d
000002b0: 1cdc 2ebd 356c 4b3d e3dd a53e 0cb8 81bd
000002c0: 32a7 e4bc f5ba e3ba 718b bdbd df6a 47bb
000002d0: fa37 0c3a 810f 47bd 6c68 ec3a 7b54 913d
000002e0: c243 0a3d 4229 1ebd dce8 b23c cc54 803d
000002f0: ec84 6b3d 0d29 36bd 41eb 733d 994f b63d
00000300: fdcc cf3c 8b43 1ebd 1018 963c 4e9c ed39
00000310: edac ea3d 7959 ae3b f49e 9b3c e36b 123e
00000320: 8ad7 db3b 04b8 8c3d 2afc c23d 5a48 c23b
00000330: d9ce d5bd 7db6 0e3e 6a80 55bd f12b 2a3c
00000340: 7158 073e 9179 b03e d87b 34be b376 8cbd
00000350: 3a72 253d f703 d0bd c663 dc3c 3cb7 04bc
00000360: e556 943c a995 8d3d 93f2 44bd 9420 083d
00000370: 277c 55bd 626a 353e f00e 3ebe 6a18 81bd
00000380: 6fcb 803e 63e7 8c3c eca3 4ebc ed81 1a3d
00000390: 4373 32be fb55 113e 35cf 8ebc f8b5 70bc
000003a0: a33e f53c a6ed 563d f677 04bd b88d 653d
000003b0: 1d88 983c cfac 433c 5bf3 0c3e 1e4c b93d
000003c0: 1340 933d 3b13 abbd 9ac9 163e 8d5e 92bb
000003d0: cd70 52bd 9f2f 963b aa70 f93d c54c 573d
000003e0: 6af4 8a3c 60be 783d a56b 5d3c 1c30 f1bc
000003f0: 498b 9dbd e442 c0bd 4d90 733e 7fc0 fdbc

onnx::MatMul_26 f4 [256, 128]
-0.11608552 0.0472806 0.004087958 0.051417723 -0.093902044 -0.031652257 0.05694156 -0.03242848
-0.017464574 -0.13111326 -0.15180586 -0.037249006 0.1067777 0.21627972 0.081600316 0.014246387
0.09347484 0.07213365 0.06733154 -0.054520342 -0.117178105 -0.15512274 0.06959034 -0.041589938
0.081722625 0.05275569 -0.0029168054 -0.21192205 0.039412472 -0.037668444 0.033649392 -0.009297657
0.02651907 0.08345148 -0.005252841 -0.17046057 0.20656575 0.090108104 0.093252204 -0.046737313
-0.08836604 -0.06886293 -0.03665972 -0.027576061 -0.0030380506 -0.10610342 -0.1725443 -0.038928714
-0.128831 -0.09497296 -0.12338125 0.019861246 0.00015367451 0.027842857 0.094229676 0.0033248893
-0.020133074 -0.019079598 5.836261e-05 0.04948383 0.25066853 0.042990744 0.114589445 -0.14489226
-0.2693559 -0.0889305 0.0062914155 0.10950362 0.0158266 -0.16591264 0.0917448 -0.0062529407
-0.07711714 -0.20381111 0.21398734 -0.10368979 0.022428697 -0.16328797 0.050021738 0.037987676
0.05752223 -0.06662259 -0.0859853 0.023195662 -0.0013790963 -0.0042682583 0.047431223 -0.05008645
0.052152213 -0.032073967 -0.17901516 -0.043215804 0.14699744 -0.018502431 0.019164123 0.021931337
-0.063625835 -0.052961715 -0.0534074 -0.1630266 0.01620832 0.10342065 -0.07481677 -0.092410885
0.08494141 -0.041048653 0.08919579 -0.023443135 -0.04981252 0.17787889 -0.018387346 -0.079695135
-0.03673805 0.07365038 -0.14171322 0.06650587 -0.10444773 0.06745044 -0.013000534 -0.0033800695
0.16282474 0.027070293 0.015903724 0.015459024 -0.110617146 -0.017886259 0.007842536 -0.12113201
0.07530593 0.033336893 -0.06995512 -0.06592548 0.020964729 0.060554452 0.11525994 0.031007847
0.023528298 0.022414435 -0.05155481 0.15300126 -0.0138048595 -0.053166494 -0.042701785 0.050000146
0.07535329 -0.0059692184 -0.19695339 0.09025829 -0.04518338 -0.03231669 0.078113176 -0.08583392
-0.029554632 -0.021709196 0.06013963 -0.080148466 0.07545733 -0.11895909 -0.010308223 -0.034765396
0.25319457 0.019559763 0.064504474 0.10475975 -0.004118968 -0.14667225 -0.17216845 0.018496009
-0.100150205 0.08988004 0.0472404 -0.08679065 -0.09132312 -0.04403965 -0.0647091 0.1272381
0.102638885 0.121745154 -0.0034114392 -0.022145808 0.008656175 -0.2441569 0.0010328039 -0.07091564
0.0441186 -0.061813768 -0.14869568 0.16109496 0.005785411 0.08759455 0.039709784 0.03150553
-0.10432623 -0.079787895 0.12561212 -0.011400071 0.007846974 0.035975315 0.0050004646 -0.040937196
0.05175995 0.013285141 -0.10415466 0.0037843632 0.053810958 -0.061578006 -0.04043918 -0.121741876
-0.09140534 0.08749034 0.03996693 0.0054735476 0.00687775 0.028368523 0.054901466 -0.1636047
-0.005171447 -0.055575587 -0.10881892 -0.09157021 0.03068526 0.1142514 0.035198964 0.04563558
0.09439381 0.11216226 -0.01389218 -0.060837157 -0.091559015 0.023173388 0.02569809 0.0693336
0.12285113 -0.062261596 -0.04374743 -0.19044103 -0.27312756 0.019542402 -0.064722106 0.019573918
0.036008954 -0.0006080794 0.18366478 -0.014020253 0.007351005 0.024251934 -0.016674189 0.11188945
-0.11608781 0.04456428 -0.116903454 0.038275547 0.16651522 0.0057576625 -0.025977166 0.0892591
00000000: 3fbe edbd 4da9 413d 47f4 853b 649b 523d
00000010: b74f c0bd cca5 01bd 8e3b 693d bad3 04bd
00000020: de11 8fbc 8e42 06be ff72 1bbe 6a92 18bd
00000030: 44ae da3d 6e78 5d3e 111e a73d ae69 693c
00000040: bd6f bf3d cfba 933d 1ee5 893d b950 5fbd
00000050: 13fb efbd 7fd8 1ebe 6185 8e3d 365a 2abd
00000060: 315e a73d 5a16 583d e027 3fbb 1802 59be
00000070: f96e 213d 3a4a 1abd f2d3 093d 3355 18bc
00000080: 853e d93c 9ce8 aa3d 0620 acbb 378d 2ebe
00000090: f985 533e 998a b83d 03fb be3d a06f 3fbd
000000a0: 41f9 b4bd 0208 8dbd 8128 16bd 31e7 e1bc
000000b0: 081a 47bb c04c d9bd 74af 30be b773 1fbd
000000c0: 46ec 03be 2f81 c2bd 4faf fcbd 0db4 a23c
000000d0: b023 2139 b416 e43c 7dfb c03d 63e6 593b
000000e0: 1eee a4bc d14c 9cbc 60ca 7438 8eaf 4a3d
000000f0: a057 803e 1017 303d dfad ea3d a35e 14be
00000100: 04e9 89be 3221 b6bd 3828 ce3b 6f43 e03d
00000110: c9a6 813c 01e5 29be b3e4 bb3d 78e5 ccbb
00000120: 97ef 9dbd dcb3 50be 7f1f 5b3e 505b d4bd
00000130: 63bc b73c f634 27be 98e3 4c3d f798 1b3d
00000140: 6e9c 6b3d 6d71 88bd 1019 b0bd d404 be3c
00000150: cbc2 b4ba bfdc 8bbb 3e47 423d 7327 4dbd
00000160: 8f9d 553d fe5f 03bd c04f 37be 0e03 31bd
00000170: 7f86 163e 6992 97bc 14fe 9c3c 59a9 b33c
00000180: 434e 82bd 62ee 58bd b8c1 5abd 72f0 26be
00000190: 50c7 843c 35ce d33d 8939 99bd eb41 bdbd
000001a0: c3f5 ad3d a222 28bd 48ac b63d d10b c0bc
000001b0: 3708 4cbd e225 363e 0fa1 96bc 3437 a3bd
000001c0: a37a 16bd 03d6 963d 451d 11be 3b34 883d
000001d0: b1e8 d5bd 7523 8a3d 3100 55bc 2884 5dbb
000001e0: 87bb 263e 85c2 dd3c 8748 823c d947 7d3c
000001f0: 3e8b e2bd 3486 92bc fb7d 003c 0f14 f8bd
00000200: ff39 9a3d 448c 083d a144 8fbd f003 87bd
00000210: 39be ab3c f207 783d 670d ec3d 2b04 fe3c
00000220: 6bbe c03c 7a9e b73c 232b 53bd 5dac 1c3e
00000230: c72d 62bc 1cc5 59bd 11e8 2ebd f4cc 4c3d
00000240: d352 9a3d 6f99 c3bb 26ae 49be 57d9 b83d
00000250: 3512 39bd 815e 04bd cdf9 9f3d b2c9 afbd
00000260: 8e1c f2bc 7cd7 b1bc f954 763d e124 a4bd
00000270: 5f89 9a3d d3a0 f3bd d2e3 28bc 2966 0ebd
00000280: b8a2 813e cc3b a03c ec1a 843d 488c d63d
00000290: 68f8 86bb 4031 16be ed4c 30be f184 973c
000002a0: 8d1b cdbd 0713 b83d 267f 413d 4cbf b1bd
000002b0: 9e07 bbbd ec62 34bd 3486 84bd b44a 023e
000002c0: 5634 d23d 8655 f93d 7492 5fbb 206b b5bc
000002d0: a1d2 0d3c 4404 7abe 265f 873a 383c 91bd
000002e0: b5b5 343d 6f30 7dbd ae43 18be 14f6 243e
000002f0: 8c93 bd3b c564 b33d baa6 223d f10b 013d
00000300: fea8 d5bd d667 a3bd 77a0 003e 5dc7 3abc
00000310: 9890 003c da5a 133d f0da a33b c3ad 27bd
00000320: 3e02 543d eca9 593c 0a4f d5bd 1403 783b
00000330: e168 5c3d 3839 7cbd 8ea3 25bd ce53 f9bd
00000340: b932 bbbd 232e b33d 5db4 233d 725b b33b
00000350: c05e e13b 1b65 e83c 5ce0 603d fe87 27be
00000360: 3e75 a9bb 3aa3 63bd 74dc debd 2a89 bbbd
00000370: a85f fb3c a3fc e93d ca2c 103d 60ec 3a3d
00000380: 8b51 c13d 54b5 e53d 079c 63bc 6230 79bd
00000390: 4b83 bbbd 1ed6 bd3c cd84 d23c c6fe 8d3d
000003a0: 6099 fb3d 0406 7fbd 8130 33bd f902 43be
000003b0: 60d7 8bbe 6317 a03c 068d 84bd 7b59 a03c
000003c0: 207e 133d 8567 1fba 9f12 3c3e 34b5 65bc
000003d0: b3e0 f03b feab c63c 4f98 88bc 4c26 e53d
000003e0: 72bf edbd 0989 363d 146b efbd d2c6 1c3d
000003f0: f782 2a3e c6aa bc3b 11ce d4bc 7acd b63d

onnx::MatMul_27 f4 [128, 8]
-0.012134743 0.018378573 -0.031876456 -0.14510365 -0.02376167 0.024758963 -0.0032491863 -0.19532022
0.06898589 0.045127824 -0.059503153 0.025134943 -0.020228129 -0.0009607907 -0.075793095 0.17963232
-0.076224625 0.0237747 -0.011935591 0.0022539333 -0.02478041 -0.029357757 -0.030166538 -0.10720597
-0.039649535 0.03854053 -0.085435115 0.057922162 -0.0068714926 -0.06361382 -0.04640784 0.022578608
0.013292185 0.010669891 -0.031192556 0.2227123 -0.017214024 0.004816043 0.006278049 -0.076158926
-0.024667224 -0.0026693344 -0.0931418 -0.09569778 0.03162628 0.0036960298 -0.0066486797 -0.11581264
-0.068370484 0.0414722 0.072934635 0.20288014 0.020279534 0.00020813734 0.086577505 0.16787308
0.0052902214 -0.006747784 -0.011574956 0.17166658 -0.014951502 0.0024365224 0.03910518 0.090925306
-0.01054114 -0.019737724 0.030822929 -0.010356523 0.0075600506 -0.06018288 0.112368375 0.06577712
-0.0031551681 0.0002204527 -0.006899388 -0.11752636 -0.0306955 0.016361684 0.012980036 -0.17210889
0.0131199425 0.02960034 0.0035271407 0.18289593 -0.003754141 -0.053499036 0.0109976055 0.008131482
-0.034890566 0.06217458 0.10380064 0.013818119 0.02405572 0.08624589 0.0007844113 0.033833895
-0.043538097 -0.00044349945 0.05840528 -0.013633193 -0.007998351 -0.019096114 -0.030249862 -0.2138259
0.015295571 -0.07998055 0.06341978 -0.16707638 0.028851707 0.002508636 -0.051724292 -0.11920568
-0.016178297 0.0018980602 0.010484463 -0.13518126 0.010971098 -0.038396366 0.013765505 -0.052411225
0.04076595 -0.0052119317 -0.11020031 0.09325278 -0.03368063 -0.021378066 -0.016882276 -0.018430747
0.014781572 0.04858087 0.006145013 -0.13204326 0.04861157 0.0014572483 0.006333018 -0.16357136
0.012557041 -0.0039436384 -0.0162934 -0.23155831 -0.001257132 -0.013996994 0.017860869 -0.07838611
-0.07626694 -0.022308674 0.06271315 0.056058954 -0.07357992 0.06335525 -0.046030678 0.037537858
0.03874413 0.04441037 -0.011439008 0.0022732662 0.015428445 -0.02248617 -0.15192781 0.094624326
0.0037928657 -0.03299777 -0.0706736 0.037416708 0.091534205 0.04149687 -0.005287275 -0.023384742
0.023087509 0.03325891 -0.059311662 -0.009347429 -0.09314255 0.02458759 0.11229446 -0.097083814
0.015319226 0.004740702 0.0014220255 0.09714387 -0.0312875 0.028184643 3.7202924e-05 -0.14984255
0.028326744 0.012079073 0.13007593 0.09951261 -0.035159796 -0.030076277 -0.08406134 -0.11082006
-0.046666242 -0.024504932 0.074012905 0.09867117 0.030803721 -0.039328918 0.010733201 0.17219125
-0.012004177 -0.0011669091 0.09895342 0.052249543 -0.052025687 -0.00631529 0.043546606 -0.15935944
-0.011443902 -0.05751682 0.058289513 -0.016306404 0.03419772 0.017289262 -0.1110068 0.024597548
-0.00094494154 -0.011333097 0.056875654 0.1575187 -0.055623576 -0.026794825 -0.09961401 -0.022591991
0.02162969 0.006973003 0.019781604 -0.15909469 0.01947204 -0.010211685 0.008885787 -0.16280155
-0.0053006317 -0.016304426 0.0024773777 0.16848092 0.00018548561 0.015107341 0.010404032 0.013946798
-0.023589782 -0.008523241 -0.024979549 0.033933964 0.0011584111 -0.005755911 -0.030549647 0.26260892
0.079605766 0.00668791 -0.009857115 0.004098937 -0.013850834 -0.0022539522 0.07338343 -0.16259597
00000000: cdd0 46bc a98e 963c e390 02bd 0d96 14be
00000010: d5a7 c2bc 4fd3 ca3c 4df0 54bb 0602 48be
00000020: 7948 8d3d f4d7 383d 94b9 73bd cce7 cd3c
00000030: 76b5 a5bc 93dd 7bba 6939 9bbd 89f1 373e
00000040: a81b 9cbd 29c3 c23c 7f8d 43bc bab6 133b
00000050: 4900 cbbc ae7f f0bc d11f f7bc ce8e dbbd
00000060: 8d67 22bd addc 1d3d 9bf8 aebd ca3f 6d3d
00000070: 422a e1bb f647 82bd 2616 3ebd c6f6 b83c
00000080: 77c7 593c c4d0 2e3c 8887 ffbc b10e 643e
00000090: 6d04 8dbc e6cf 9d3b 18b8 cd3b 36f9 9bbd
000000a0: eb12 cabc 00f0 2ebb 21c1 bebd 33fd c3bd
000000b0: 8f8a 013d 1739 723b 2bdd d9bb 2d2f edbd
000000c0: d305 8cbd c1de 293d c15e 953d d0bf 4f3e
000000d0: 4421 a63c 713f 5a39 8c4f b13d ece6 2b3e
000000e0: 9859 ad3b 841c ddbb e2a4 3dbc 5dc9 2f3e
000000f0: 25f7 74bc 10ae 1f3b c12c 203d 0c37 ba3d
00000100: bfb4 2cbc 02b1 a1bc 5e80 fc3c 68ae 29bc
00000110: 4dba f73b 5382 76bd 6421 e63d 28b6 863d
00000120: f0c6 4ebb 5229 6739 4314 e2bb a9b1 f0bd
00000130: 2175 fbbc f008 863c 38aa 543c 503d 30be
00000140: 07f5 563c 6a7c f23c 9a27 673b 1249 3b3e
00000150: 0908 76bb ce21 5bbd 4d2f 343c e839 053c
00000160: 69e9 0ebd c6aa 7e3d 6e95 d43d 6465 623c
00000170: 8010 c53c afa1 b03d f4a0 4d3a 6995 0a3d
00000180: 0155 32bd 7d85 e8b9 603a 6f3d c25d 5fbc
00000190: 840b 03bc 746f 9cbc 8fce f7bc 2df5 5abe
000001a0: 469a 7a3c d8cc a3bd 3be2 813d 1216 2bbe
000001b0: 6a5a ec3c ee67 243b dadc 53bd 1c22 f4bd
000001c0: 5988 84bc 55c8 f83a 06c7 2b3c f56c 0abe
000001d0: 1fc0 333c 8245 1dbd b688 613c 27ad 56bd
000001e0: 32fa 263d dac8 aabb b3b0 e1bd 50fb be3d
000001f0: b3f4 09bd 0e21 afbc b34c 8abc 14fc 96bc
00000200: 682e 723c bcfc 463d 1b5c c93b 5936 07be
00000210: ed1c 473d 2401 bf3a 3585 cf3b 407f 27be
00000220: 0cbc 4d3c a339 81bb bd79 85bc 9f1d 6dbe
00000230: 5ac6 a4ba a653 65bc f550 923c e688 a0bd
00000240: d731 9cbd aec0 b6bc c16f 803d 139e 653d
00000250: 12b1 96bd 66c0 813d aa8a 3cbd 4cc1 193d
00000260: 2ab2 1e3d a6e7 353d ad6a 3bbc 14fb 143b
00000270: 97c7 7c3c eb34 b8bc f792 1bbe 66ca c13d
00000280: ba91 783b ab28 07bd 52bd 90bd 4342 193d
00000290: 4976 bb3d 9ff8 293d e140 adbb 5c91 bfbc
000002a0: 0422 bd3c 7f3a 083d c9f0 72bd f525 19bc
000002b0: 85c1 bebd ea6b c93c a3fa e53d e1d3 c6bd
000002c0: 7efd 7a3c e457 9b3b 4263 ba3a 5ef3 c63d
000002d0: 5227 00bd 7be3 e63c 560a 1c38 5370 19be
000002e0: 7d0d e83c 4ee7 453c a032 053e 44cd cb3d
000002f0: b803 10bd 8662 f6bc 5a28 acbd a1f5 e2bd
00000300: 1a25 3fbd 91be c8bc 1494 973d 1c14 ca3d
00000310: 1658 fc3c 5c17 21bd 4fda 2f3c e752 303e
00000320: 2bad 44bc f9f2 98ba 17a8 ca3d 9e03 563d
00000330: e318 55bd 7ef0 cebb ed5d 323d 1f2f 23be
00000340: 347f 3bbc c296 6bbd fcc0 6e3d 0295 85bc
00000350: e912 0c3d 36a2 8d3c 8857 e3bd cc80 c93c
00000360: f4b5 77ba 74ae 39bc 72f6 683d 954c 213e
00000370: 8cd5 63bd d280 dbbc 6e02 ccbd d712 b9bc
00000380: bf30 b13c ca7d e43b 080d a23c b8e9 22be
00000390: d483 9f3c e94e 27bc b195 113c 73b5 26be
000003a0: ecb0 adbb dc90 85bc 805b 223b 4386 2c3e
000003b0: ea7e 4239 c884 773c ac75 2a3c 1c81 643c
000003c0: 5c3f c1bc 10a5 0bbc e9a1 ccbc 57fe 0a3d
000003d0: d4d5 973a 159c bcbb 4143 fabc ad74 863e
000003e0: 5908 a33d 4126 db3b bd7f 21bc 6050 863b
000003f0: 9cee 62bc 0bb7 13bb 0d4a 963d 8f7f 26be
