robot_controllers/config/pointfoot/SF_TRON1A/policy/encoder.onnx (onnx, 341144 bytes, 6 tensors)

encoder.0.bias f4 [256]
0	0xbf1a7da1	-0.60347944
1	0xbc19f456	-0.009396633
2	0xbf9ea0be	-1.2392805
3	0xba16aa3e	-0.0005747414
4	0xc0073114	-2.1123705
5	0xbe496b86	-0.19669923
6	0x3e7b052d	0.24513693
7	0xbd2453b2	-0.04011888
8	0x3b932008	0.0044899024
9	0xbe0195d0	-0.12654805
10	0xbd2e1a87	-0.042505767
11	0x3e01128a	0.12604728
12	0xbdb910f6	-0.09036438
13	0xbdab7383	-0.083716415
14	0xbd2bcca0	-0.041943192
15	0xbe83f032	-0.25769192
16	0xbdbff2fd	-0.09372518
17	0xbe56ad6a	-0.2096459
18	0xbda1ee19	-0.07906742
19	0xc00230c9	-2.0342276
20	0x3e1a8425	0.15089472
21	0xbe1dd50e	-0.15413305
22	0xbbe31a0f	-0.0069305967
23	0xbdd7b39d	-0.105323054
24	0xbf1251fe	-0.5715636
25	0xbf2364ba	-0.6382557
26	0xc0313250	-2.7686958
27	0xbd903886	-0.07042031
28	0xbdf8b683	-0.12144186
29	0xbd68d824	-0.056846753
30	0xbe800bfb	-0.2500914
31	0xbeab35fc	-0.33439624
32	0xbc271b98	-0.01019945
33	0xbd49d551	-0.0492757
34	0xbecf8481	-0.4053078
35	0xbe03bd99	-0.12865295
36	0x3e14b570	0.14522338
37	0xbd251066	-0.040298842
38	0xbe906a1d	-0.28205958
39	0x3e00337a	0.12519637
40	0xbf0cb9b0	-0.54970837
41	0x3f4c3410	0.7976694
42	0xc00cde0a	-2.2010522
43	0xbe10ed41	-0.14153005
44	0x3b357f97	0.0027694458
45	0xbe05b6e2	-0.13058046
46	0xbe850039	-0.25976732
47	0xbd3215ee	-0.043477945
48	0xbde27679	-0.11057753
49	0x3d8255fb	0.06364056
50	0x3cd287fd	0.02569961
51	0xbc9e322b	-0.019311031
52	0x3d803391	0.062598355
53	0xbc627350	-0.013821438
54	0xbea57dff	-0.3232269
55	0xbe04323e	-0.12909791
56	0x3d23bd44	0.03997542
57	0xbd96d8b3	-0.07365551
58	0xbd83b856	-0.06431644
59	0x3e6148c0	0.22000408
60	0xbd9bcf64	-0.07607916
61	0xbe0d62f8	-0.13807285
62	0xbe0c7322	-0.13715795
63	0xbdbb4416	-0.09143846
64	0xbe487022	-0.19574025
65	0xbe6c141d	-0.23054548
66	0x3c6028fa	0.013681645
67	0xbd0dee27	-0.034650948
68	0xbe347e35	-0.17626269
69	0xbe2b655f	-0.16737889
70	0xbd1fa60c	-0.038976714
71	0xbe51a63d	-0.20473571
72	0xbe49af97	-0.19695888
73	0xbe233427	-0.15937863
74	0xbd1cc9a9	-0.038278256
75	0xbe9a0b64	-0.30086815
76	0xbe4d3dc6	-0.20043096
77	0x3db421d3	0.08795514
78	0xbdbb928c	-0.09158811
79	0xbf266dbe	-0.65011203
80	0xbd73e403	-0.05954362
81	0xbfa227b2	-1.2668364
82	0xbdb18ac7	-0.08669048
83	0xbe08c09d	-0.13354726
84	0x3ea8c941	0.32966045
85	0x3c8b319e	0.016991433
86	0xbe5d23c9	-0.21595682
87	0x3e16c730	0.14724422
88	0xbf6034bc	-0.87580466
89	0x3c219a50	0.009863451
90	0xbdfccc26	-0.12343626
91	0xbe728bf6	-0.23686203
92	0xbde8467c	-0.11341569
93	0xbc247e77	-0.010039917
94	0x3d3f6fad	0.04673736
95	0x3d65ae77	0.056074586
96	0xbc488b60	-0.012240261
97	0xbe390ab9	-0.18070497
98	0xbe326762	-0.1742225
99	0xbe88fad2	-0.2675386
100	0xbdbfd6c3	-0.093671344
101	0xbcea9989	-0.028637664
102	0xbe33e100	-0.175663
103	0x3de3f05a	0.11129828
104	0xbf91e079	-1.1396629
105	0x3e5de703	0.21670155
106	0xbe907a6d	-0.28218403
107	0xbf3487da	-0.70519793
108	0xbd9352ec	-0.071935505
109	0xbd234cd7	-0.039868202
110	0xbe8d4c6f	-0.27597377
111	0x3c29d6f1	0.010366187
112	0xbe0c92f2	-0.1372793
113	0xbef815bf	-0.4845409
114	0x3e159abd	0.14609809
115	0xbe34aa21	-0.17643024
116	0xbe7ec1ea	-0.2487866
117	0xbe06694c	-0.13126105
118	0x3d986898	0.07441825
119	0xbcfa69d1	-0.030568035
120	0x3d3a63af	0.045505222
121	0xbe015621	-0.12630512
122	0xbe64a4a4	-0.2232843
123	0x3d8ddb51	0.06926597
124	0xbe52ad75	-0.20573981
125	0x3d0e402c	0.034729168
126	0xbe5a7c8c	-0.21336573
127	0xbd6cabf2	-0.057781167
128	0xbd8c5caf	-0.068536155
129	0xbe37351e	-0.17891356
130	0xbf9eec78	-1.2415915
131	0xbf33a116	-0.7016767
132	0xbf6efcde	-0.93354595
133	0xbe4041f9	-0.18775167
134	0xbfd7c625	-1.6857344
135	0xbe73ef14	-0.2382167
136	0xbe155a27	-0.14585172
137	0xbea6b016	-0.32556218
138	0x3d2be996	0.04197081
139	0x3cf6acbe	0.030111667
140	0xbe8908c7	-0.2676451
141	0xbda6d142	-0.081453815
142	0xbe6f6749	-0.23379244
143	0xbd698a07	-0.0570164
144	0xbe96064f	-0.29301688
145	0xbd485e9e	-0.04891836
146	0xbe6dee9b	-0.23235552
147	0xc01d4064	-2.457055
148	0x3e8cbff8	0.2749021
149	0xbedcaa12	-0.43098503
150	0xbebfcc3e	-0.37460512
151	0x3d8b017b	0.06787392
152	0xbed8ff9d	-0.42382517
153	0x3dd386bd	0.10328434
154	0xbed089c0	-0.40730095
155	0x3e0e79e1	0.1391368
156	0xc00015c1	-2.0013278
157	0xbe27d21d	-0.16388746
158	0xbde44ca8	-0.111474335
159	0xbd6dc5e2	-0.058050044
160	0xbe26df4d	-0.1629612
161	0xbc0804bc	-0.00830191
162	0xbe817ae5	-0.25289074
163	0xbd9bf9c2	-0.07615997
164	0xbd910016	-0.070800945
165	0xbd069339	-0.032855246
166	0xbd5e1b53	-0.054225277
167	0xbdeb20fd	-0.114809014
168	0xbdb656cf	-0.08903276
169	0xbe15a52c	-0.1461379
170	0xbe2f22b3	-0.1710308
171	0xbdfbb975	-0.122912325
172	0xc02573ea	-2.5851998
173	0xbd3287d9	-0.043586586
174	0x3b1f25be	0.002428397
175	0xbc9bb4f3	-0.019007182
176	0xbebce575	-0.36893812
177	0xbe964f3c	-0.29357326
178	0xbd236ad3	-0.039896797
179	0x3c83b976	0.016079646
180	0xbdda0845	-0.106461085
181	0xbdad8e08	-0.08474356
182	0xbcfe697a	-0.031056155
183	0x3ce911b4	0.028450824
184	0x3cb750ad	0.022377336
185	0xbe2b1e8a	-0.16710868
186	0xbeb502c5	-0.35353675
187	0xbcd52449	-0.026018279
188	0xbe6d269b	-0.23159258
189	0x3ec6179c	0.38689888
190	0xbd3d282a	-0.04618088
191	0xbe4804ea	-0.19533125
192	0x3c3a01aa	0.011352936
193	0xbdb0f17b	-0.08639809
194	0x3d884c16	0.06655137
195	0xbe30e8b8	-0.17276275
196	0xbe2837d9	-0.16427554
197	0xbe2a466c	-0.16628426
198	0xbdce02e2	-0.100591436
199	0x3d5c9a44	0.053858057
200	0xbd5432b5	-0.05180617
201	0xbce21e33	-0.02760229
202	0xbc39067d	-0.011293051
203	0xbe8befba	-0.27331334
204	0xbfb3f4ad	-1.4059044
205	0xbe0c3c30	-0.13694835
206	0x3bc69d34	0.0060612205
207	0x3e682ca3	0.22673278
208	0xbe8cacf2	-0.27475697
209	0xbd95f6cb	-0.07322463
210	0xbe19817a	-0.14990798
211	0xbdba11b1	-0.090854056
212	0xbf230593	-0.6368038
213	0xbd7c6973	-0.061624
214	0x3d35043a	0.044193484
215	0xbe405012	-0.18780544
216	0xbe820cc6	-0.2540037
217	0xbdd6fc67	-0.10497361
218	0xbe5ead49	-0.2174579
219	0x3e53be4b	0.2067806
220	0x3d8fa6e6	0.07014255
221	0xbf0b2be9	-0.54363877
222	0xbea7fe9b	-0.32811436
223	0x3d8f6f99	0.070037074
224	0xbcae2863	-0.021259492
225	0xbe917894	-0.28412306
226	0xbe6a53a9	-0.22883476
227	0xb987d1c1	-0.00025905485
228	0x3e51007c	0.20410341
229	0xbe3849f1	-0.17996956
230	0xbc0a6d9b	-0.008448984
231	0xbf911951	-1.1335851
232	0xbbd2ecb7	-0.00643691
233	0xbec0a79e	-0.37627882
234	0xbc911364	-0.017709441
235	0x3d9e7721	0.07737566
236	0xbf8127ca	-1.0090268
237	0xbc488098	-0.01223769
238	0xbe3be1b9	-0.18347825
239	0x3d788ad3	0.060679268
240	0xbd7006e0	-0.058600307
241	0xbdd09810	-0.101852536
242	0xbed39a5c	-0.41328704
243	0xbe4e016f	-0.20117734
244	0xbd9251ce	-0.07144509
245	0xbd63b752	-0.05559475
246	0xbe20b4a6	-0.15693912
247	0xbedb1c00	-0.427948
248	0x3ed7ab6c	0.42122972
249	0x3e3b6e4f	0.18303798
250	0xbde65ad9	-0.112477966
251	0xbecc2c03	-0.39877328
252	0xbe67ebf8	-0.22648609
253	0xbec0d0a8	-0.37659192
254	0xbf22aec5	-0.6354793
255	0xbe7f0e9e	-0.2490792

encoder.2.bias f4 [128]
0	0xbde53270	-0.11191261
1	0x3cbadddb	0.022810867
2	0x3d036df8	0.032087296
3	0xbdf8807c	-0.121338814
4	0x3d2eeeff	0.042708393
5	0xbfe5e9ee	-1.7962015
6	0xbd56d796	-0.052451693
7	0xbcc7e2da	-0.024400163
8	0xbfaa01e7	-1.328183
9	0xbf9847a2	-1.1896861
10	0xbd308b5e	-0.04310166
11	0xbdc12cd1	-0.09432376
12	0xbdb65d42	-0.08904506
13	0x3d8c8cc0	0.068627834
14	0xbe0ab25f	-0.13544606
15	0x3c87a129	0.01655634
16	0xbddf7b0c	-0.10912141
17	0x3d64915f	0.0558027
18	0xbcc84a74	-0.024449565
19	0xbe0f8d84	-0.14018828
20	0xbc58c8e8	-0.0132314935
21	0x3cc580e5	0.024109313
22	0xbd47d19a	-0.048783876
23	0xc07576c2	-3.8353734
24	0xbd87fc08	-0.06639868
25	0xbd56f9c9	-0.052484307
26	0xbc841333	-0.016122436
27	0x3e203417	0.1564487
28	0xbd1d9cec	-0.03847973
29	0xbc10a637	-0.008828691
30	0xbd152a85	-0.036417503
31	0xbd039f40	-0.032134295
32	0xc0488cc6	-3.1335921
33	0x3ddd0952	0.10792793
34	0x3d4b86af	0.04968899
35	0xbde0d17a	-0.109774545
36	0xbf1e570a	-0.6185156
37	0x3d54eec0	0.051985502
38	0xc019d773	-2.403775
39	0xbf62010e	-0.8828286
40	0xbdffe50b	-0.12494858
41	0x3b29e73b	0.0025925178
42	0xbe475deb	-0.1946942
43	0x3ceca5ae	0.028887596
44	0xbcdfff2b	-0.027343353
45	0xc0813874	-4.0381413
46	0x3cee4266	0.029084396
47	0xbf3ef210	-0.7458811
48	0xbdb613f6	-0.08890526
49	0xc07dd07f	-3.9658506
50	0xbfc3dac5	-1.5301138
51	0xbfc51ade	-1.5398824
52	0x3cc95012	0.024574313
53	0x3d39bf70	0.045348585
54	0xbbd4d7be	-0.006495445
55	0xbeb0d351	-0.34536222
56	0xbfd5f708	-1.6716013
57	0xbe34e711	-0.1766627
58	0xbd753687	-0.059866454
59	0xbe57a455	-0.21058781
60	0x3c362b96	0.01111879
61	0xbb9e008c	-0.0048218425
62	0xbebe8669	-0.37211922
63	0xbfe300d4	-1.7734628
64	0x3d3c316a	0.045945562
65	0xbd3de936	-0.046364985
66	0xbfe559ab	-1.791799
67	0x3d965375	0.07340137
68	0xbdc25aac	-0.094899505
69	0xbd225e64	-0.0396408
70	0xbe95f8ee	-0.2929148
71	0xb989b8f1	-0.00026268468
72	0x3d80b2f5	0.06284133
73	0xbc643136	-0.013927748
74	0x3e246f6a	0.16058126
75	0xbe0f32d2	-0.1398423
76	0xbfc4117c	-1.5317836
77	0xbf86f30f	-1.0542926
78	0x3d7ebdb5	0.062192637
79	0x3d648137	0.05578729
80	0xc0087d62	-2.1326528
81	0xbcbff07a	-0.023430098
82	0xbea31a47	-0.31855986
83	0xbc372461	-0.011178107
84	0xbe166489	-0.14686789
85	0xbbe1df2c	-0.0068930592
86	0x3ce45e62	0.027877036
87	0xbdaaeb3b	-0.08345648
88	0xbcf0d579	-0.029398667
89	0xbd4a86aa	-0.049444832
90	0x3bd04cc1	0.006356806
91	0x3c3dfe34	0.011596251
92	0xbd1d8667	-0.038458254
93	0xc005f67d	-2.0931695
94	0xbd287815	-0.041130144
95	0xbd889acc	-0.0667015
96	0xbdd9bf12	-0.10632147
97	0xbf909b89	-1.1297466
98	0xbd53796f	-0.05162948
99	0xbfb16823	-1.3859905
100	0x3ca37549	0.019953387
101	0xbd69d69a	-0.057089426
102	0x3d5daba0	0.054118752
103	0xc0404783	-3.0043647
104	0xbfc94d63	-1.5726742
105	0xb9fe8488	-0.000485454
106	0xbee84237	-0.45363018
107	0xc012f133	-2.2959716
108	0xbc80d6d2	-0.015727434
109	0xbd0a3271	-0.03373951
110	0xbd7e9d99	-0.062162016
111	0xbcaad91f	-0.020855485
112	0xbf875577	-1.0572957
113	0x3d26617b	0.04062031
114	0xbe84747f	-0.2587013
115	0xc00129ee	-2.0181842
116	0xbdb34c83	-0.08754828
117	0xbfcbd3c5	-1.5924002
118	0xbfed020a	-1.8516247
119	0xbdbfbc26	-0.09362058
120	0xbe1ae0bd	-0.15124793
121	0xbdb279eb	-0.0871466
122	0xbceda3e4	-0.029008813
123	0x3cb40323	0.021974152
124	0xbfb370da	-1.4018815
125	0x3d34bfd5	0.044128258
126	0xbd695867	-0.056969073
127	0x3dc156c7	0.094403796

encoder.4.bias f4 [3]
0	0x3cf14416	0.029451411
1	0xbd993534	-0.07480851
2	0x3d58ff51	0.052977864

onnx::MatMul_18 f4 [180, 256]
0	0x3e5e55f9	0.21712483
1	0x3dd1e5c2	0.10248901
2	0xbf70e825	-0.94104224
3	0x3d4068fb	0.046975117
4	0xbccb89c0	-0.024845958
5	0xbf3fbbc6	-0.74895895
6	0xbdb8009a	-0.0898449
7	0x3e995c32	0.29953152
8	0xbf15bb09	-0.5848852
9	0xbb12e79d	-0.0022415884
10	0x3de17bf6	0.11009972
11	0x3f399aee	0.7250203
12	0x3ee5105a	0.44739038
13	0x3e656af9	0.22404088
14	0xbda09261	-0.078404196
15	0x3f28d102	0.6594392
16	0xbdb33105	-0.08749584
17	0xbe14771f	-0.14498566
18	0x3c4f8569	0.012666085
19	0xbd91501f	-0.0709536
20	0xbf724252	-0.94632447
21	0x3dcb55c8	0.09928471
22	0xbe8329f4	-0.25617945
23	0x3de18581	0.11011792
24	0xbf8e0017	-1.1093777
25	0x3e8cccab	0.274999
26	0xbe39fe82	-0.18163493
27	0xbdeaa9f9	-0.11458201
28	0x3e815686	0.25261325
29	0xbddd9c84	-0.108208686
30	0x3ef74d69	0.48301247
31	0xbff664d9	-1.9249526
32	0xbcdbec03	-0.026845938
33	0xbe8795a7	-0.26481363
34	0x3f3bbd6c	0.7333591
35	0xbe233701	-0.15938951
36	0x3df3f876	0.119126245
37	0xbe603dae	-0.21898529
38	0x3ed0d18d	0.40784875
39	0x3ccccdcf	0.025000481
40	0x3f6085b2	0.87704
41	0x3e75d09f	0.24005364
42	0xbfad224e	-1.3526094
43	0xbf02a055	-0.510259
44	0xbe0dd748	-0.13851655
45	0xbef091a8	-0.46986127
46	0xbeaffcab	-0.34372458
47	0xbdeb0d9c	-0.11477205
48	0x400738c4	2.1128397
49	0x3ed88f3d	0.42296782
50	0xbf10d995	-0.56582004
51	0xbd04029b	-0.032229047
52	0xbc910e79	-0.017707096
53	0xbe03bf24	-0.12865883
54	0xbceaa143	-0.028641349
55	0x3e653591	0.22383715
56	0xbe9a5ae5	-0.30147472
57	0xbe9296ea	-0.28630763
58	0x3ee742a9	0.45168045
59	0x3e2b1c73	0.16710071
60	0xbc4eb0e4	-0.012615416
61	0xbcb061f3	-0.02153108
62	0x3e3e10e2	0.18561128
63	0x3d999987	0.07499986
64	0x3cfe4be9	0.031042056
65	0x3d977f93	0.0739738
66	0xbca9a68e	-0.020709302
67	0x3f0aee74	0.542701
68	0xbedb78e7	-0.4286568
69	0x3e985262	0.29750353
70	0x3d264a60	0.040598273
71	0x3e145b81	0.14488031
72	0x3da1aabf	0.07893895
73	0xbeef8ce8	-0.4678719
74	0x3e242fdc	0.16033882
75	0xbd1862da	-0.037203647
76	0xbe39599f	-0.18100594
77	0x3d12497a	0.035714604
78	0x3dd5c77d	0.1043844
79	0x3f6d1164	0.9260466
80	0x3e96c608	0.2944796
81	0x3f35d9ed	0.71035653
82	0x3df8f45b	0.12155982
83	0xbcf8d0c4	-0.030372985
84	0xbe82b69f	-0.25529954
85	0x3e87a4df	0.26492974
86	0x3de1f375	0.11032764
87	0xbf0c7c61	-0.5487729
88	0x3e89bf8c	0.2690395
89	0x3e8c74ec	0.27432954
90	0xbdd90a65	-0.10597686
91	0xbeebd0c1	-0.46057704
92	0x3ca09950	0.019604355
93	0x3d4492d3	0.047991585
94	0xbe11bb65	-0.14231642
95	0xbc82c5ef	-0.015963523
96	0x3cfd003d	0.030883903
97	0x3f3d05c1	0.73836905
98	0xbe34259a	-0.17592469
99	0x3ecdcdb3	0.40196
100	0x3e16cc9c	0.1472649
101	0xbda25b6d	-0.07927594
102	0xbea867d4	-0.32891715
103	0xbc3c9085	-0.0115090655
104	0x3ecb0f33	0.39660034
105	0x3db593db	0.08866092
106	0x3e56f01d	0.20990033
107	0xbdbeacfd	-0.09310339
108	0xbe0a9b60	-0.13535833
109	0x3e9288c1	0.2861996
110	0xbc923a6f	-0.017850129
111	0xbda9952b	-0.08280405
112	0xbb6f4fc9	-0.0036516062
113	0x3f8827c7	1.0637139
114	0x3d758133	0.059937667
115	0xbe13448c	-0.14381617
116	0x3e7cbf77	0.24682413
117	0xbe04e869	-0.12979282
118	0xbe8860fe	-0.266365
119	0xbe4963d0	-0.19666982
120	0xbee6cf0a	-0.45079833
121	0x3dbb7b75	0.09154407
122	0xbe926550	-0.2859292
123	0x3e3f0c72	0.18657091
124	0x3f217834	0.6307404
125	0x3db06360	0.08612704
126	0xbe91591f	-0.28388306
127	0x3dafe41b	0.085884295
128	0xbf367b6d	-0.7128208
129	0x3e077e14	0.13231689
130	0x3fc42817	1.5324734
131	0x3f545a0d	0.82949907
132	0x3ede0a2b	0.43367133
133	0xbe08e09d	-0.13366933
134	0xbebe0f95	-0.37121263
135	0x3e53c46b	0.20680396
136	0x3e907fa8	0.28222394
137	0x3e55957f	0.2085781
138	0x3c63828d	0.013886106
139	0x3e2d4380	0.1692028
140	0xbeb1011d	-0.34571162
141	0x3ef198aa	0.47186786
142	0x3edd032f	0.4316649
143	0x3edb542c	0.42837656
144	0x3e5eb71b	0.21749537
145	0xbf26198c	-0.6488273
146	0x3b8ee9b3	0.004361355
147	0xbf12d956	-0.5736288
148	0xbe3ab485	-0.18232925
149	0x3e38721b	0.18012278
150	0x3f2f2a94	0.68424344
151	0x3d934cdf	0.071923964
152	0x3f49a38c	0.7876518
153	0x3ec054b1	0.37564614
154	0x3ec0c4b8	0.37650084
155	0xbc181045	-0.009281223
156	0xbf8b152f	-1.086584
157	0xbd1e9898	-0.038719743
158	0x3c08199d	0.008306888
159	0xbdc10741	-0.09425212
160	0x3e90959c	0.28239143
161	0xbd418c52	-0.04725296
162	0xbd9c412a	-0.076296166
163	0xbdbdb8d9	-0.092637725
164	0xbd845c3d	-0.064629056
165	0xbeb2eaec	-0.34944856
166	0xbe5a7e48	-0.21337235
167	0x3e4755cc	0.19466323
168	0xbc4bd982	-0.012441995
169	0xbd36b01d	-0.04460155
170	0x3eaf9a66	0.34297484
171	0xbebbe78d	-0.36700097
172	0x3f3be186	0.73390996
173	0x3e32d4a2	0.17463925
174	0x3d75aa59	0.05997691
175	0x3e6742fa	0.22584143
176	0xc0205946	-2.5054488
177	0xbd129e0e	-0.035795264
178	0xbea721c3	-0.32642946
179	0xbe16f50d	-0.14741917
180	0xbe90fe52	-0.2831903
181	0xbe1208c3	-0.14261155
182	0x3ecac648	0.39604402
183	0x3de8a10d	0.11358843
184	0x3e80f80a	0.2518924
185	0xbe023343	-0.12714867
186	0x3f49e666	0.78867185
187	0x3ee7ed20	0.452981
188	0xbc96693f	-0.018360732
189	0xbf4ab0b0	-0.79175854
190	0xbe2aa59c	-0.16664737
191	0x3da8ac14	0.08235946
192	0xbec21a94	-0.37910903
193	0xbee036f8	-0.43791938
194	0xbd6a2e15	-0.057172853
195	0x3e4e1b1d	0.2012753
196	0x3ea20373	0.31643257
197	0xbe1432b5	-0.14472468
198	0xbe905287	-0.28187963
199	0xbeb105dc	-0.34574783
200	0x3e37ff9f	0.17968605
201	0x3c3fb8a9	0.011701741
202	0xbcb0557b	-0.021525135
203	0x3dcb9410	0.0994035
204	0x3f96503c	1.1743236
205	0x3f3257fb	0.696655
206	0xbcd709e0	-0.026249826
207	0x3eeb5c30	0.4596877
208	0x3eac7d4e	0.3368935
209	0x3ceffdd5	0.029295841
210	0xbd859d3b	-0.0652413
211	0x3f156b54	0.58366895
212	0xbe2f0371	-0.17091157
213	0x3dc7dc2e	0.09758793
214	0xbe236f2c	-0.15960377
215	0xbe0fe7d9	-0.14053287
216	0xbe41df71	-0.18932892
217	0x3c162e53	0.009166318
218	0xbf15e74b	-0.5855605
219	0x3a8d3d99	0.0010775804
220	0x3e57791d	0.21042295
221	0xbf1d16a2	-0.6136266
222	0x3e1461f8	0.14490497
223	0xbb97b53b	-0.0046297587
224	0x3ed14a66	0.40877074
225	0xbe051e4b	-0.12999837
226	0x3d282226	0.04104819
227	0x3e6ef431	0.23335339
228	0x3e706717	0.23476826
229	0x3f1bf0f0	0.60914516
230	0xbe0879da	-0.13327733
231	0xbedbfa05	-0.42964187
232	0x3f2ea742	0.68223965
233	0x3de8041c	0.11328909
234	0xbe125391	-0.1428969
235	0x3e41ce3a	0.18926325
236	0xbeb0d899	-0.3454025
237	0xbcabddc3	-0.020979768
238	0xbe24e559	-0.16103114
239	0x3ec678d8	0.3876407
240	0x3d28a12a	0.041169323
241	0xbf007c73	-0.50189894
242	0x3f836fe6	1.0268524
243	0x3b5616a2	0.0032667299
244	0x3f71d9c0	0.94472885
245	0x3f365c66	0.7123474
246	0x3f0df990	0.5545893
247	0x3eed5f65	0.46361843
248	0x3ebb3545	0.3656408
249	0xbc7c66ef	-0.015405401
250	0xbe80c1ea	-0.25147945
251	0xbf010815	-0.5040296
252	0x3e22ea8e	0.15909788
253	0xbf03876c	-0.5137851
254	0xbe12de97	-0.14342724
255	0x3f0c6683	0.5484392

onnx::MatMul_19 f4 [256, 128]
0	0x3f048147	0.5175976
1	0x3cbb492f	0.022862045
2	0x3ccc286e	0.024921622
3	0xbc447bbf	-0.011992394
4	0x3de04fb5	0.10952703
5	0xbe4f8faa	-0.20269647
6	0x3e3ed8ac	0.18637341
7	0xbc3789dc	-0.011202302
8	0x3f28dd59	0.6596275
9	0x3e9b4691	0.30327275
10	0xbd350fce	-0.044204526
11	0x3e3106e5	0.17287786
12	0xbd203b40	-0.039119005
13	0x3daaf9ac	0.083484024
14	0xbdbb3819	-0.09141559
15	0xbd0292fe	-0.031878464
16	0x3ee1dae6	0.4411232
17	0xbd9003a4	-0.070319444
18	0xbe1ea897	-0.15494
19	0xbd02ad3e	-0.031903498
20	0x3d3bea08	0.045877486
21	0xbe083540	-0.13301563
22	0x3cd1428b	0.025544425
23	0xbcf45e0b	-0.02983
24	0xbd58e9f4	-0.05295749
25	0xbd0ee1ae	-0.034883194
26	0xb99e3298	-0.00030173804
27	0xbe069861	-0.13144065
28	0x3da2f1d8	0.07956284
29	0x3e1b6c59	0.1517805
30	0xbcd4da3e	-0.025982972
31	0x3d62697c	0.05527638
32	0xbddee0b1	-0.108827
33	0xbde5fe77	-0.11230176
34	0xbdfa40ed	-0.12219415
35	0xbe618a07	-0.2202531
36	0x3ec5fbfa	0.38668805
37	0x3e6ff52e	0.23433372
38	0x3e896725	0.26836506
39	0x3f1fc179	0.6240459
40	0xbc8e7c96	-0.017393392
41	0xbd386b1c	-0.045024022
42	0x3f2163f3	0.63043135
43	0x3e978c1c	0.29599082
44	0x3ea3140f	0.3185124
45	0x3e728508	0.2368356
46	0x3ce23ef3	0.027617907
47	0xbe64157b	-0.22273819
48	0xbd27596a	-0.040856756
49	0x3f054807	0.5206303
50	0xbf03adad	-0.51436883
51	0x3ee106de	0.43950552
52	0x3e168726	0.14699993
53	0x3e00b248	0.12568009
54	0xbdd3ccd7	-0.103418045
55	0xbd2a8e9a	-0.0416399
56	0x3ec40e6a	0.38292247
57	0x3d823598	0.063578784
58	0xbe166ffd	-0.14691158
59	0x3ca43010	0.02004245
60	0x3debf73b	0.11521765
61	0x3e66219e	0.22473761
62	0xbe062e95	-0.13103707
63	0x3f3a4f9c	0.72777724
64	0x3d0e729b	0.034777265
65	0x3d90792c	0.07054362
66	0xbf93bd55	-1.1542155
67	0x3db7ee98	0.08981055
68	0xbdfcb906	-0.12339978
69	0xbbd8bde7	-0.006614435
70	0x3e8c9a03	0.27461252
71	0xbcde32d8	-0.027123854
72	0x3e27d9d9	0.16391696
73	0x3d164aa8	0.03669229
74	0x3e00b3c9	0.12568583
75	0xbe265735	-0.16244204
76	0xbf3360f8	-0.7006984
77	0x3e0d3e2a	0.13793245
78	0x3d00110b	0.031266253
79	0x3e2e16ad	0.17000838
80	0xbea07895	-0.31341997
81	0x3e94cb58	0.2906139
82	0xbdd36ff4	-0.10324088
83	0xbe06e0af	-0.13171647
84	0xbe824721	-0.25444892
85	0x3e0a3fbd	0.13500877
86	0x3c99bbe3	0.01876635
87	0x3c8eab74	0.01741574
88	0x3da63a1d	0.08116553
89	0x3dcad0fd	0.099031426
90	0xbd83e1da	-0.06439562
91	0xbdf21445	-0.11820272
92	0x3e1616db	0.14657156
93	0xbee711d6	-0.45130795
94	0x3e341ef1	0.17589928
95	0x3e528a95	0.20560677
96	0x3c20bb21	0.00981024
97	0x3eee924d	0.46595994
98	0x3ca26801	0.019824984
99	0x3e3cb626	0.18428859
100	0x3e109ddc	0.14122719
101	0x3d94caf2	0.07265271
102	0xbd7d48fd	-0.061837185
103	0xbf3b0ab6	-0.7306322
104	0xbf6a6289	-0.915566
105	0xbd816118	-0.06317347
106	0xbed3fd80	-0.41404343
107	0xbd9f2cc1	-0.07772208
108	0x3e5a1f14	0.21300918
109	0xbe2a6813	-0.16641264
110	0x3ea55883	0.32294092
111	0xbd67cd4e	-0.05659228
112	0xbf722c1c	-0.94598556
113	0xbc556cc1	-0.013026417
114	0xbe839431	-0.25699
115	0x3edf3d19	0.436013
116	0x3e101083	0.14068799
117	0xbdb39fac	-0.08770689
118	0x3ec1e74a	0.37871772
119	0x3e7b09a6	0.245154
120	0x3da0553d	0.07828758
121	0xbe269b96	-0.16270289
122	0x3eb73c37	0.35788128
123	0xbd53d12a	-0.051713146
124	0xbf080e89	-0.5314718
125	0xbdda5bfa	-0.106620744
126	0xbca6fdcc	-0.020384692
127	0x3e6ac6ae	0.22927353
128	0x3d0db9d0	0.034601033
129	0xbd9771fe	-0.07394789
130	0xbd559d2f	-0.052151855
131	0xbe4c8cdd	-0.1997561
132	0x3d8df7be	0.06932019
133	0x3f723a74	0.9462044
134	0x3e3ddae6	0.18540534
135	0x3dff51a7	0.12466746
136	0x3e25c964	0.16190106
137	0x3e883b25	0.26607624
138	0xbc2b2403	-0.010445598
139	0xbdecdd6a	-0.11565669
140	0xbe82b268	-0.25526738
141	0xbe216253	-0.15760164
142	0x3d862e92	0.06551851
143	0x3d379901	0.04482365
144	0xbcb9f27a	-0.02269863
145	0xbd4ef1fd	-0.050523747
146	0x3e0c061e	0.13674209
147	0x3dd4c39f	0.10388874
148	0x3d4e511d	0.050370324
149	0xbe0077e4	-0.12545735
150	0xbd9dd3f3	-0.07706442
151	0xbdc51775	-0.09623615
152	0xbda775f5	-0.081767954
153	0xbcf1888e	-0.02948406
154	0xbe490397	-0.19630276
155	0xbe749009	-0.2388307
156	0xbe65242e	-0.22377083
157	0xbdd9a48a	-0.106270865
158	0xbbd8d423	-0.0066170855
159	0x3e3b389b	0.18283312
160	0x3f2a01db	0.6640908
161	0x3c854f9d	0.016273314
162	0xbe075603	-0.13216405
163	0x3cdfaae1	0.027303161
164	0x3eefeb33	0.4685913
165	0x3e058729	0.13039841
166	0x3e8e0b35	0.27742925
167	0x3fe19825	1.7624556
168	0xbcd84502	-0.026400093
169	0xbbe90d02	-0.0071121464
170	0x3f96590d	1.1745926
171	0x3e4d772e	0.20064995
172	0x3dc024e2	0.09382035
173	0x3e6fcc2e	0.23417732
174	0x3d9034ea	0.070413426
175	0xbf5908ba	-0.8477894
176	0xbe11cc9d	-0.1423821
177	0xbe9df592	-0.30851418
178	0x3ef013dd	0.46890154
179	0xbf0ec1fe	-0.5576476
180	0x3e88949f	0.2667589
181	0xbe27c598	-0.1638397
182	0xbd91fdbf	-0.07128476
183	0x3e33c8a7	0.17557012
184	0x3e1ee6ef	0.15517782
185	0xbe145c76	-0.14488396
186	0x3dfe8ee2	0.124295965
187	0xbd7f202e	-0.06228655
188	0xbe5b0352	-0.21387985
189	0x3e95ca38	0.29255843
190	0xbe388ac6	-0.18021688
191	0x3f013570	0.50472164
192	0xbe1a41ea	-0.15064207
193	0xbccf4763	-0.025302595
194	0x3f3afb79	0.73039967
195	0x3dd57a23	0.10423686
196	0x3e3b198d	0.18271466
197	0x3f0ce7c2	0.55041134
198	0xbfd7736b	-1.6832098
199	0xbd29813e	-0.04138302
200	0xbd45c6be	-0.04828524
201	0xbe1ee445	-0.15516765
202	0x3e0606d8	0.13088548
203	0x3d464378	0.048404187
204	0x3f69153b	0.9104802
205	0x3ec7a494	0.3899275
206	0xbdf7983e	-0.12089585
207	0xbd5b8c96	-0.05360087
208	0x3f5c483b	0.86047715
209	0x3e937da8	0.28806806
210	0xbe9207a2	-0.28521448
211	0x3e49d157	0.19708763
212	0xbe38954d	-0.18025704
213	0xbccc22cc	-0.024918936
214	0xbd989e4f	-0.0745207
215	0xbd1b2793	-0.037879538
216	0xbdca16b7	-0.09867614
217	0x3e585fa6	0.21130237
218	0x3f2a4053	0.665044
219	0x3e578ac8	0.21049035
220	0x3d0609b6	0.032724105
221	0xbd327ce6	-0.043576144
222	0xbcdc252e	-0.026873197
223	0xbd9dc575	-0.077036776
224	0xbc06998b	-0.008215318
225	0xbf113d92	-0.56734574
226	0xbd69503b	-0.05696128
227	0x3fc78880	1.5588531
228	0x3e4233cd	0.18965073
229	0xbddecee5	-0.10879306
230	0x3d06d2d9	0.032915924
231	0x3f79fde4	0.9765303
232	0x3f5bcfdb	0.8586404
233	0x3eb75a8b	0.35811266
234	0x3f0b0c23	0.54315394
235	0x3ea25528	0.31705594
236	0xbe841c53	-0.2580286
237	0xbed08011	-0.40722707
238	0xbe2aae29	-0.16668
239	0x3e15db17	0.14634357
240	0x3ec7075f	0.3887281
241	0xbcf33610	-0.029688865
242	0xbeebc771	-0.460506
243	0x3e396495	0.18104775
244	0x3e87ef6d	0.26549855
245	0x3fb7f48e	1.4371507
246	0x3f17491d	0.59095937
247	0xbe161f7d	-0.1466045
248	0x3e800449	0.2500327
249	0xbe5784c6	-0.21046743
250	0xbdf14650	-0.11780989
251	0xbe9e38b3	-0.30902633
252	0x3f9c6d82	1.2220919
253	0x3d907a05	0.070545234
254	0xbdb8e020	-0.090271235
255	0x3d3d69d1	0.046243493

onnx::MatMul_20 f4 [128, 3]
0	0xbd406271	-0.04696888
1	0xbcab7094	-0.020927705
2	0xbbb2d97b	-0.0054580546
3	0xbda2656f	-0.07929503
4	0xbce157b2	-0.027507637
5	0x3d3aaff8	0.045577973
6	0xbe0dd446	-0.13850507
7	0x3ca87636	0.02056418
8	0x3a723e28	0.00092408294
9	0xbd03161b	-0.032003503
10	0xbd8b5865	-0.06803969
11	0x3d734589	0.059392486
12	0x3d829528	0.063761055
13	0xbd38fa30	-0.045160472
14	0x3b8cac33	0.0042929887
15	0xbcb9b777	-0.02267049
16	0xb9084551	-0.00012995793
17	0xbc11923a	-0.008884961
18	0x3e01ceec	0.1267659
19	0x3958b2b2	0.00020665934
20	0x3bc073f1	0.0058731963
21	0x3dbab4b7	0.091165
22	0xbc3fa296	-0.011696478
23	0xbc977aec	-0.01849123
24	0x3c147777	0.009061686
25	0x3bff41f1	0.0077898433
26	0x3d27ffac	0.041015312
27	0x3cb7d45f	0.022440134
28	0xbc4c5dbf	-0.012473523
29	0x3c8c6016	0.017135661
30	0x3d1b3841	0.037895445
31	0xbcba89de	-0.022770818
32	0x3d777142	0.060410745
33	0x3c20546d	0.009785754
34	0xbc42c955	-0.011888822
35	0x3d020bff	0.03174972
36	0x3dd80140	0.105471134
37	0x3d596327	0.053073075
38	0x3e318919	0.17337455
39	0x3cbc8c85	0.023016224
40	0x3d58049a	0.052738763
41	0x3be31957	0.006930511
42	0xbd851012	-0.06497206
43	0x3c671578	0.01410424
44	0xbcf67490	-0.030084878
45	0xbdf37d9f	-0.11889195
46	0xbdb83840	-0.08995104
47	0xbd35e6d4	-0.044409588
48	0xbb39ee02	-0.0028370623
49	0xbcd67031	-0.026176544
50	0x3dc60bc0	0.0967021
51	0xbbba7917	-0.0056907046
52	0x3d5694fa	0.05238817
53	0x3d416ee0	0.04722488
54	0xbe28d394	-0.1648696
55	0x3c44e8d7	0.012018404
56	0x3cbc87cf	0.023013977
57	0xbe2d2b87	-0.16911136
58	0x3d0d9a93	0.03457124
59	0x3d8c13b3	0.06839695
60	0x3d3a76da	0.045523502
61	0xbdd51d63	-0.10405996
62	0x3e5c1dcd	0.21495743
63	0x3dc58fb5	0.096465506
64	0xbc81af82	-0.015830759
65	0x3e014498	0.12623823
66	0x3d59c19d	0.05316316
67	0xbd17bf0c	-0.03704743
68	0x3d8bdc87	0.06829172
69	0xbc9a162b	-0.018809399
70	0xbd56b03a	-0.052414156
71	0x3dfd7026	0.12374906
72	0xbcaa0bde	-0.020757612
73	0xbdb6db7d	-0.08928583
74	0xbcf97ccc	-0.030455016
75	0xbde4d8f8	-0.11174196
76	0xbc260af1	-0.010134445
77	0xbcde5045	-0.027137885
78	0x3cd581ef	0.026062934
79	0x3d93f7d6	0.07225005
80	0x3a6eea5a	0.00091139006
81	0x3dda351b	0.1065466
82	0x3d1e9039	0.03871176
83	0xbcb0a19c	-0.021561436
84	0xbb9235d2	-0.0044619823
85	0x3da12515	0.07868401
86	0xbba60fda	-0.0050678076
87	0x3de302b5	0.11084501
88	0xbbb3644d	-0.0054746033
89	0xbd81f186	-0.06344895
90	0x3c45f72e	0.012082858
91	0xbbcfa5a3	-0.006336884
92	0xbdaa33c3	-0.08310654
93	0xbd34ab6f	-0.044108804
94	0xbccc2417	-0.024919553
95	0xbd51139e	-0.0510441
96	0xbd871880	-0.0659647
97	0x3d484c42	0.04890085
98	0xbd59ad0d	-0.05314355
99	0xbd3bdc8c	-0.045864627
100	0xbd919bbf	-0.07109784
101	0x3d099f54	0.033599213
102	0x3b022be8	0.0019862596
103	0x3de9cb9d	0.11415789
104	0x3c8b8178	0.017029509
105	0xbcecf008	-0.02892305
106	0xbd863c76	-0.06554501
107	0xbc47cbeb	-0.012194614
108	0x3dc212cc	0.094762415
109	0x3af77e1b	0.0018882187
110	0xbc92c404	-0.017915733
111	0x3d61f15d	0.055161823
112	0xbcd0de39	-0.025496589
113	0xbd3d16cd	-0.046164323
114	0xbc3a74f5	-0.011380424
115	0x3cc77d4a	0.024351735
116	0x3c464cf4	0.012103308
117	0xbce401d8	-0.02783291
118	0x3d2bb956	0.041924797
119	0xbc9219f1	-0.017834635
120	0xbd41b058	-0.047287315
121	0x3cca6c5e	0.024709877
122	0x3739d8eb	1.1077364e-05
123	0xbd9c7c80	-0.07640934
124	0x3d12fd82	0.035886295
125	0x3ce94c62	0.028478805
126	0x3d1a75e2	0.037710078
127	0xbb32ad6b	-0.002726401
128	0xbc9f3ef0	-0.01943919
129	0x3d36a61c	0.044592008
130	0x3c1c74b6	0.00954931
131	0x3a001705	0.00048862427
132	0xbc3170e2	-0.010830136
133	0x3d6223a9	0.05520979
134	0x3cb63bec	0.02224537
135	0xbd10cb21	-0.03534997
136	0xbc888349	-0.016664164
137	0x3d6a4dc6	0.057203077
138	0x3cd20215	0.025635758
139	0xbdff3b66	-0.12462501
140	0xba983306	-0.0011611886
141	0xbcf7d7fb	-0.030254355
142	0xbd9b015b	-0.07568618
143	0xbc696cc6	-0.014247125
144	0x3dc40962	0.09572102
145	0x3c88ac55	0.016683737
146	0x3c2d3847	0.0105725
147	0x3c9747a8	0.018466786
148	0x3a983472	0.001161231
149	0x3d9e3034	0.07724038
150	0xbddc1270	-0.10745704
151	0x3c3cb916	0.011518737
152	0x3d602dc6	0.054731153
153	0xbccf57b7	-0.02531038
154	0x3b52e643	0.0032180704
155	0xbd993d9a	-0.07482453
156	0xb9a5913f	-0.0003157947
157	0xbd2fbf51	-0.042907063
158	0xbd626e58	-0.055281013
159	0xbe293812	-0.16525295
160	0x3caa3105	0.020775327
161	0x3d0169f2	0.031595178
162	0xbdb9729b	-0.090550624
163	0xbd5de652	-0.05417473
164	0xbb892085	-0.004184785
165	0x3e102337	0.14075933
166	0xbb9c74c3	-0.0047746613
167	0xbd8dc22b	-0.069218
168	0xbb2e6021	-0.002660759
169	0xbe18754f	-0.148885
170	0x3e008b58	0.12553155
171	0xbd412605	-0.0471554
172	0x3cc5b611	0.024134668
173	0xbd8389ab	-0.064227425
174	0xbd9225de	-0.07136129
175	0xbbde3a27	-0.0067818346
176	0xbd9b39cd	-0.07579384
177	0xbd73e32f	-0.05954283
178	0x3ce375d8	0.027766153
179	0xbe1d38f2	-0.15353754
180	0xbc9421d7	-0.018082542
181	0x3c106134	0.0088122375
182	0xbdbab29a	-0.09116097
183	0x3e22a047	0.15881453
184	0xbd35dbc2	-0.04439903
185	0xbcb2b332	-0.021813963
186	0x3ccfd9f0	0.025372475
187	0x3d892382	0.06696226
188	0x3c00ca58	0.0078607425
189	0x3e013209	0.12616743
190	0x3e029505	0.12752159
191	0xbc952c45	-0.018209586
192	0x3d00cbdb	0.03144441
193	0x3c818c1c	0.01581388
194	0x3dc3edee	0.09566866
195	0x3d1316be	0.03591036
196	0xbe82f848	-0.2558005
197	0x3d54fbc7	0.051997926
198	0xbd508aec	-0.050913736
199	0xbc53fb3f	-0.01293832
200	0x3cb2e044	0.021835454
201	0xbc8af032	-0.016960237
202	0x3d94057e	0.0722761
203	0xbc36ce65	-0.011157607
204	0x3db7a77d	0.08967493
205	0x3e351e8b	0.17687432
206	0x3cc40475	0.023927907
207	0x3da37b8d	0.0798255
208	0x3d7f3977	0.062310662
209	0xbb0ce290	-0.0021497346
210	0x3b6804ae	0.003540318
211	0x3d19b31b	0.037524324
212	0xbb7c42f8	-0.0038492065
213	0x3cf0af64	0.029380508
214	0xbdda13ce	-0.10648309
215	0x3b081fbf	0.0020770875
216	0xbd32dcdc	-0.04366766
217	0x3d65bedb	0.056090217
218	0x3ce89144	0.02838958
219	0x3cab7644	0.020930417
220	0x3cdfa89f	0.027302084
221	0xbd75fd5d	-0.06005608
222	0x3b3a9898	0.00284723
223	0xbd92382c	-0.0713962
224	0x3cfcaec1	0.030845048
225	0xbd9c0801	-0.07618714
226	0x3cf89845	0.030346045
227	0xbe23d744	-0.16000086
228	0xbd062cfe	-0.03275775
229	0x3cbbc205	0.022919664
230	0x3d16bea5	0.036802907
231	0xbb87544a	-0.004129921
232	0x3cb10fd2	0.021613989
233	0x3b6afd0d	0.0035856396
234	0xbc1d013e	-0.009582816
235	0xbd8cfac0	-0.06883764
236	0xbd0f34a2	-0.034962304
237	0xbd978bfb	-0.07399746
238	0xbb833d8b	-0.004005139
239	0x3d7c979b	0.06166802
240	0x3c2bcd42	0.010485949
241	0xbd0d9e1c	-0.034574613
242	0x3cf9d307	0.030496133
243	0x3d14c78e	0.036323123
244	0x3ba71b1b	0.005099667
245	0x3b818adc	0.003953321
246	0xbc250c74	-0.01007377
247	0x3bbc3015	0.0057430365
248	0xbd21015d	-0.03930794
249	0xbccdbf47	-0.025115622
250	0xbd9f2ffb	-0.077728234
251	0xbabdeff3	-0.0014491066
252	0x3da67eb1	0.08129633
253	0x3c1d11d7	0.009586773
254	0x3c5b217b	0.013374682
255	0xbdbb1d55	-0.09136454
