robot_controllers/config/pointfoot/SF_TRON1A/policy/policy.onnx (onnx, 778692 bytes, 8 tensors)

0.bias f4 [512]
0	0x3e27bb9e	0.16380164
1	0xbe333067	-0.17498933
2	0x3d4d5627	0.05013099
3	0x3e0ac66d	0.13552256
4	0xbce847a4	-0.028354473
5	0x3c8127f7	0.015766127
6	0x3e8db4e8	0.27677083
7	0xbdc9d8cf	-0.09855806
8	0xbe66bff5	-0.22534163
9	0xbd9f5d04	-0.07781413
10	0x3c6a182c	0.01428799
11	0x3e5e8138	0.2172898
12	0xbe25e9e0	-0.16202497
13	0xbe9fe5b5	-0.3122994
14	0xbb69a0fe	-0.0035648937
15	0xbd7498ef	-0.05971616
16	0xbd195054	-0.037430122
17	0xbd5189f9	-0.05115697
18	0xbcb2c8bf	-0.021824239
19	0x3db779f7	0.0895881
20	0x3e7b1c90	0.24522614
21	0xbbab504a	-0.005228077
22	0xbdf12c7f	-0.11776065
23	0xbdde31ed	-0.10849366
24	0x3e665349	0.22492708
25	0x3de889e9	0.11354429
26	0xbe113953	-0.14182024
27	0x3de92db6	0.11385672
28	0xbe4ede74	-0.20202047
29	0x3e62888c	0.22122401
30	0x3e11e576	0.14247689
31	0xbd3ce9ed	-0.046121527
32	0x3ca90d90	0.02063635
33	0xbe24bf7a	-0.16088668
34	0xbc765e39	-0.015037113
35	0xbdff19f2	-0.124561206
36	0xbcf4407a	-0.029815901
37	0xbe088b1f	-0.1333432
38	0xbd8640d5	-0.065553345
39	0x3da17e2d	0.07885394
40	0xbc143967	-0.009046889
41	0x3ebcc1f0	0.36866713
42	0xbd517fe0	-0.05114734
43	0xbf33770a	-0.70103514
44	0xbe256920	-0.16153383
45	0xbe213608	-0.15743268
46	0xbeb47e7d	-0.35252753
47	0xbe088a60	-0.13334036
48	0xbe86af5b	-0.2630566
49	0xbe679271	-0.22614457
50	0xbe714100	-0.23559952
51	0xbd04b43c	-0.032398447
52	0x3e80dd6b	0.25168929
53	0xbe5b7b8f	-0.21433853
54	0x3e681564	0.2266441
55	0x3d43ba49	0.047785077
56	0xbd047e2f	-0.0323469
57	0xbdc7c719	-0.09754772
58	0xbe121932	-0.14267424
59	0x3e714dab	0.23564784
60	0xbdaa0fb1	-0.08303774
61	0x3cc38349	0.023866313
62	0x3e440d44	0.19145685
63	0xbe89ef56	-0.2694041
64	0xbd5e8ea9	-0.05433527
65	0x3b2a859e	0.0026019583
66	0x3e87e774	0.26543772
67	0xbeb7496e	-0.3579821
68	0xbd37b127	-0.04484668
69	0xbdb24dff	-0.08706283
70	0x3d4435fd	0.04790305
71	0xbe53ace1	-0.20671417
72	0xbd5571b2	-0.05211038
73	0xbea0379e	-0.31292433
74	0x3d8a1d44	0.06743863
75	0xbea4f1c2	-0.32215697
76	0x3d098c2d	0.033580948
77	0x3d3e758d	0.046498824
78	0x3ea5038a	0.32229263
79	0xbe251f5b	-0.16125242
80	0x3d63b083	0.055588257
81	0x3d9d1722	0.07670428
82	0x3c1b772f	0.009488865
83	0xbd7e8726	-0.062140606
84	0xbd86db5d	-0.06584809
85	0xbda32296	-0.07965581
86	0xbd0157f7	-0.03157803
87	0x3adc1ba6	0.0016792908
88	0x3c079bcd	0.008276892
89	0xbdd46d7c	-0.10372445
90	0x3dbb216a	0.091372326
91	0x3cc09dbc	0.023512714
92	0xbe677d8e	-0.22606489
93	0x3cf9e7ee	0.0305061
94	0xbe1c7291	-0.15278079
95	0x3d82f612	0.063945904
96	0x3e0b66ed	0.13613482
97	0x3dd472e5	0.10373477
98	0xbe9442a3	-0.2895709
99	0x3bdb97a9	0.006701429
100	0xbe0f9f6a	-0.14025655
101	0xbe48a2c5	-0.19593342
102	0xbd96023a	-0.073246434
103	0x3dadc29d	0.08484385
104	0x3d693425	0.056934495
105	0x3d59a239	0.053133223
106	0xbcbf5489	-0.02335574
107	0xbe471826	-0.19442806
108	0x3d80b1d0	0.06283915
109	0x3e228f1f	0.15874909
110	0xbde2b790	-0.11070168
111	0xbe6115ca	-0.21980968
112	0x3dd0c374	0.1019353
113	0x3e4da9ea	0.20084348
114	0x3cc94c5e	0.024572548
115	0x3dccb530	0.09995496
116	0x3d82ccb2	0.06386699
117	0x3d4e85e6	0.050420664
118	0x3d6ef6d2	0.058340855
119	0xbe92e791	-0.28692296
120	0xbd9197ce	-0.071090326
121	0x3e325477	0.17415033
122	0x3e4009f4	0.18753797
123	0x3e2c6caf	0.16838335
124	0x3da91ca5	0.08257417
125	0xbdadfdaa	-0.08495648
126	0x3e515cac	0.20445508
127	0xbe1fcde0	-0.15605879
128	0xbe90fa9a	-0.28316194
129	0xbe494d54	-0.19658405
130	0x3e6396e8	0.22225535
131	0xbdf60275	-0.120121874
132	0xbda8eff9	-0.08248896
133	0x3e75279a	0.23940888
134	0xbdfeb6a1	-0.124371774
135	0x3d161dc4	0.03664948
136	0xbca2e2c1	-0.019883515
137	0x3d2c0905	0.04200079
138	0x3dd03a08	0.101673186
139	0xbe423c9c	-0.18968433
140	0xbdf150d5	-0.117829956
141	0xbc2a0a47	-0.010378427
142	0xbe120243	-0.14258675
143	0xbcdb3292	-0.026757512
144	0x3c86b554	0.016443886
145	0xbe71c1ee	-0.23609135
146	0x3d00cb21	0.03144372
147	0xbf42e62a	-0.7613245
148	0xbd7a30ec	-0.06108181
149	0x3e60363a	0.21895686
150	0x3c1e6d78	0.009669654
151	0xbd2db378	-0.042407483
152	0xbd6c7c5d	-0.05773579
153	0xbe8a47fa	-0.2700804
154	0x3b829385	0.003984871
155	0x3d3da4e6	0.046299838
156	0x3a3c28a1	0.0007177685
157	0x3db046b9	0.08607239
158	0x3e11c906	0.1423684
159	0xbc01e1f5	-0.0079274075
160	0x3e42cf0a	0.19024292
161	0xbd350544	-0.044194475
162	0xbdb14042	-0.08654834
163	0xbdb22a92	-0.08699526
164	0x3d360f59	0.04444823
165	0xbe359271	-0.17731644
166	0x3e0d1675	0.13778098
167	0xbd2f3df3	-0.04278369
168	0x3e92791c	0.28608024
169	0xbdc4b685	-0.09605125
170	0xbdb4eda2	-0.08834387
171	0x3e02025a	0.1269621
172	0x3dab7589	0.083720274
173	0xbe7cc91d	-0.24686094
174	0x3dab429b	0.08362313
175	0xbc67d995	-0.014150997
176	0x3d37baa9	0.044855747
177	0x3e4855eb	0.19564025
178	0xbe038110	-0.12842202
179	0xbda43151	-0.08017219
180	0x3c94cf16	0.018165153
181	0x3dc629ec	0.09675965
182	0x3d9bb666	0.07603149
183	0xbf7513db	-0.9573342
184	0x3e016a95	0.12638314
185	0xbe2535f2	-0.1613386
186	0xbe65f866	-0.22458038
187	0xbe73125a	-0.2373747
188	0x3dede444	0.11615804
189	0x3d99cfb2	0.07510318
190	0xbdf1ed9a	-0.11812897
191	0xbe2c81f1	-0.16846444
192	0xbdafe068	-0.08587724
193	0xbe477e54	-0.19481784
194	0x3d07c6fc	0.03314875
195	0xbdbd98ec	-0.09257683
196	0x3def9065	0.11697463
197	0xbe254b68	-0.16142046
198	0x3e3738b2	0.17892721
199	0xbecbc4ac	-0.39798486
200	0x3dba0b57	0.09084194
201	0x3e3fec75	0.18742545
202	0x3d4887a1	0.04895747
203	0xbea610e9	-0.32434776
204	0x3e2e94b1	0.17048909
205	0x3e709e2a	0.23497835
206	0xbd06f3a1	-0.032947186
207	0xbdb97880	-0.09056187
208	0xbe26d23f	-0.1629114
209	0xbe306463	-0.17225794
210	0xbf064d88	-0.52462053
211	0x3e1dc085	0.15405472
212	0xbdd47460	-0.10373759
213	0xbe0b3ffb	-0.13598625
214	0xbe18ec46	-0.14933881
215	0x3e45f635	0.19332202
216	0xbe4032dd	-0.18769403
217	0xbd93b8ab	-0.07212957
218	0xbd041acd	-0.03225212
219	0xbdb7272b	-0.089430176
220	0x3e68785a	0.2270216
221	0xbbb510b5	-0.0055256733
222	0x3e25c7ca	0.16189495
223	0xbdc0203f	-0.093811505
224	0x3d82bdc2	0.0638385
225	0xbdf3f789	-0.11912448
226	0xbdc594b8	-0.096475065
227	0xbd739565	-0.059468646
228	0xbf569783	-0.8382494
229	0xbdcb2467	-0.099190526
230	0xbd3ffda3	-0.046872746
231	0x3ccfc099	0.025360392
232	0xbe4fccf6	-0.2029303
233	0x3e39ffdb	0.18164007
234	0xbd1762e4	-0.036959544
235	0x3dfcb3e8	0.12339002
236	0xbe51a03e	-0.20471284
237	0xbdc570b6	-0.096406385
238	0xbe3b42d4	-0.18287212
239	0x3d24172d	0.040061165
240	0x3e30b54d	0.17256661
241	0xbe03712b	-0.12836139
242	0x3dad134d	0.08450947
243	0x3f06237b	0.5239789
244	0x3e3d88c9	0.1850921
245	0xbe1d3788	-0.15353215
246	0xbf29b138	-0.6628604
247	0x3e2e0316	0.16993365
248	0xbd442fc2	-0.047897108
249	0xbd9784ec	-0.073984
250	0xbd158f51	-0.03651363
251	0xbd817b8c	-0.06322393
252	0xbe9b1a6c	-0.30293596
253	0x3e05a9b7	0.13053022
254	0xbc964e51	-0.018347891
255	0xbf087488	-0.5330281

2.bias f4 [256]
0	0xbe7d15f3	-0.24715404
1	0xbdcfa6b9	-0.10139222
2	0xbea41f55	-0.32055154
3	0xbe25da9e	-0.16196677
4	0xbd84573a	-0.0646195
5	0xbf0e80c1	-0.5566521
6	0xbd401652	-0.046896286
7	0xbd952029	-0.07281525
8	0xbe53c86e	-0.20681927
9	0x3be1675e	0.0068787774
10	0xbd09f14c	-0.033677384
11	0xbe2b4299	-0.16724624
12	0xbe6d7538	-0.23189247
13	0xbe821e8b	-0.25413927
14	0xbe85cc38	-0.2613237
15	0x3e0d9f27	0.13830243
16	0xbe229afb	-0.15879433
17	0xbdba311b	-0.090913974
18	0xbe2bba0f	-0.16770194
19	0xbe8664a9	-0.26248673
20	0xbe923766	-0.2855789
21	0xbe4d90f2	-0.20074823
22	0xbe254713	-0.16140394
23	0xbeb72a4a	-0.35774451
24	0xbe88b431	-0.26699975
25	0xbeea1ce3	-0.45725164
26	0xbdb98ec7	-0.09060436
27	0xbda85c63	-0.08220746
28	0xbe3b3169	-0.18280567
29	0xbe6b57e6	-0.2298275
30	0x3d186ecc	0.03721504
31	0xbe6f52dd	-0.23371454
32	0xbeedae77	-0.4642217
33	0xbe478821	-0.19485523
34	0xbda84730	-0.08216703
35	0x3e034e75	0.12822898
36	0xbda4da01	-0.080493934
37	0xbd939289	-0.07205684
38	0xbdc20fe9	-0.09475691
39	0xbdc06ce3	-0.093957685
40	0xbe0c8caa	-0.13725534
41	0xbef09c4f	-0.46994254
42	0xbda8b140	-0.08236933
43	0xbebd52db	-0.36977276
44	0xbe2bfb26	-0.16795024
45	0xbeda9d8f	-0.42698333
46	0xbf09d959	-0.5384727
47	0xbee4d6c1	-0.44695094
48	0xbdce7ac8	-0.100820124
49	0xbdc318f0	-0.09526241
50	0xbeb0e174	-0.34547007
51	0xbe8a932a	-0.27065402
52	0xbddfceb7	-0.109280996
53	0xbea22390	-0.31667757
54	0x3d8910cb	0.06692656
55	0xbe065099	-0.13116683
56	0xbeb2b693	-0.34904918
57	0xbce7c9be	-0.02829444
58	0x3d553e64	0.052061453
59	0xbe3fd0dd	-0.18732019
60	0xbe70d010	-0.2351687
61	0xbeca8e96	-0.3956191
62	0xbeee5e54	-0.46556342
63	0xbe3b5bb0	-0.18296695
64	0xbed83257	-0.42225906
65	0xbe2ec82a	-0.17068544
66	0xbdd4424a	-0.10364206
67	0xbecd4ca6	-0.4009754
68	0xbe66e1d4	-0.22547084
69	0xbd3c152d	-0.045918632
70	0xbf0f7aab	-0.5604655
71	0xbdb799ee	-0.08964907
72	0xbe9bbb12	-0.3041616
73	0xbdb34eeb	-0.08755287
74	0xbe92e5aa	-0.28690845
75	0xbe355bdc	-0.17710823
76	0xbf302662	-0.6880857
77	0xbe2d7f19	-0.16943015
78	0xbe2d6e9d	-0.16936727
79	0xbdce5cd1	-0.10076297
80	0xbe8de250	-0.27711725
81	0xbd5c6619	-0.053808305
82	0xbe6f01f4	-0.23340589
83	0xbe79d228	-0.24396574
84	0xbee01b5e	-0.4377088
85	0xbef3c682	-0.47612387
86	0xbe993612	-0.29924065
87	0xbecde4d9	-0.4021366
88	0xbe79cb9e	-0.2439408
89	0xbe8eb70f	-0.27874038
90	0xbdd67e8e	-0.10473357
91	0xbe2fb269	-0.17157902
92	0xbde7e8f6	-0.11323731
93	0xbe7c06ed	-0.24612017
94	0xbef5ea3c	-0.4803027
95	0xbe267117	-0.16254078
96	0xbe4f7760	-0.20260382
97	0xbe5191f9	-0.2046584
98	0xbdab6285	-0.083684005
99	0xbcfa386f	-0.030544488
100	0xbe78855d	-0.24269624
101	0xbe1e4e93	-0.15459661
102	0xbec1e6ce	-0.37871403
103	0xbe418c9f	-0.18901299
104	0xbe2fcc71	-0.17167832
105	0xbd9d5daa	-0.076838806
106	0xbe8848b2	-0.26617962
107	0xbe53dfbc	-0.20690817
108	0xbe949440	-0.29019356
109	0xbf208e1e	-0.62716854
110	0xbe1b0006	-0.15136728
111	0x3d9e7b0d	0.07738314
112	0xbdbb5f94	-0.091490895
113	0xbd982817	-0.074295215
114	0xbe8aa790	-0.27080965
115	0xbeb4859f	-0.35258195
116	0xbe8dc814	-0.2769171
117	0xbebb8082	-0.3662148
118	0xbe0e56db	-0.1390032
119	0xbe128dcc	-0.14311904
120	0xbd26c451	-0.040714566
121	0xbe6b0bd9	-0.22953738
122	0xbc6992be	-0.0142561775
123	0xbe788a2f	-0.24271463
124	0xbf08c525	-0.5342582
125	0xbe35d8b9	-0.17758454
126	0xbe67b403	-0.22627263
127	0xbf143494	-0.5789273
128	0xbe331f0f	-0.17492317
129	0xbe8e3d11	-0.27780965
130	0xbe548d5d	-0.20757051
131	0xbe092b3b	-0.13395397
132	0x3bbc7db0	0.005752288
133	0xbedae825	-0.42755237
134	0xbe214310	-0.15748239
135	0xbe49581a	-0.19662514
136	0xbe0ed4ac	-0.13948315
137	0x3dc1a15c	0.09454605
138	0xbd9e3883	-0.077256225
139	0xbcbadb96	-0.022809785
140	0xbe483aaa	-0.19553629
141	0xbf199abc	-0.6000173
142	0x3cfbdd3b	0.03074514
143	0xbf0b5073	-0.5441963
144	0xbe7dc55b	-0.24782316
145	0xbec061d3	-0.37574634
146	0xbf0e667d	-0.55625135
147	0xbe811d52	-0.25217682
148	0xbede88a6	-0.4346363
149	0xbe2d6b29	-0.1693541
150	0xbcb0c1c4	-0.02157677
151	0x3d3200a2	0.043457635
152	0xbdfffea6	-0.12499742
153	0xbe083763	-0.13302378
154	0xbeaa6f3e	-0.33287996
155	0xbd514ce9	-0.051098738
156	0xbe387f0c	-0.18017215
157	0xbea5fa4b	-0.3241752
158	0xbf1038f4	-0.56336904
159	0xbe787d40	-0.24266529
160	0xbdc25f67	-0.09490853
161	0xbea5ad5e	-0.3235883
162	0xbeec6970	-0.46174192
163	0xbe0db762	-0.13839486
164	0xbdea46ca	-0.11439283
165	0xbec40757	-0.3828685
166	0xbe1c16e7	-0.15243112
167	0xbdab1008	-0.08352667
168	0xbee62926	-0.4495327
169	0xbead5988	-0.3385737
170	0xbeb2fec6	-0.34960002
171	0xbe52db0c	-0.20591372
172	0xbe57459b	-0.21022646
173	0xbd32043b	-0.043461066
174	0xbe2e0e82	-0.16997722
175	0xbd79d874	-0.06099744
176	0xbedb8487	-0.42874548
177	0xbdbe10c5	-0.09280542
178	0xbdcec156	-0.1009547
179	0xbe76b055	-0.24090703
180	0xbe38abe5	-0.18034323
181	0xbeac345d	-0.336337
182	0xbe3ad0e6	-0.18243751
183	0xbe3f613d	-0.18689437
184	0xbdb2f62f	-0.08738362
185	0xbecaf93e	-0.39643282
186	0xbdd45da6	-0.103694245
187	0x3e119ece	0.14220735
188	0x3dd77fb8	0.10522407
189	0xbe24c651	-0.16091277
190	0x3d6dcebf	0.058058497
191	0xbd166218	-0.036714643
192	0xbd888f1d	-0.06667922
193	0xbe9c47de	-0.3052358
194	0xbdc1b22b	-0.09457811
195	0x3d90512c	0.07046732
196	0xbe1f36ac	-0.155482
197	0xbd2f1ce4	-0.04275216
198	0xbdfe7146	-0.12423949
199	0xbf0beb74	-0.5465615
200	0xbc064f81	-0.008197666
201	0xbedf0cea	-0.4356454
202	0xbe3e027d	-0.18555637
203	0xbe92aac2	-0.28645903
204	0xbe5b410e	-0.21411535
205	0xbf0193ad	-0.5061596
206	0x3c7b46a4	0.015336666
207	0xbe0f2f2e	-0.13982841
208	0xbd384086	-0.04498341
209	0xbf012903	-0.50453204
210	0xbe8427b3	-0.25811538
211	0xbe8aa6b7	-0.27080318
212	0xbe08b9c4	-0.13352114
213	0xbef54c0a	-0.47909576
214	0xbe83248a	-0.25613815
215	0xbde55301	-0.11197472
216	0xbe477ba7	-0.19480763
217	0xbe059ad7	-0.13047348
218	0xbe140d14	-0.14458114
219	0xbe084309	-0.13306822
220	0xbe947b68	-0.29000401
221	0xbeae511f	-0.34046265
222	0xbe384578	-0.1799525
223	0xbe80106f	-0.25012538
224	0xbe068b7e	-0.1313915
225	0xbdd2bd80	-0.102900505
226	0xbe216582	-0.15761378
227	0xbe8ae937	-0.27131054
228	0xbddfe2ef	-0.10931956
229	0xbe217487	-0.15767108
230	0xbee125e4	-0.4397422
231	0xbe4a0795	-0.19729455
232	0xbd86c75c	-0.065809935
233	0xbd35fada	-0.044428684
234	0xbda54088	-0.08068949
235	0xbef590e1	-0.47962096
236	0xbedb3cf1	-0.42819932
237	0xbd283122	-0.04106248
238	0xbdfb77d2	-0.12278713
239	0xbdebee72	-0.11520089
240	0xbe178774	-0.14797765
241	0xbe315141	-0.17316152
242	0xbe201ac9	-0.15635218
243	0xbe051e57	-0.12999855
244	0x3c838efd	0.016059393
245	0xbd9556c7	-0.07291942
246	0xbf03c648	-0.5147443
247	0xbdb37e6e	-0.08764349
248	0xbee4c4de	-0.44681448
249	0xbc3b63a6	-0.011437332
250	0x3e1dea44	0.15421396
251	0x3d12c587	0.035832908
252	0xbe4303e9	-0.1904446
253	0xbe1dcbe9	-0.15409817
254	0xbdd05182	-0.101717964
255	0xbe01c9b7	-0.12674604

4.bias f4 [128]
0	0xbd6d5aa4	-0.05794777
1	0xbe978042	-0.2959004
2	0xbe14a25e	-0.14515063
3	0xbe792357	-0.24329887
4	0xbe89a8f1	-0.26886705
5	0xbe55587a	-0.20834532
6	0xbec0995a	-0.37616998
7	0xbdec61f4	-0.115421206
8	0xbdbf6bac	-0.09346709
9	0xbe8a0dd7	-0.26963684
10	0xbdd9bbea	-0.10631545
11	0xbe0daed3	-0.13836221
12	0xbe43631b	-0.19080774
13	0xbdb9cab0	-0.09071863
14	0xbd8a51dd	-0.067538954
15	0xbeba4d14	-0.3638693
16	0xbda2a91c	-0.07942411
17	0xbe016631	-0.12636639
18	0xbe0975d2	-0.13423851
19	0xbecf224b	-0.4045585
20	0xbe2dc44e	-0.16969416
21	0xbe2e120b	-0.1699907
22	0xbf123eae	-0.5712689
23	0xbe66b367	-0.22529374
24	0xbdeeb157	-0.11654919
25	0xbe86e11b	-0.26343617
26	0xbec71d19	-0.38889387
27	0xbf091cb2	-0.5355941
28	0xbe2fb023	-0.17157035
29	0xbe98fa48	-0.2987845
30	0xbdb30e54	-0.08742967
31	0xbe99dd4f	-0.30051658
32	0xbe65688a	-0.2240316
33	0xbe3fa3a0	-0.18714762
34	0xbdd04fad	-0.10171447
35	0x3c9352aa	0.017983753
36	0xbf6659f2	-0.89980996
37	0xbda79b61	-0.08183933
38	0xbe5c3d69	-0.21507801
39	0xbde1e10e	-0.11029254
40	0xbd24224d	-0.040071774
41	0xbe115f47	-0.14196502
42	0xbe4c2b86	-0.19938478
43	0xbe3ecfca	-0.18633953
44	0xbd9fc9d9	-0.07802171
45	0xbe267c9a	-0.16258469
46	0xbdc097af	-0.09403931
47	0xbe2fecaf	-0.17180131
48	0xbd7978aa	-0.06090609
49	0xbec974ef	-0.39347026
50	0xbe08a19d	-0.133429
51	0xbe4dc971	-0.20096375
52	0x3cb3240c	0.021867774
53	0xbdf4522a	-0.11929734
54	0xbe46a4a5	-0.19398744
55	0xbdcb1fdb	-0.09918185
56	0xbe418dcc	-0.18901747
57	0xbe2e13f2	-0.16999796
58	0xbe21e0b7	-0.15808378
59	0xbe36a726	-0.178372
60	0xbe9677aa	-0.2938817
61	0xbf19de0d	-0.6010445
62	0xbeea3d3a	-0.45749837
63	0xbe863318	-0.26210856
64	0xbe2a33c4	-0.1662131
65	0xbde1477c	-0.10999963
66	0xbe2d3fb5	-0.16918834
67	0xbeb715b3	-0.35758743
68	0xbe8d5a11	-0.27607778
69	0xbd034b86	-0.032054447
70	0xbe82ad33	-0.25522766
71	0xbe83d30f	-0.25746962
72	0xbe4e018f	-0.20117782
73	0xbe652e62	-0.22380975
74	0xbed135a1	-0.40861228
75	0x3d2df184	0.042466655
76	0xbdd80e18	-0.10549563
77	0xbe599506	-0.21248254
78	0xbe362962	-0.17789224
79	0xbe191c51	-0.14952208
80	0xbdbd6ba8	-0.092490494
81	0xbf0bcd00	-0.5460968
82	0xbe72df9b	-0.23718111
83	0xbe363801	-0.17794801
84	0xbe126611	-0.14296748
85	0xbe383ff8	-0.17993152
86	0xbdb86522	-0.090036646
87	0xbd272729	-0.04080883
88	0xbe85f9d8	-0.26167178
89	0xbe0bbd01	-0.13646318
90	0x3dccdc9c	0.100030154
91	0xbebf45e8	-0.37358022
92	0xbe4d0f5b	-0.20025389
93	0xbe17b9e5	-0.14817007
94	0xbdc0d533	-0.094156645
95	0xbac2a7cf	-0.0014851036
96	0xbe4678ff	-0.19382094
97	0xbe59e201	-0.2127762
98	0xbe9d44ef	-0.30716655
99	0xbeb34a81	-0.3501778
100	0xbe9a8250	-0.30177546
101	0xbe2d3048	-0.16912949
102	0xbea8da4e	-0.32979053
103	0xbe0df89f	-0.13864373
104	0xbe112752	-0.14175156
105	0xbe8e3953	-0.2777811
106	0xbdff4563	-0.12464406
107	0xbdbcfd91	-0.092280515
108	0xbe482eb4	-0.19549066
109	0xbda8039d	-0.08203814
110	0xbd91d146	-0.07119994
111	0xbe040063	-0.12890773
112	0xbe8ac809	-0.2710574
113	0xbd8d531d	-0.06900618
114	0xbe2cc8d0	-0.16873479
115	0xbe65d660	-0.22445059
116	0xbecf8219	-0.40528944
117	0xbce7ba67	-0.028287126
118	0xbe46e1f5	-0.19422133
119	0xbd062890	-0.032753527
120	0xbe9330c9	-0.28748158
121	0xbcc4c54b	-0.024019858
122	0xbe0dcd5f	-0.13847874
123	0x3d96c42f	0.07361638
124	0xbe859dff	-0.26097104
125	0xbe576946	-0.21036252
126	0xbe95aac5	-0.2923185
127	0xbe90a310	-0.28249407

6.bias f4 [8]
0	0x3e3faa1d	0.18717237
1	0x3e2a7e65	0.16649778
2	0xbe8159b5	-0.25263754
3	0xbd824a09	-0.06361777
4	0xbe06e032	-0.13171461
5	0x3b7c18a6	0.003846684
6	0x3dff9b3f	0.12480783
7	0xbdcc7657	-0.09983509

onnx::MatMul_24 f4 [44, 512]
0	0xbd2bc458	-0.041935295
1	0x3e5c4af3	0.21512966
2	0xbceea422	-0.029130999
3	0x3df71114	0.12063804
4	0xbdb364b7	-0.08759444
5	0xbe1251ce	-0.14289019
6	0xbe1a9f0b	-0.15099733
7	0xbd7161f8	-0.05893132
8	0x3e46bd50	0.19408154
9	0xbda64f00	-0.08120537
10	0x3e0ee46a	0.1395432
11	0xbea06b57	-0.31331894
12	0x3de5fadd	0.11229489
13	0x3e3db09d	0.18524404
14	0x3eca67c5	0.39532295
15	0x3da5e6b8	0.08100647
16	0x3d83797c	0.06419656
17	0x3e5e212f	0.21692346
18	0xbe15492e	-0.14578697
19	0x3c250986	0.010073071
20	0xbe396806	-0.18106088
21	0xbe3ce5e5	-0.18447073
22	0xbe1b48cb	-0.15164487
23	0x3dc14b0c	0.09438142
24	0xbd3df890	-0.046379626
25	0x3cc1d128	0.023659304
26	0x3cfe809a	0.031067181
27	0x3b5ae258	0.0033399072
28	0x3c3415ab	0.010991494
29	0xbb9780a7	-0.004623491
30	0xbd7ddddc	-0.06197916
31	0x3e14f9ba	0.14548388
32	0x3bcef1fe	0.006315469
33	0xbd3f9609	-0.046773944
34	0x3f23040c	0.6367805
35	0x3e78d62a	0.24300447
36	0xbd634ed4	-0.0554951
37	0x3dd48916	0.103777096
38	0x3e81bb94	0.25338423
39	0x3d5b3dde	0.053525798
40	0x3e23dd59	0.16002406
41	0xbd2f1eeb	-0.042754095
42	0xbdd37247	-0.10324531
43	0x3e117edb	0.14208548
44	0x3dd27e87	0.102780394
45	0xbd2152e5	-0.039385695
46	0x3d49bf1b	0.049254518
47	0x3e47a062	0.19494775
48	0x3e1d8002	0.15380862
49	0x3e51ce9d	0.20488973
50	0xbd33c415	-0.04388817
51	0xbdfa3468	-0.12217027
52	0xbecbe22a	-0.39820987
53	0xbce16091	-0.027511867
54	0x3e57ec3b	0.21086209
55	0xbe5acb3a	-0.21366587
56	0x3dcc1be7	0.099662594
57	0x3e9a6ae8	0.30159688
58	0xbe1496e2	-0.14510682
59	0xbcfa8de6	-0.03058524
60	0xbe344775	-0.17605384
61	0xbeafa7e3	-0.34307775
62	0x3df863b8	0.12128395
63	0xbe1c8a11	-0.15287043
64	0xbe6f5fbb	-0.23376362
65	0x3db0c059	0.086304374
66	0xbcd43180	-0.02590251
67	0xbd06778c	-0.032828853
68	0x3dbdb5e5	0.09263209
69	0x3af5c4e7	0.0018750698
70	0xbd52e324	-0.05148615
71	0x3e86d127	0.26331446
72	0x3e17df7a	0.14831343
73	0xbd39965c	-0.04530941
74	0xbe053c1b	-0.1301121
75	0xbd1f6704	-0.038916603
76	0xbd31034b	-0.04321603
77	0x3dcecdb6	0.1009783
78	0xbdc13f41	-0.09435893
79	0x3dc5ac88	0.09652048
80	0x3dc6fe6f	0.09716498
81	0x3cce1a06	0.025158893
82	0xbe864757	-0.26226303
83	0x3e6b3c38	0.2297219
84	0xbe530c9f	-0.20610283
85	0x3dab030f	0.08350193
86	0x3dbd70b8	0.09250015
87	0x3cc78834	0.024356939
88	0xbde4b55a	-0.111674026
89	0x3ed4812c	0.415048
90	0x3d343651	0.043997113
91	0x3de49aea	0.1116236
92	0x3e39fc50	0.18162656
93	0xbe479f6c	-0.19494408
94	0x3d5007ad	0.05078857
95	0x3cc73ebf	0.024321912
96	0x3d3c3cb5	0.045956332
97	0x3ce3048b	0.027712127
98	0x3de612d7	0.11234062
99	0xbe8d3d63	-0.27585897
100	0x3e300358	0.17188776
101	0x3b8e4a3b	0.004342345
102	0x3df15284	0.11783317
103	0x3d063950	0.0327695
104	0xbe147904	-0.14499289
105	0xbea3f87e	-0.32025522
106	0x3dc91759	0.09818906
107	0x3d2c8403	0.042118084
108	0x3e8510f8	0.2598951
109	0xbde63b9e	-0.1124184
110	0x3dce968d	0.10087309
111	0xbcd8db28	-0.02647169
112	0xbc8f4757	-0.017490072
113	0xbd7ba733	-0.06143875
114	0x3e782825	0.24234064
115	0xbd86540f	-0.06559002
116	0xbe225832	-0.15853956
117	0x3e471f95	0.19445641
118	0x3d9d4545	0.07679228
119	0xbdd8df27	-0.10589438
120	0x3e61260c	0.2198717
121	0x3e9a321f	0.30116364
122	0x3d4478bb	0.0479667
123	0xbd1bb66f	-0.03801578
124	0xbe19f6f3	-0.1503561
125	0x3d52489f	0.051338788
126	0x3eaa8f52	0.3331247
127	0xbd0fe589	-0.03513101
128	0xbdaeb7b1	-0.0853113
129	0x3de2d732	0.110762015
130	0x3d5a258c	0.053258464
131	0xbc6edf2d	-0.014579576
132	0x3e2b0014	0.16699249
133	0xbd38e128	-0.0451366
134	0x3ded839d	0.11597369
135	0x3e86edcc	0.263533
136	0xbce8da8d	-0.028424526
137	0x3e218713	0.15774183
138	0x3c0598d6	0.008154115
139	0x3e48a658	0.19594705
140	0xbe30ea1d	-0.17276807
141	0xbd94a134	-0.072573096
142	0xbd6a94ae	-0.0572707
143	0xbd18b278	-0.037279576
144	0x395e1846	0.00021180612
145	0x3eb22bf8	0.3479917
146	0x3d8537cf	0.06504785
147	0xbd593dee	-0.053037576
148	0x3e833e02	0.25633246
149	0xbd762387	-0.060092475
150	0xbe437158	-0.19086206
151	0x3dd76602	0.10517503
152	0xbdc1e804	-0.094680816
153	0x3e15bd63	0.14623027
154	0xbde1d335	-0.11026613
155	0xbe09a87b	-0.13443176
156	0x3d6c7334	0.057727054
157	0x3df5d8be	0.12004231
158	0xbd2bc6ed	-0.041937757
159	0xbe216636	-0.15761647
160	0x3e83abca	0.25717002
161	0x3d3fe263	0.04684676
162	0x3e3df315	0.1854976
163	0xbcdcb5d2	-0.026942167
164	0x3dd99fcd	0.10626183
165	0xbe37460c	-0.17897815
166	0xbdc57243	-0.09640934
167	0xbe538f51	-0.2066014
168	0xbe81a4b7	-0.2532098
169	0xbc48e424	-0.012261424
170	0x3d71d8ba	0.059044577
171	0xbc124eb6	-0.008929899
172	0xbe20934f	-0.15681194
173	0x3e04e073	0.12976246
174	0xbe0e3e88	-0.13891041
175	0x3e9a1a06	0.3009798
176	0x3dcd0947	0.10011535
177	0x3d4169c9	0.047220025
178	0xbdb01002	-0.08596803
179	0xbe8b1a85	-0.2716867
180	0xbe576580	-0.21034813
181	0x3db64da3	0.08901527
182	0x3e7056d1	0.23470618
183	0x3da4cf72	0.080473796
184	0xbdb5fefd	-0.08886526
185	0x3e963b65	0.2934219
186	0x3c5b6cd3	0.013392645
187	0x3dff378d	0.12461767
188	0x3cfebdd0	0.031096369
189	0xbe687b9e	-0.22703406
190	0x3f16ab7c	0.58855414
191	0xbd2bc5b9	-0.04193661
192	0x3c9a41b4	0.018830158
193	0xbe0d438f	-0.13795303
194	0x3d1e376f	0.038627084
195	0x3f3d4f10	0.73948765
196	0x3d8872bb	0.06662508
197	0x3d09873b	0.03357623
198	0x3bdd1880	0.0067473054
199	0x3e31b2ec	0.1735341
200	0x3e8927fe	0.26788324
201	0x3d04f715	0.0324622
202	0xbe0f4161	-0.13989784
203	0xbe87d343	-0.26528367
204	0xbdacef48	-0.08444077
205	0x3e044e3a	0.12920466
206	0xbe5ac904	-0.21365744
207	0x3e561c63	0.20909266
208	0x3dc36592	0.095408574
209	0x3eb4eb1e	0.3533563
210	0xbd91ce7e	-0.071194634
211	0x3dbcea19	0.09224338
212	0x3e8fa16a	0.28052837
213	0xbd9c0763	-0.076185964
214	0x3eef0ebf	0.46690938
215	0xbdaa71fd	-0.08322523
216	0xbd912c0f	-0.07088482
217	0x3e32ef4f	0.17474101
218	0x3c08bc2e	0.008345647
219	0x3dca22cd	0.09869919
220	0xbe341cf5	-0.17589171
221	0x3ec1d5fe	0.37858576
222	0x3d86b4d9	0.06577463
223	0xbd85fe5d	-0.065426566
224	0x3d677457	0.056507435
225	0x3e409ee8	0.18810618
226	0x3e313dc6	0.17308721
227	0xbdc62404	-0.09674838
228	0x3d48a095	0.048981268
229	0x3e467223	0.19379477
230	0x3e587be1	0.21141006
231	0xbd65e79c	-0.056129083
232	0x3e06838b	0.13136117
233	0x3d4401fc	0.047853455
234	0x3dfcdcef	0.12346827
235	0xbd15c0d3	-0.036560845
236	0x3e3724e0	0.1788516
237	0xbea40ba2	-0.32040125
238	0xbd8d3376	-0.06894581
239	0xbef3ee65	-0.47642818
240	0xbdc252f7	-0.094884805
241	0x3da343e5	0.07971934
242	0xbd7302a6	-0.059328698
243	0x3dfacdde	0.12246297
244	0x3db0e317	0.08637064
245	0x3ddbc09d	0.107300974
246	0xbd38d897	-0.04512843
247	0xbe57b5b9	-0.21065415
248	0xbb256665	-0.0025238034
249	0xbd928898	-0.071549594
250	0xbd99e528	-0.07514411
251	0x3e583468	0.21113741
252	0x3cfce9ce	0.030873206
253	0xbdf37a0c	-0.11888513
254	0xbe41881e	-0.18899581
255	0x3bec9f51	0.0072211404

onnx::MatMul_25 f4 [512, 256]
0	0xbe4f0fae	-0.20220825
1	0xbe2f8318	-0.17139852
2	0xbe17e050	-0.14831662
3	0x3eba404f	0.3637719
4	0xbe213279	-0.1574191
5	0xbd560ef4	-0.052260354
6	0x3c6f970f	0.0146234175
7	0xbe8abb85	-0.2709619
8	0xbd9c033b	-0.07617804
9	0x3dae405f	0.085083716
10	0xbd767297	-0.060167875
11	0xbc9e9677	-0.019358857
12	0xbdd6e788	-0.1049338
13	0xbe10e42d	-0.14149542
14	0xbcd3fc6a	-0.025877196
15	0x3dc4b9cf	0.09605753
16	0x3cce38ba	0.025173534
17	0xbdf1f73c	-0.11814734
18	0xbe035cd1	-0.12828375
19	0xbe92297b	-0.28547272
20	0x3df79bc2	0.12090255
21	0x3d783007	0.060592677
22	0xbe0db7e6	-0.13839683
23	0xbd35732c	-0.04429929
24	0xbc7327c4	-0.014841024
25	0xbeb54b7c	-0.35409153
26	0xbeb81b30	-0.35958242
27	0x3e3956aa	0.18099466
28	0xbd89e9c9	-0.06734044
29	0xbd814da9	-0.063136406
30	0xbd2e420d	-0.04254346
31	0x3efb2d03	0.4905778
32	0xbd331cf1	-0.043728773
33	0xbdec2d7a	-0.115321115
34	0x3e716428	0.23573363
35	0xbdbb7036	-0.09152262
36	0x3e347a98	0.17624891
37	0x3e4d841f	0.20069931
38	0xbe174213	-0.14771299
39	0xbec997a9	-0.3937352
40	0x3cd4dfde	0.025985654
41	0xbeb1e373	-0.34743842
42	0xbe351ab9	-0.17685975
43	0xbcd7d739	-0.026347743
44	0xbeb9e6c9	-0.36308888
45	0x3dcf59b5	0.10124532
46	0xbe8e0f70	-0.27746153
47	0x3cff233f	0.031144736
48	0xbdf18a14	-0.117939144
49	0x3d09fb81	0.03368712
50	0xbe4e9ccd	-0.20177002
51	0xbe22b7f4	-0.15890485
52	0xbe537df8	-0.20653522
53	0x3e749a72	0.23887041
54	0x3dfe1ba6	0.12407617
55	0x3e43aa60	0.19107962
56	0x3d6c2889	0.057655845
57	0xbe5884c6	-0.21144399
58	0x3d4d4f3f	0.050124403
59	0x3e87f5a0	0.26554585
60	0xbe69dea9	-0.22838844
61	0xbca20df3	-0.019782042
62	0xbab6eb49	-0.0013955618
63	0xbe60b04f	-0.21942256
64	0xbe115ca6	-0.14195499
65	0x3e413c36	0.18870625
66	0x3c883084	0.016624697
67	0xbe272a78	-0.16324794
68	0xbe997545	-0.29972282
69	0xbe24d359	-0.16096248
70	0x3e03a3a6	0.12855396
71	0x3d7fe206	0.062471412
72	0xbd4b67ea	-0.049659647
73	0x3ce04b2a	0.027379591
74	0x3ddad613	0.10685363
75	0xbbbb362c	-0.005713245
76	0x3e9d9922	0.30780894
77	0xbdd189d5	-0.102313675
78	0xbe7b7ba5	-0.24558885
79	0xbec39304	-0.38198102
80	0x3e5fca29	0.21854462
81	0x3dc20af7	0.09474748
82	0xbe61fc31	-0.2206886
83	0xbe00aafc	-0.12565225
84	0xbe4863d6	-0.19569334
85	0xbcbe3783	-0.02321983
86	0xbe5b5f70	-0.21423125
87	0xbc476b80	-0.012171626
88	0x3ec242c4	0.37941563
89	0xbe17ee58	-0.14837015
90	0xbe6174c8	-0.22017205
91	0xbdd07a43	-0.101795696
92	0x3d5ee67c	0.054419026
93	0x3dc5735d	0.096411444
94	0x3ea26967	0.3172104
95	0x3ce10a37	0.027470691
96	0xbe109c10	-0.14122033
97	0xbead011b	-0.33789906
98	0x3e80ffcb	0.25195155
99	0xbd26f83d	-0.040764082
100	0xbd3af729	-0.045645867
101	0x3ebc6d62	0.36802202
102	0xbdeac20f	-0.11462795
103	0xbe00823a	-0.12549677
104	0xbf01527b	-0.5051648
105	0xbdb52284	-0.08844474
106	0x3e6b69a5	0.22989519
107	0x3b9d6485	0.0048032426
108	0x3d9df653	0.07712998
109	0x3d9f8072	0.07788171
110	0x3d376df3	0.04478259
111	0xbd64d247	-0.0558646
112	0xbe44168d	-0.19149227
113	0x3d8cddeb	0.06878265
114	0x3d91fa30	0.071277976
115	0xbe3d419d	-0.1848206
116	0x39c81b18	0.0003816716
117	0x3e7832d6	0.24238142
118	0xbe6152d3	-0.22004251
119	0x3c29e091	0.010368482
120	0xbe0f9f8b	-0.14025705
121	0x3ea066ce	0.31328434
122	0xbdedbea4	-0.116086274
123	0x3ca3acbc	0.019979827
124	0x3daa1338	0.08304447
125	0xbc8afbf4	-0.016965844
126	0xbdc7b2fa	-0.09750934
127	0xbe3bcbda	-0.18339482
128	0xbe1cb2ea	-0.15302625
129	0xbe80b013	-0.25134334
130	0xbeb3c8ed	-0.35114232
131	0xbd9d0d96	-0.07668607
132	0xbdf9e7a6	-0.122023866
133	0xbde50ee8	-0.11184484
134	0xbde0cb7e	-0.10976313
135	0x3d3eae4d	0.046552945
136	0x3e080694	0.1328376
137	0xbea32466	-0.31863707
138	0x3d390c33	0.04517765
139	0x3d4c1aa1	0.049830083
140	0x3db7b0b8	0.08969253
141	0xbd35c8bd	-0.044380892
142	0x3e5edf29	0.21764816
143	0x3e0bc202	0.13648227
144	0x3e0eab3a	0.13932505
145	0xbede3862	-0.43402392
146	0xbe5a71bd	-0.2133245
147	0xbe403458	-0.18769968
148	0xbe19e54c	-0.15028876
149	0x3ea458be	0.32098955
150	0x3d3c4975	0.04596849
151	0xbef6f51b	-0.48233876
152	0x3cb7de77	0.022444947
153	0x3e6207fe	0.22073361
154	0x3e0b1e02	0.13585666
155	0xbe9f20a7	-0.310796
156	0x3c697610	0.01424934
157	0xbd569902	-0.052392013
158	0xbd1b822a	-0.03796593
159	0xbd224204	-0.03961374
160	0xbd9c0574	-0.076182276
161	0x3e221b48	0.1583072
162	0xbd145833	-0.036216926
163	0xbe511640	-0.20418644
164	0xbe51744f	-0.20454524
165	0xbe6bbdec	-0.23021668
166	0xbcd895a2	-0.026438538
167	0xbd48d17f	-0.049027916
168	0xbb981582	-0.004641236
169	0xbde93b50	-0.11388266
170	0x3df2415a	0.11828871
171	0x3e7750a8	0.24151862
172	0xbd035378	-0.032062024
173	0xbe40de80	-0.18834877
174	0x3d97b848	0.07408196
175	0xbbe53a11	-0.0069954474
176	0x3e53167f	0.2061405
177	0x3e02ea86	0.12784776
178	0xbd251b9c	-0.040309533
179	0x3e6445c2	0.22292235
180	0xbe784f32	-0.2424896
181	0xbd910682	-0.070813194
182	0xbe8b92bc	-0.27260387
183	0x3e536458	0.20643747
184	0xbce978b5	-0.02849994
185	0xbe9e9885	-0.30975738
186	0x3d77a8d8	0.060463756
187	0x3e6125b5	0.2198704
188	0xbf44eac5	-0.7692073
189	0x3be189df	0.0068828906
190	0x3c153f66	0.009109354
191	0xbe8ba8eb	-0.27277312
192	0x3e09692f	0.1341903
193	0x3d3bd179	0.045854066
194	0x3dae7495	0.0851833
195	0xbe96fab5	-0.2948815
196	0xbee31df7	-0.443588
197	0x3c6fe020	0.014640838
198	0xbe5bb46c	-0.21455544
199	0x3d647168	0.055772215
200	0xbe1f5275	-0.15558799
201	0xbe97d106	-0.2965166
202	0x3e3e81d6	0.18604216
203	0x3e68affe	0.22723386
204	0xbdc2a975	-0.095049776
205	0xbe1db3d2	-0.15400627
206	0xbde605bc	-0.112315625
207	0xbde71ece	-0.112851724
208	0x3ddec135	0.10876695
209	0xbd0eb615	-0.034841616
210	0xbe038498	-0.12843549
211	0xbea217ee	-0.31658882
212	0xbe2109e6	-0.15726432
213	0x3d73276a	0.05936376
214	0xbe6686ca	-0.22512355
215	0x3e1747f9	0.14773549
216	0x3d623a9c	0.055231676
217	0xbdc7fabe	-0.09764622
218	0x3dcd6f5d	0.100310065
219	0xbed641f7	-0.41847202
220	0xbdb07960	-0.086169004
221	0xbe189ccd	-0.14903565
222	0xbe847ec1	-0.25877956
223	0x3e785231	0.24250104
224	0x3e22887c	0.15872377
225	0x3e3f3596	0.18672785
226	0x3df72afb	0.12068745
227	0xbdac6fc1	-0.08419753
228	0x3dfaccb0	0.12246072
229	0x3e2c5ec2	0.16833022
230	0xbe9cccb2	-0.3062492
231	0xbd9dbc10	-0.07701886
232	0xbe568dba	-0.20952502
233	0xbe3041cc	-0.172126
234	0xbe352c41	-0.17692663
235	0xbe912c67	-0.2835419
236	0x3e0d22a1	0.13782741
237	0xbe3ec56c	-0.18629998
238	0xbda0929a	-0.07840462
239	0xbe9efc41	-0.3105183
240	0x3e0701a4	0.1318422
241	0xbeb093d6	-0.3448779
242	0x3c16071b	0.0091569675
243	0x3d57d32d	0.052691627
244	0xbe5f5b85	-0.21812256
245	0xbe84d5e4	-0.25944436
246	0xbd250ce7	-0.040295508
247	0xbd983065	-0.074311055
248	0xbe72a66c	-0.23696297
249	0xbd935ab5	-0.07195035
250	0x3df95285	0.121739425
251	0x3c588e78	0.013217561
252	0xbe4ecb70	-0.20194793
253	0xbcbd3c09	-0.023099916
254	0x3e74f58b	0.23921792
255	0x3e062b98	0.13102567

onnx::MatMul_26 f4 [256, 128]
0	0xbd6df58a	-0.058095492
1	0x3e8dfcf6	0.27732056
2	0xbe77c2fa	-0.24195471
3	0x3e97969f	0.29607102
4	0x3e5acef4	0.21368009
5	0xbe649da2	-0.22325757
6	0xbe5030d1	-0.20331122
7	0x3ca097c0	0.01960361
8	0x3e8461f4	0.25855982
9	0xbe274848	-0.16336167
10	0xbd71945c	-0.058979377
11	0x3e441f76	0.19152626
12	0xbbe7abcd	-0.007070041
13	0xbe4cb711	-0.1999171
14	0xbd60faa5	-0.054926533
15	0x3e2f96c3	0.17147355
16	0xbea834c4	-0.32852757
17	0x3eaf25c3	0.34208497
18	0x3dd73ba7	0.10509425
19	0xbe3ab7d5	-0.18234189
20	0x3ea31a8e	0.31856197
21	0xbd176517	-0.03696164
22	0x3d1d9750	0.03847438
23	0xbde8638b	-0.11347111
24	0xbde46789	-0.1115256
25	0x3e71b8ed	0.236057
26	0xbdcc1a1e	-0.09965919
27	0xbe1f9a06	-0.15586099
28	0x3cd7ef08	0.026359096
29	0xbd2e0b33	-0.04249115
30	0xbd918a15	-0.07106415
31	0xbd9bf1d3	-0.07614484
32	0x3e5e97b3	0.21737556
33	0xbd138179	-0.036012147
34	0xbda905e5	-0.082530774
35	0xbe6c15da	-0.2305521
36	0x3d995162	0.07486226
37	0xbe3de00c	-0.18542498
38	0x3d220383	0.03955413
39	0x3d5f2305	0.054476757
40	0xbdf786dd	-0.1208627
41	0xbc9af069	-0.018913465
42	0xbd943fd7	-0.07238739
43	0xbcc3b265	-0.023888776
44	0xbd4bcfa1	-0.049758557
45	0xbd9373eb	-0.07199844
46	0xbdcbb5ef	-0.099468105
47	0xbea06fc6	-0.31335276
48	0x3e328869	0.17434849
49	0xbe7f4420	-0.24928331
50	0xbe17733a	-0.14790049
51	0x3dc10903	0.09425547
52	0x3d187cf5	0.037228543
53	0xbe20632e	-0.15662834
54	0x3dcd54c0	0.100259304
55	0x3e9355ed	0.28776494
56	0x3d999a24	0.07500103
57	0x3de34221	0.110965975
58	0x3d9b3168	0.07577783
59	0xbd985c7c	-0.07439515
60	0xbe4e4b5c	-0.20145935
61	0xbe80617b	-0.25074372
62	0x3ce2a960	0.027668655
63	0xbde25f6c	-0.110533565
64	0xbe2eef88	-0.17083561
65	0x3e65d297	0.22443615
66	0xbe8eb095	-0.27869096
67	0xbe175336	-0.14777836
68	0xbdb42bd4	-0.08797422
69	0xbd796d73	-0.060895395
70	0xbe473e39	-0.1945733
71	0xbda1684b	-0.078812204
72	0xbe4c8f12	-0.19976452
73	0xbc4b67a9	-0.012414851
74	0x3e0ad7e6	0.13558921
75	0x3e03a6f6	0.1285666
76	0x3e844283	0.25831994
77	0x3def793f	0.11693048
78	0xbe3c3dd6	-0.18382964
79	0xbd976b3f	-0.073935024
80	0xbe3055e0	-0.17220259
81	0xbd282bb0	-0.04105729
82	0x3e6384f8	0.22218692
83	0xbdec5f50	-0.11541617
84	0xbed93a6b	-0.42427382
85	0x3e7a61b9	0.2445134
86	0xbcf7d921	-0.030254902
87	0xbc3767b8	-0.011194162
88	0xbe011814	-0.12606841
89	0x3e1ac989	0.15115942
90	0xbec41d39	-0.38303545
91	0x3db4d7ac	0.08830199
92	0xbc6cf11d	-0.014461783
93	0x3d47285a	0.048622467
94	0x3e5ca702	0.21548083
95	0xbe34a7e5	-0.17642172
96	0x3e3d9ef5	0.18517669
97	0x39572d78	0.00020520936
98	0xbe1a57f5	-0.15072615
99	0x3e3836c4	0.17989641
100	0x3decdf29	0.11566002
101	0xbe3abcab	-0.18236034
102	0x3eb7de4a	0.3591178
103	0xbe24bcdf	-0.16087674
104	0xba9b9490	-0.0011869837
105	0xbccb2138	-0.024796113
106	0xbe51dab6	-0.20493588
107	0xbb57491f	-0.003284998
108	0xbbd2cd12	-0.0064331377
109	0xbdb464e9	-0.088083096
110	0xbe971efb	-0.29515824
111	0x3ef0734f	0.46962973
112	0x3aed69ed	0.0018113233
113	0x3e1f4940	0.15555286
114	0xbe9bc9df	-0.30427453
115	0xbd8ac436	-0.067757055
116	0x3e172c83	0.14763074
117	0xbdf14809	-0.11781318
118	0x3de038b1	0.10948313
119	0xbccd77bb	-0.025081506
120	0x3e0b7b25	0.13621195
121	0xbdbe69d7	-0.09297531
122	0x3dab8d33	0.08376541
123	0xbd959ea0	-0.07305646
124	0xbdf9db3f	-0.12200021
125	0xbe352245	-0.17688854
126	0xbcf82e4b	-0.030295512
127	0x3d92e6ea	0.071729496
128	0xbe9ac9e0	-0.30232143
129	0x3cfb5948	0.030682221
130	0xbebec6c3	-0.37261018
131	0x3e5feca5	0.21867616
132	0x3e40e2d8	0.18836534
133	0x3c4c6794	0.012475867
134	0xbe0f4eb9	-0.13994874
135	0xbc864b12	-0.016393218
136	0xbe38f2cc	-0.1806137
137	0xbd813ecd	-0.063108064
138	0x3db4f492	0.088357106
139	0x3dd747a6	0.10511713
140	0xbd94ba3b	-0.07262083
141	0xbdb7147e	-0.089394554
142	0xbd8cad9b	-0.0686905
143	0x3df3bd49	0.11901338
144	0xbdc2ae92	-0.09505953
145	0x3dce6680	0.10078144
146	0x3dd7b7d4	0.10533109
147	0x3d1eb57b	0.038747292
148	0x3c9b54f6	0.018961411
149	0x3e100176	0.14063057
150	0xbd127a39	-0.03576109
151	0xbe2ddf2b	-0.16979663
152	0xbecf2341	-0.40456584
153	0xbd1f995a	-0.038964607
154	0x3c635142	0.013874354
155	0x3d4967b9	0.049171183
156	0x3d994cd4	0.07485357
157	0xbe294da6	-0.16533527
158	0x3dc5a9d7	0.09651535
159	0x3ea3c266	0.31984252
160	0xbe218b6c	-0.15775841
161	0xbe513fba	-0.20434466
162	0x3d5a5db5	0.053312022
163	0x3dd9abb6	0.106284544
164	0x3d7e9101	0.062150005
165	0x3c81dd7a	0.015852679
166	0x3d83466e	0.06409918
167	0xbe9821e9	-0.2971337
168	0xbc6bfae6	-0.014403081
169	0x3de510cb	0.11184844
170	0x3d4f4dd7	0.050611343
171	0x3d889297	0.06668585
172	0xbe573c6f	-0.21019147
173	0x3e4d7bfe	0.2006683
174	0xbdb5e6c7	-0.08881908
175	0x3d4ce785	0.05002548
176	0xbe2c09ce	-0.16800615
177	0x3c14e567	0.009087897
178	0xbd9e0202	-0.07715227
179	0x3d3229d5	0.043496925
180	0x3ded938a	0.116004065
181	0xbdc8a0e4	-0.097963125
182	0xbe2f29c1	-0.17105772
183	0x3e01b5b0	0.12666965
184	0xbda8ed80	-0.082484245
185	0x3e81205c	0.2522
186	0x3e2b65dd	0.16738077
187	0x3dc1f9db	0.09471484
188	0xbd638e05	-0.055555362
189	0xbdf2eb0b	-0.11861237
190	0x3de74327	0.11292105
191	0x3d14f340	0.036364794
192	0xbebf94dd	-0.3741826
193	0xbe4b8b9a	-0.19877473
194	0xbe809529	-0.251138
195	0x3ea2cb4c	0.31795728
196	0x3e8ee0f0	0.2790599
197	0x3dbf6d77	0.09347051
198	0xbdb1ebca	-0.08687551
199	0xbdcb21b4	-0.09918538
200	0x3d4a7c16	0.049434744
201	0x3deec947	0.11659484
202	0x3edd62b6	0.43239373
203	0x3e39adc4	0.18132693
204	0x3d0af03d	0.033920515
205	0x3d5577fd	0.052116383
206	0xbdb1c842	-0.08680774
207	0xbe0b5336	-0.13605961
208	0xbd9c1cc2	-0.076226726
209	0xbe3b4225	-0.18286951
210	0xbe90b481	-0.28262714
211	0x3d31bd23	0.043393265
212	0x3d38976a	0.045066275
213	0x3e303e6c	0.17211312
214	0x3de47055	0.11154238
215	0xbe13ead1	-0.14445044
216	0x3de5e451	0.112251885
217	0x3dfa07cf	0.122085206
218	0xbe1359fe	-0.14389798
219	0x3dfd7133	0.12375107
220	0x3e723a71	0.23655106
221	0x3c86646c	0.016405307
222	0xbefa027f	-0.4883003
223	0xbe08977e	-0.1333904
224	0x3f00f1a3	0.5036871
225	0xbd1b71af	-0.037950214
226	0xbe106c16	-0.14103732
227	0x3e8aca46	0.27107447
228	0xbd9351bc	-0.07193324
229	0xbb98dd38	-0.004665043
230	0x3c198c51	0.009371833
231	0x3d5c4a61	0.05378187
232	0x3e42db1a	0.19028893
233	0x3eb05ba5	0.3444492
234	0x3e33599b	0.1751465
235	0x3e857939	0.26069048
236	0x3e0691c8	0.13141549
237	0xbdcc349e	-0.099709734
238	0xbd91fb6f	-0.07128035
239	0xbda19057	-0.07888859
240	0x3d48ffa2	0.049071915
241	0x3dd7a72f	0.105299346
242	0x3ed7c49a	0.42142183
243	0xbe6fb0fe	-0.23407361
244	0xbdc24a06	-0.09486775
245	0xbe349b0e	-0.17637274
246	0x3e4d6542	0.20058158
247	0xbe9715b6	-0.29508752
248	0xbe82e3fe	-0.2556457
249	0x3e2478d6	0.1606172
250	0xbeadc257	-0.33937332
251	0xbdc7605b	-0.09735175
252	0xbef6e2c5	-0.48219886
253	0x3e4b77cc	0.19869918
254	0x3d13508a	0.03596548
255	0x3e9543cd	0.2915329

onnx::MatMul_27 f4 [128, 8]
0	0x3c710d23	0.014712605
1	0x3c93180d	0.017955804
2	0x3c6d1569	0.014470437
3	0xbd8d26ef	-0.068921916
4	0xbb8d0666	-0.0043037413
5	0x3c183ebc	0.009292301
6	0xbc1622b7	-0.00916355
7	0xbc3f9e04	-0.011695389
8	0xbc9c71f6	-0.01909731
9	0xbd285be0	-0.041103244
10	0x3d45ecc9	0.04832152
11	0xbc0e6371	-0.008690701
12	0x3d02e5f9	0.0319576
13	0x3cc1b96f	0.023647992
14	0xbcff57e2	-0.031169835
15	0xbba99ef3	-0.005176419
16	0xb9c41e9c	-0.0003740684
17	0x3d1b1253	0.037859272
18	0x3cdc82da	0.026917864
19	0xbd099ed3	-0.033598732
20	0xbcf36e67	-0.02971573
21	0x3b97684f	0.004620589
22	0xbccfc86c	-0.025364123
23	0x3d063d4a	0.032773294
24	0xbc2dac13	-0.010600108
25	0xbd89f745	-0.06736616
26	0xbe184a49	-0.14872088
27	0x3d8666f7	0.06562608
28	0x3d149cc1	0.036282305
29	0xbd9397f3	-0.072067164
30	0xbb7323d2	-0.0037100208
31	0x3d499f45	0.049224157
32	0x3d23d8ce	0.040001683
33	0x3de88577	0.113535814
34	0x3d4c6cf6	0.0499086
35	0x3d705056	0.058670364
36	0xbc0f79eb	-0.008757095
37	0xbb0383d8	-0.0020067599
38	0xbd09ead7	-0.033671226
39	0xbcad0548	-0.021120682
40	0xbdd716f5	-0.105024256
41	0x3c4e7404	0.0126009025
42	0x3da0c478	0.078499734
43	0xbd4a9d88	-0.04946664
44	0xbdd7a3ca	-0.10529287
45	0xbd122491	-0.035679404
46	0x3e4d1165	0.20026167
47	0x3bdab06f	0.0066738646
48	0xbe162f65	-0.14666517
49	0xbc9b6f07	-0.01897384
50	0x39106813	0.00013771681
51	0xbc7eb124	-0.015545163
52	0x3d271320	0.040789723
53	0x3b633034	0.0034666182
54	0x3bd053b9	0.006357637
55	0x3d1b3621	0.03789342
56	0xbd5f01fc	-0.05444525
57	0xbb66197f	-0.0035110412
58	0x3e0a84bb	0.13527195
59	0xbbffc4ff	-0.007805466
60	0xbd0cabf5	-0.03434368
61	0xbd1618ca	-0.036644734
62	0x3dd4219e	0.103579745
63	0xbbb426e2	-0.0054977993
64	0x3ce22aa0	0.027608216
65	0x3d8def76	0.06930439
66	0x3e2e7168	0.17035449
67	0xbd312aac	-0.043253586
68	0xbe84a66e	-0.25908226
69	0x3cfe2ae9	0.03102632
70	0x3db4181f	0.08793663
71	0x3c9d356f	0.019190518
72	0xbdd1eea3	-0.102505945
73	0xbb590eb4	-0.0033120336
74	0xbdf7a725	-0.12092427
75	0x3d97f0ef	0.07419001
76	0xbc9b5e15	-0.01896576
77	0x3d967198	0.07345885
78	0x3ddd5455	0.10807101
79	0xbd13d15e	-0.03608834
80	0xbc616b6c	-0.0137585215
81	0x3ab7ca6b	0.0014022117
82	0x3d041c9c	0.032253847
83	0xbd44edf4	-0.048078492
84	0xbd14a5ca	-0.03629092
85	0x3c6eb6a1	0.014569909
86	0x3c36fc7c	0.011168595
87	0x3d51471c	0.051093206
88	0xbd20c8ad	-0.03925388
89	0x3dad7ca8	0.08471042
90	0x3ce54cf2	0.027990792
91	0x3d018cc8	0.0316284
92	0xbd27526c	-0.040850088
93	0x3dca351c	0.09873411
94	0x3d12e3b2	0.03586168
95	0x3d636307	0.05551436
96	0xbd1c8492	-0.038212366
97	0x3d9fd42b	0.0780414
98	0xbaf525a8	-0.0018703239
99	0x3ad1dfa4	0.0016012085
100	0x3b281829	0.0025649166
101	0x3c46cf11	0.012134329
102	0xbd83a75e	-0.06428407
103	0x3ba50bb6	0.0050367964
104	0xbc1ca23b	-0.009560163
105	0xbba2d184	-0.004968824
106	0x3c4545d8	0.012040578
107	0x3c85910a	0.016304512
108	0x3cc05c0d	0.023481393
109	0xbd3112ab	-0.043230694
110	0x3bdb073c	0.006684212
111	0xbdcad691	-0.099042065
112	0x3d589c82	0.052883632
113	0xbcdbdee3	-0.02683968
114	0xbd15632b	-0.036471527
115	0x3c442d0d	0.011973632
116	0xbd570221	-0.052492265
117	0x3c90230c	0.017594837
118	0x3ce4215c	0.027847938
119	0xbd0eab19	-0.03483114
120	0xbdd127ee	-0.10212694
121	0xbcae89bb	-0.02130591
122	0x3dc83bc8	0.09777027
123	0xbd28467f	-0.041082855
124	0xbda31d43	-0.079645656
125	0xbd158bc1	-0.036510233
126	0xb9ffc950	-0.0004878738
127	0x3d003998	0.031304926
128	0xbd05d1f3	-0.032670926
129	0x3d18234f	0.037143048
130	0x3bd8d14f	0.0066167484
131	0x3b583253	0.003298898
132	0x3c886c29	0.016653137
133	0x3d03a1eb	0.03213684
134	0xbbb2059e	-0.0054327985
135	0xbd2d191f	-0.042260285
136	0xbcf9d3ad	-0.030496443
137	0xbd3db25d	-0.04631268
138	0x3d0b28cf	0.033974465
139	0x3c3d19ca	0.011541793
140	0x3d18f6e6	0.037344836
141	0xbdbff820	-0.09373498
142	0x3d893f75	0.067015566
143	0x3a89bac2	0.0010507929
144	0x3d42f1b7	0.0475938
145	0x3dc3e92b	0.09565958
146	0x3d52bfc3	0.05145241
147	0xbda3ffef	-0.080078
148	0xbc6c77a2	-0.01443282
149	0x3d56344f	0.05229598
150	0xbc1faa2f	-0.009745165
151	0x3c604cd8	0.013690196
152	0xbd2d9321	-0.04237664
153	0x3b3c03af	0.002868872
154	0xbc07dfd8	-0.008293115
155	0x3bce8519	0.0063024876
156	0x3ce08d7a	0.027411211
157	0x3d913893	0.07090869
158	0xbd7e0eba	-0.062025763
159	0x3c7d5cc8	0.015464015
160	0xbadcc748	-0.0016844058
161	0xbd70cf58	-0.05879149
162	0x3deb898a	0.11500843
163	0x3c04a00e	0.008094801
164	0xbd7aeefc	-0.06126307
165	0xbdad8d57	-0.08474224
166	0x3d7a6c8e	0.061138682
167	0xbd0bfd04	-0.03417684
168	0x3d1d9d10	0.038479865
169	0xbac86fe4	-0.0015292135
170	0xbc2b97b7	-0.010473183
171	0xbb75b17d	-0.0037489824
172	0xbd814650	-0.06312239
173	0xbcee47ab	-0.029086908
174	0xbc404b83	-0.011736753
175	0x3c58cfea	0.013233164
176	0xbe169d39	-0.14708413
177	0xbdf8bf95	-0.121459164
178	0x3e0c84e8	0.13722575
179	0x3dc5bafd	0.09654806
180	0x3e7aaae0	0.24479246
181	0xbd8bfdbe	-0.06835507
182	0x3daa8b68	0.08327371
183	0xbd1679e8	-0.036737353
184	0xbdb40baf	-0.08791291
185	0xbd4c4040	-0.04986596
186	0xbc18c921	-0.009325297
187	0xbde2520f	-0.11050808
188	0xbd93a28c	-0.07208738
189	0xbb530938	-0.003220154
190	0x3ca31c17	0.019910855
191	0xbc03e4cf	-0.008050158
192	0xbb8a1769	-0.0042142165
193	0xbad6ed00	-0.0016397536
194	0xbd7ed71f	-0.062216874
195	0xbca83ed3	-0.02053777
196	0xbc144c44	-0.009051386
197	0xbb4810db	-0.0030527625
198	0x3b43b659	0.0029863326
199	0x3c5389bf	0.012911259
200	0x3e156f22	0.14593175
201	0xbd07f855	-0.033195812
202	0xbdc2441b	-0.09485646
203	0x3dd3d538	0.103434026
204	0xbdb27669	-0.08713991
205	0x3d4a6022	0.049408086
206	0x3e0cea4a	0.13761249
207	0xbd30072e	-0.042975597
208	0x3db0d995	0.086352505
209	0x3cb523e9	0.02211185
210	0xbd6e0098	-0.058106035
211	0x3be8b0f9	0.007101175
212	0x3db0ad2e	0.086267814
213	0x3a2f79e9	0.0006693886
214	0x3daaa8ed	0.08333001
215	0x3d121214	0.035661772
216	0xbd7f7a33	-0.062372398
217	0xbd82dd14	-0.063898236
218	0x3e19a49a	0.15004197
219	0xbc2e429b	-0.010635997
220	0x3e35fd4d	0.17772408
221	0x3cecdaaf	0.02891287
222	0x3d17affd	0.03703307
223	0x3d7cda8d	0.061731864
224	0xbc1951c5	-0.009357874
225	0x3cd9c36c	0.026582442
226	0xbad4a301	-0.0016222895
227	0xbc03e139	-0.008049303
228	0x3cf6274b	0.030048033
229	0x3db89ec6	0.09014659
230	0xbd973679	-0.07383437
231	0x3cedbb99	0.029020118
232	0xbcc5f07d	-0.024162525
233	0x3c2d4fd5	0.0105781155
234	0xbd41d6d6	-0.047324024
235	0x3a330b2a	0.00068299717
236	0x3bf65e5a	0.007518572
237	0xbd140a89	-0.03614286
238	0xbbbb51f3	-0.005716556
239	0xbde19d00	-0.110162735
240	0x3d480f7c	0.048842892
241	0xbb2eb384	-0.0026657293
242	0xbc9c0fac	-0.019050442
243	0xbc8a7b9c	-0.016904645
244	0xbd0eec2f	-0.03489321
245	0xbbdcd524	-0.0067392755
246	0xbdf4d847	-0.11955314
247	0x3d05ee3a	0.032697894
248	0x3dbf8de0	0.093532324
249	0x3d4a440f	0.049381312
250	0x3c306f1f	0.010768681
251	0x3e0c8fd2	0.13726738
252	0xbb451e15	-0.0030077745
253	0x3d29ce7b	0.04145668
254	0x3d5fbd8b	0.05462412
255	0x3b8dfc8d	0.004333085
